General/Code/Models/FCN-SGD-lr-0.01-acc-96.24.pth (torch, 401615 bytes, 8 tensors)

hidden1.0.weight f4 [100, 784]
000000 b4 d4 53 3c 15 b5 ea bc 98 b7 af 3b 3e 02 86 3c
       0.01292913 -0.0286508 0.0053624623 0.016358491
000010 54 a3 18 3c 5c f5 39 bc cc 20 a0 3c 90 2a a9 bc
       0.009316284 -0.011350002 0.019546889 -0.020650178
000020 60 f3 a3 3a 79 fb 04 3d 50 9d ab bc 52 7b e1 3c
       0.0012508444 0.032466386 -0.020949036 0.027524624
000030 4d e7 f9 3b 9c 62 76 3b b0 58 29 3c cb 0c b1 bc
       0.00762645 0.0037595397 0.010336086 -0.021612545
000040 d2 7c 63 bc 9c 07 51 3c d8 d7 04 bd b0 53 ef bb
       -0.01388474 0.012758162 -0.032432407 -0.0073036775
000050 70 a8 e9 bb 2c ca e5 bc be 96 f5 3c f2 e6 23 bc
       -0.007130675 -0.028050505 0.029979106 -0.010003792
000060 9c 07 fe bc 70 d1 48 bb da a4 e7 3c 07 82 a0 bc
       -0.031009488 -0.0030642413 0.02827685 -0.019593252
000070 cc 76 e0 bc 3a 28 ac bc be e1 b8 bc 1e 95 fc bc
       -0.027400397 -0.021015275 -0.02256858 -0.030832823
000080 31 a6 7d ba 66 83 eb bc 18 35 6f bc 40 21 bb bb
       -0.00096759485 -0.02874918 -0.014600061 -0.005710751
000090 01 27 85 3c 54 32 1c bc 7a e0 f6 3c 5f ea 84 bc
       0.01625395 -0.009533484 0.030136336 -0.016225038
0000a0 26 23 eb bb a2 73 83 bb 9c 78 9d 3c 0f ff e3 ba
       -0.007175821 -0.0040115872 0.01922255 -0.0017394739
0000b0 43 70 e4 bc b0 00 c7 bc 0c 9f a5 bc b8 b2 77 bc
       -0.027885562 -0.02429232 -0.020217441 -0.015118293
0000c0 47 09 47 3c 4e ba d0 3c dc 52 0b bc ec b2 96 3c
       0.012148208 0.025479462 -0.008503642 0.018395863
0000d0 6e d9 90 bc 5a b1 92 3c 8f b0 0b 3d 78 86 77 3c
       -0.017681804 0.017906833 0.034103926 0.015107743
0000e0 90 64 7e 3c 7d a0 06 3d 33 61 40 bc 22 e9 5b 3c
       0.015526906 0.032867897 -0.011741924 0.013422282
0000f0 e6 5c 0d bd cb 44 74 bc c8 9c 04 3d c3 79 cd 3c
       -0.034512423 -0.01490898 0.03237608 0.025082475
000100 af ca 00 3d 95 16 66 bc 58 dd 40 3b 9c f4 79 bc
       0.031443294 -0.01404347 0.0029428806 -0.015256073
000110 14 ca 3f bc b3 48 de 3c 65 00 68 bb 7c 82 ae 3c
       -0.011705894 0.027134275 -0.0035400626 0.021302454
000120 16 cd 21 3c 6b fa 20 3c 3a 25 8d 3c ec 45 1d b9
       0.009875556 0.009825329 0.017229665 -0.00014998735
000130 7c 67 18 3c b7 a6 a0 3c e6 88 73 bb 7e 12 6e 3c
       0.009302016 0.019610746 -0.0037160455 0.014530776
000140 83 67 d1 bc 9d 8e 38 3c 42 48 fd 3c 40 d3 7b bc
       -0.025562054 0.01126447 0.030918244 -0.01537019
000150 fc 5d fa bc 40 0b 24 ba 97 7d 04 bc 48 bd aa 3c
       -0.030562393 -0.000625778 -0.008086584 0.02084221
000160 b6 e6 0a b9 83 ea e2 3c 67 01 94 3c af 21 07 3b
       -0.00013246652 0.027699715 0.018067075 0.0020619442
000170 d8 32 87 3c 67 54 5c 3d 33 31 cc 3c c9 d6 51 3d
       0.016503736 0.05379143 0.024925804 0.051230226
000180 6e 69 2b 3d c5 a0 03 bc 6a 1c d1 bc 0d 86 6d 3b
       0.041848592 -0.008033936 -0.025526244 0.003624323
000190 b8 85 7f bc 16 8f e7 bb 71 0c c2 3b 8a e6 65 3b
       -0.015595846 -0.0070666177 0.0059218933 0.003508004
0001a0 c4 74 a1 bb ca 9b 1a bd 29 0a 0d bd 28 c6 55 3c
       -0.0049272496 -0.03774623 -0.034433518 0.013047732
0001b0 c5 2e 2a 3c 0b e3 6b 3a 7d 5f 9c ba cc 95 cd bc
       0.010387127 0.00089983706 -0.0011930313 -0.025095843
0001c0 70 f9 73 3c 11 5f a4 bc 5c 4e 23 3c 44 e3 9a bc
       0.0148910135 -0.020064862 0.009967413 -0.018907197
0001d0 45 aa 05 bc 4e da 42 bc 33 41 30 3d 64 ee 41 3c
       -0.008158271 -0.011892868 0.04303093 0.011836622
0001e0 7f 29 4c 3c 8d bb c9 3c 5b da 2e 3d ac 39 a4 3c
       0.012461065 0.024625564 0.04268871 0.020047031
0001f0 7b 51 7a 3b c7 59 ca 3c e3 e3 61 bc 4f fd ba bc
       0.0038195539 0.024701012 -0.013787243 -0.022825865
000200 bc f7 0f bd 41 d8 4f bd e7 9f b3 bc 81 51 29 bd
       -0.035148367 -0.050743345 -0.021926833 -0.041337494
000210 00 5b cf 3b 12 6a 86 bd 93 27 e6 bc f6 e4 66 bd
       0.0063279867 -0.065632 -0.028095042 -0.056370698
000220 33 96 37 3c 9c 7d af bc 5d 12 15 bc 42 32 99 bb
       0.011205244 -0.0214222 -0.009098616 -0.0046751807
000230 2e 01 dc bc 0e 10 54 bc 9d c3 90 ba d8 15 ea ba
       -0.026856031 -0.012943281 -0.0011044625 -0.0017859293
000240 f1 60 1c 3b e3 fa 30 3c 8d eb 5d bb 71 48 a6 3c
       0.0023861493 0.010802004 -0.0033862323 0.020298215
000250 a2 d8 75 bb c5 11 da 3a 8e b8 d8 3b 58 bf 7e bc
       -0.0037513156 0.0016637376 0.0066137975 -0.01554855
000260 2a 9b 40 3a da 48 d0 bc d7 1e a3 bc 79 87 dc bc
       0.000734734 -0.025425363 -0.019912167 -0.026920067
000270 64 fb 50 3b d9 ba dd bc 56 a0 91 3b a6 28 78 bc
       0.0031888122 -0.027066635 0.0044441624 -0.01514641
000280 56 0b 76 bc 9b e5 0d bd 6b c4 c7 bc ef 4b ef bc
       -0.015017351 -0.034642797 -0.024385652 -0.029211013
000290 3d 56 00 bd ab ca d0 3c f7 63 89 3c bf 13 f7 bc
       -0.031332243 0.025487265 0.0167713 -0.030160783
0002a0 c0 59 cb 3a 4d 93 b6 3c 03 ee ac 3c 1d 7b aa bc
       0.0015514418 0.022287035 0.021109587 -0.020810658
0002b0 ea f4 dc 3c b9 49 87 bc 34 84 ca b9 e7 53 f1 3c
       0.026972253 -0.016514646 -0.0003862694 0.029458953
0002c0 a3 95 12 3c d8 3e 5f ba 30 4e 86 bb bf 07 9e bb
       0.008946809 -0.00085161394 -0.004098676 -0.0048227008
0002d0 f8 b9 db 3c 43 d4 92 3c 18 4c 18 bd 17 2c f2 3a
       0.026822075 0.01792348 -0.037181944 0.0018476275
0002e0 62 b9 5a 3d 6b af c8 3a 3a 12 88 bc c8 6b a0 3c
       0.05339945 0.0015311068 -0.016610254 0.019582644
0002f0 13 e9 cd bc fc a7 48 3a 3c 2a 06 bd 2f 7d 1f bd
       -0.025135553 0.0007654426 -0.03275512 -0.038937744
000300 16 c3 d7 bb e6 29 d8 bc a4 8b 07 3d ec f2 d0 3c
       -0.0065845354 -0.026387166 0.033092156 0.02550646
000310 87 93 07 3d e3 6f de 3c 07 6f 85 3c 79 34 06 3d
       0.033099677 0.027152961 0.016288294 0.032764886
000320 ab 2d 58 bb df 42 d8 3c fb 8d 82 bc c1 85 a4 bc
       -0.0032986205 0.026399074 -0.015936842 -0.02008331
000330 c0 7a 65 3c 6e 5c db 38 21 8e b0 bc 8a 15 9f 3b
       0.014006317 0.0001045995 -0.021552147 0.0048548626
000340 b9 67 9a bb 6f 75 06 bd 67 55 09 bd 6c 9a 1a 3d
       -0.0047120717 -0.032826837 -0.03352871 0.037744924
000350 41 6d 5a bc 4c bd ff bb 2d 35 2d bb 3e ae dc bc
       -0.013331712 -0.0078045484 -0.00264294 -0.026938554
000360 96 7c 51 bd 55 e3 b7 3b 5d b4 1f bb c8 05 08 bc
       -0.051144205 0.005611817 -0.002436898 -0.00830216
000370 5e 64 16 ba 0b 13 db 3b 64 c0 64 3b 99 ee a9 bc
       -0.0005737002 0.0066856197 0.0034904713 -0.020743655
000380 b7 de f3 3c 11 ed dc bc 8f e3 25 bc e5 2a 02 3c
       0.029769285 -0.02696851 -0.010125055 0.007944797
000390 eb 3a 53 bc 49 fd a7 bc 47 3c e4 bc 6a 94 03 bb
       -0.012892465 -0.020506518 -0.027860774 -0.0020077475
0003a0 fc 61 e3 3b 87 16 dd bc d6 40 11 3d 64 23 5c 3c
       0.006939171 -0.026988281 0.035462223 0.013436172
0003b0 8c c6 93 bc 70 9e 17 3c 17 8e 5a 3d 72 01 a2 bc
       -0.01803901 0.009254083 0.053358164 -0.01977608
0003c0 88 65 f7 3b 7d 35 38 bd ea 5a 05 bd 3c fc 3c 3a
       0.0075499453 -0.044972885 -0.032557406 0.0007209217
0003d0 5b fb c9 bc e8 5b 38 bc 63 07 ad ba d2 d6 15 3d
       -0.024655988 -0.011252381 -0.0013201054 0.03658182
0003e0 75 f9 b5 bb 41 fa fa ba 41 44 44 3c 58 b0 39 bc
       -0.0055534192 -0.0019148068 0.011979164 -0.0113335475
0003f0 e8 e9 dd 3b 09 30 0a bd 6c e8 d2 bc 57 f0 8c bc
       0.0067722686 -0.033737216 -0.025745593 -0.017204447

hidden1.0.bias f4 [100]
000000 50 f0 68 bd 69 8b 73 3c cc bb be 3d db f4 e1 3d
       -0.056869805 0.014864781 0.09313163 0.110330306
000010 10 f4 01 3c 6f c8 ed 3d 67 85 c6 bc 05 3c 40 3e
       0.007931724 0.11610495 -0.024233533 0.18772896
000020 9f c4 1b 3d 4a 5b 92 3d a5 99 84 bd 81 ab 8d 3c
       0.03802931 0.07146318 -0.06474618 0.017293693
000030 80 1c c6 bd 98 78 be 3d a7 bd 1b 3e 9e 0e 2f 3d
       -0.09673405 0.09300345 0.15209065 0.04273855
000040 52 be 1f be 03 a6 1b be 20 18 d7 3b aa 2f b9 bc
       -0.15599945 -0.15200047 0.006564155 -0.022605736
000050 75 4e 89 bd f3 1e ce 3c 47 c6 23 bd 2f 22 56 bc
       -0.067044176 0.025161242 -0.039984014 -0.013069673
000060 b3 e7 5d bc 45 c1 ad 3c 3e 1c 42 be 05 97 0b bd
       -0.013544011 0.021210322 -0.18956086 -0.03407957
000070 52 e0 21 3d 3c 08 5d 3d ac ca ef bc 17 69 3a bd
       0.03952057 0.05396293 -0.029271446 -0.045510378
000080 8a ef 4e be f8 51 3c be 20 2d 7f 3d 03 8d 92 3b
       -0.20208564 -0.18390644 0.062298894 0.0044723763
000090 09 20 0a be 0c e7 0f bd c0 85 27 3e ff f9 4f 3e
       -0.13488783 -0.035132453 0.16359615 0.2031021
0000a0 68 11 ef bc 89 ed 2d bd 49 e3 3e 3c 70 da 9b 3d
       -0.029183105 -0.04246286 0.011650869 0.07610023
0000b0 56 f4 21 3e 34 df 58 be 60 14 c4 3c 0c d7 b9 3c
       0.15815863 -0.21178895 0.023935497 0.02268555
0000c0 f1 92 c3 bd 98 d2 c1 3b 1c 0e 4a be bf fa c1 bd
       -0.09549511 0.0059149973 -0.19731945 -0.09471654
0000d0 01 16 b4 3d f7 8b 5b bd 61 88 0d bb a3 e2 d4 3c
       0.087932594 -0.053600278 -0.002159618 0.025986975
0000e0 b2 82 a0 3c 85 03 f4 bd ee a1 ca 3c f7 c6 15 be
       0.01959357 -0.11914734 0.024735417 -0.1462668
0000f0 83 d0 d6 3c 95 b3 bb 3d 60 67 cc bc 39 68 50 3c
       0.026222473 0.09165112 -0.024951637 0.012720161
000100 d7 ad db bd 39 2f eb bc 48 3d 43 3c 6b 75 76 3d
       -0.10726517 -0.028709041 0.011916466 0.060170572
000110 98 78 ba bd 7b be c8 bd 21 14 6c be 26 0b 0d 3d
       -0.09105033 -0.09801956 -0.23054554 0.03443446
000120 84 c2 5e 3e b6 32 d7 bd 6a 16 b0 bd 14 29 33 bc
       0.2175389 -0.10507719 -0.08598025 -0.010935087
000130 b3 0a 4c 3d e4 b2 62 3d 61 b8 31 bd 80 80 3d be
       0.04981489 0.055346385 -0.043388728 -0.1850605
000140 4c 1e 21 3e 2f e1 6a bc 49 57 a3 bc cb a7 26 bd
       0.15734214 -0.0143359145 -0.019939082 -0.040687364
000150 8b e6 f5 3c da d3 6d be 10 b3 ac 3d 34 41 31 bd
       0.030017158 -0.23225346 0.08432591 -0.043275073
000160 65 f4 97 bd 9c cf 09 3e a1 ae 3a be b0 14 eb 3d
       -0.074196614 0.13458103 -0.18230678 0.11478555
000170 3c da 49 3d 82 9f 53 be 81 26 b4 bd c8 6c 88 3d
       0.04928039 -0.20666316 -0.087964065 0.066613734
000180 71 aa 0f bd 35 f6 55 bd b4 f8 04 3e f2 3c ee bd
       -0.035074655 -0.052236754 0.12985498 -0.11632718

hidden2.0.weight f4 [100, 100]
000000 15 6a 53 bd a9 91 58 3d b2 41 83 bd 79 51 c8 3d
       -0.05161484 0.052873287 -0.06409015 0.09781165
000010 59 eb 81 bd 7e de 1f 3d ed 5b 2e bd 5b a7 d8 3c
       -0.06343717 0.039030544 -0.042568136 0.026446989
000020 c9 43 85 bc 06 4f f1 3d 9e cc bd 3d 6f 96 29 be
       -0.016267674 0.11782651 0.09267543 -0.16561292
000030 ca 2a 6c 3d 13 1f 46 bd e1 7e 02 3e 86 6e 0f 3e
       0.057657994 -0.04836948 0.12743713 0.14007005
000040 87 c9 ae bd dc 9b da 3c 49 f0 40 bd ba b5 c4 3d
       -0.08534532 0.026685648 -0.047104154 0.09604974
000050 ae 38 cf bd 20 25 dc bd 29 d9 b6 3d 8a cf ed bc
       -0.10118233 -0.107492685 0.08928139 -0.029029626
000060 34 68 da bd 8e 48 87 3c ce 37 4c bd 8c 39 48 3e
       -0.106644064 0.016514089 -0.049857907 0.19553202
000070 f9 60 9a ba 80 de fc 3c 60 49 9f 3d 4c 47 c7 3b
       -0.0011778168 0.030867815 0.07777667 0.0060814973
000080 29 0c 21 bc f0 24 be bd 2e 72 7b 3c bf 7e d6 3d
       -0.009829559 -0.09284389 0.015347047 0.10473394
000090 d4 fb 33 bc 44 99 8b 3d 29 ea c9 bd 81 ed d6 bd
       -0.0109853335 0.068163425 -0.09859116 -0.10494519
0000a0 c1 91 91 bd aa af 54 3e eb ba ae bd bd a9 be 3d
       -0.071078785 0.20770136 -0.085317455 0.09309719
0000b0 66 ab 83 3c 0f db 9c bd 15 e1 9d bd 4a 66 84 bd
       0.01607294 -0.076589696 -0.077089466 -0.064648226
0000c0 dd f2 6d 3d 35 09 b8 bb 3b d5 01 bd f4 21 94 bc
       0.05809294 -0.005616332 -0.031697493 -0.018082596
0000d0 df cd b3 bd 9a f9 3b bb 28 86 b7 3c a4 8b 9b bd
       -0.08779501 -0.002868271 0.022402838 -0.07594994
0000e0 fb e6 af 3d d6 d9 b9 bd 2f a9 2f be 80 b7 84 bd
       0.08588978 -0.09074752 -0.17154382 -0.06480312
0000f0 54 47 13 3e 93 ae f5 bd f9 d6 26 3e 55 89 06 be
       0.14382678 -0.11996188 0.16292943 -0.13138326
000100 e2 6c 8c 3a b0 6e 8e bd 18 af 52 3d 02 b9 9c 3c
       0.0010713602 -0.06954706 0.051436514 0.019131187
000110 80 40 fa bd 7d 05 6f 3d 92 f3 93 3d 19 ab d9 bd
       -0.12219334 0.058354843 0.07224192 -0.106283374
000120 bf d6 d8 bd ec 54 8d 3c 60 87 ed bc 33 d2 c5 bd
       -0.105878346 0.017252408 -0.028995216 -0.09659233
000130 d7 7b af 3d 82 43 e9 bd e3 3c 02 be 38 ad 32 bd
       0.085685425 -0.11389829 -0.12718539 -0.043622226
000140 35 6d 28 be 45 c2 72 3d 18 27 e9 bb ec 33 59 bd
       -0.16447909 0.0592673 -0.007115256 -0.053028032
000150 b6 c8 cd 3d f2 a8 6d bc 00 91 a2 bc 15 48 4d bd
       0.10048048 -0.014505612 -0.019844532 -0.05011757
000160 65 ad 90 bd cf ba 54 3d fd d1 0d be 05 4b be bd
       -0.070643224 0.051935967 -0.13849635 -0.092916526
000170 d8 aa 56 bd e1 94 2c 3d 13 ec 0b be f6 e1 07 bd
       -0.052409023 0.04213417 -0.13664274 -0.033174478
000180 37 8a 25 3e cc bf ca bd e6 34 c0 bd 37 cc f4 bc
       0.16166006 -0.098998636 -0.093850896 -0.029882533
000190 ca 18 22 3e 5a f0 bb bc 22 7f 33 3e b7 53 a3 bc
       0.15829769 -0.022941757 0.17528966 -0.01993738
0001a0 49 9d 8e 3c 01 aa 0e be 87 a8 f8 bc 1b 13 01 be
       0.017408984 -0.13932039 -0.030353798 -0.12604944
0001b0 f4 e5 0f be cd 54 1a 3e 6e 96 ad 3d 99 e1 33 bc
       -0.14052564 0.15071411 0.08475958 -0.01097908
0001c0 e0 1e d8 3d 8b 6f 64 bd bb 70 bd bd 49 3d b5 3d
       0.10552764 -0.05577044 -0.09250017 0.0884958
0001d0 b3 59 dd 3d a4 12 25 bd 99 7f 0e 3d ee 88 a1 bd
       0.108081244 -0.04030098 0.034789655 -0.078874454
0001e0 47 a8 32 bd 57 3e e0 bc 22 31 85 3d 71 7a 02 be
       -0.043617513 -0.027373476 0.06503512 -0.1274202
0001f0 83 43 6b bd 97 82 66 bd 1f 52 0e 3e 20 91 a1 bd
       -0.05743743 -0.056276884 0.13898514 -0.078890085
000200 8f 21 bf 3c b5 1f 91 bd 04 04 bf bd 05 8e 05 bd
       0.023331432 -0.07086126 -0.09326938 -0.032606144
000210 4c 56 8a 3d 90 9a 39 bd 83 8d 01 3e 4b bb a9 bd
       0.06754741 -0.045313418 0.12651639 -0.082876764
000220 07 8f e6 bb 87 3e af 3c f4 6a 33 3d e9 d9 4d bd
       -0.007036093 0.02139212 0.04380317 -0.050256643
000230 18 85 ea bd 6f d3 85 bd 27 9c 4a 3d 56 f4 3f 3d
       -0.11451167 -0.065344684 0.049465325 0.046863876
000240 41 f9 22 3e d2 95 58 3e 92 e2 23 bd ba db 85 bd
       0.15915395 0.21150902 -0.040010996 -0.0653605
000250 92 c8 9f 3d 7a 32 fd bb f5 d6 c8 bd 34 74 73 3c
       0.078019276 -0.0077269645 -0.09806625 0.014859248
000260 cc 20 9c bd c1 b4 89 3e 1e 75 31 3e 42 fc 3f 3d
       -0.07623443 0.26895717 0.17329833 0.04687143
000270 71 ad c3 bc 60 3d 6f 3e 5b c4 bf 3d 3e b1 5e bb
       -0.023886414 0.23363256 0.09363624 -0.0033980156
000280 1a da e2 bc 66 dc 7b 3d f9 62 16 bd 6c ab 7c 3c
       -0.02769189 0.061489485 -0.03671548 0.01542173
000290 7e 43 24 3c 14 e8 e4 bd fa 23 6e bc 44 63 0f 3e
       0.010025857 -0.11177078 -0.014534945 0.1400271
0002a0 c1 be af 3d 05 81 20 3e 6b b1 3c 3d b3 d0 05 3d
       0.08581305 0.15674217 0.046067636 0.032669734
0002b0 4c 4f ae 3d 06 f5 d3 3d dc 59 1f 3d 30 5d 1d 3e
       0.085112184 0.10349469 0.038904056 0.1536758
0002c0 d0 ec 8d 3a c9 8f 71 3c fb 39 16 bd 82 82 19 bd
       0.0010828022 0.014743754 -0.03667639 -0.037477978
0002d0 c2 f4 57 3d 9e ef b6 3d c3 17 2b 3d 74 56 96 3b
       0.052723654 0.08932422 0.041770708 0.0045879427
0002e0 87 13 3e 3e 85 b7 8b bd 69 a6 50 3c 3d 33 6f bd
       0.18562137 -0.06822113 0.012734988 -0.058398474
0002f0 bf ea 09 3e db 54 93 3d a1 c4 0f be 39 de 44 3e
       0.13468455 0.07193919 -0.14039852 0.19225396
000300 f2 6d 84 3d 8f 6b d6 3d ea 12 f7 3c b9 93 26 3d
       0.06466283 0.10469734 0.030160386 0.040668223
000310 5b 0e 3f bd 2c 32 9e bd 96 a1 21 3d 34 e8 34 be
       -0.04664455 -0.07724413 0.03946074 -0.17666703
000320 27 8c c8 bc 60 75 e7 3b 16 e7 57 3e 6c a3 80 bc
       -0.024480892 0.0070635527 0.21084246 -0.015702926
000330 60 fc 02 be 9d 90 14 bd 6f 17 c5 3c 0a 67 ab bd
       -0.12791586 -0.036270726 0.024059026 -0.083692625
000340 63 f9 81 3d ff 2d e8 3d 76 8d ce 3c da 27 e2 bd
       0.06346395 0.11336898 0.025213938 -0.11042757
000350 6c 41 6e 3d ab db 9e bd ba a0 ab bd 1c a8 e3 bc
       0.05816786 -0.07756742 -0.083802655 -0.027790122
000360 1a 5e 3c 3e 96 85 d2 bd dd 06 96 bd 07 5f d1 bd
       0.18395272 -0.10279386 -0.07325528 -0.10223203
000370 13 75 fe bd 99 a3 a1 3d 79 7f 58 bc 5a d9 67 bc
       -0.12424674 0.07892532 -0.013213986 -0.014150942
000380 c2 8e e6 bd 19 51 2e be 2a c2 e3 3d 9d 9f 5d 3c
       -0.11257698 -0.17023124 0.11121018 0.013526824
000390 01 f3 cf 3c d3 2d 24 bd 17 54 7e 3c c7 c5 60 bd
       0.025384428 -0.040082764 0.015522978 -0.054876115
0003a0 82 b2 15 3e 46 0e eb 3c fe a3 e2 bc c1 db 5c 3d
       0.14618877 0.02869333 -0.027666088 0.05392051
0003b0 68 76 4c bd b3 fd 93 3d 07 5a 2e 3d c7 44 65 3c
       -0.04991761 0.07226124 0.042566326 0.013993449
0003c0 4d 7d b4 bd 97 6f 05 3c bf 81 86 3d 1d 68 32 3d
       -0.08812962 0.008144281 0.06567716 0.04355632
0003d0 0c 1e 01 3e 3d 2a b7 3b d9 c7 85 3d 76 3d 4c bd
       0.12609118 0.005589752 0.065322585 -0.0498633
0003e0 5c 10 7c bd 51 81 8c bc c3 54 c0 3c a5 3f f2 3c
       -0.06153904 -0.017151507 0.023477918 0.029571364
0003f0 b7 38 28 bd cc 9e 05 3d 10 ca c6 bd 23 67 d0 3d
       -0.041069712 0.032622144 -0.09706509 0.10175922

hidden2.0.bias f4 [100]
000000 4a 08 f0 3c a4 96 21 bd 07 b9 52 3d eb 48 6d 3b
       0.029300828 -0.039450303 0.051445987 0.0036206793
000010 d6 de 3e 3c 70 d9 6b 3d d3 5a 6d 3d f6 48 2f 3c
       0.011649808 0.05758041 0.057947945 0.010698548
000020 9a 18 14 3d af bc 5a 3d 9e a5 1f 3d 3e dd ab bd
       0.036156274 0.0534026 0.038976304 -0.08391808
000030 b3 38 40 3d a4 b2 43 ba ff 2e a0 3d eb f5 a2 bd
       0.046929073 -0.0007465279 0.07821464 -0.079570614
000040 87 3b 44 3d 53 45 35 3d ac 37 49 bd 40 56 ce 3b
       0.047908332 0.044255566 -0.04912536 0.006296903
000050 b3 1d 30 3d 24 8c 09 bc 4d 29 31 bc f5 c4 f5 3c
       0.042997073 -0.008395229 -0.0108130695 0.030001143
000060 b6 65 70 3d 2c 1b 4b 3d 94 62 91 3d 61 90 c1 bb
       0.05869075 0.04958646 0.070988804 -0.005907104
000070 5f 8b 89 3d b5 5d cd 3c 51 b8 79 3d 11 db 6e 3c
       0.06716036 0.025069097 0.060966793 0.014578597
000080 da d7 1c 3d 1d 48 9e 3d 7e 7e 37 3c 39 fd 8a bc
       0.03829179 0.07728598 0.011199592 -0.01696645
000090 09 8e f1 bc aa c0 a2 3c af 01 fc bc 48 49 c5 3c
       -0.029486673 0.01986726 -0.030762522 0.024082795
0000a0 2b 93 9b 3d bd 93 24 3d 1d f5 82 bd 4a 8d 0f bd
       0.075964294 0.040179957 -0.06394408 -0.035046853
0000b0 1b 98 0d 3d 52 7b 2d bd 39 93 7d bd a2 97 0f 3d
       0.034568887 -0.042353936 -0.06190798 0.035056718
0000c0 5a 4b bb 3d 7e 5c 77 bc 82 86 37 3d 8f 15 b5 bc
       0.091452315 -0.015097735 0.04480601 -0.022105007
0000d0 21 82 b2 3d b8 be b1 bc 69 6e 33 bb bd fe f2 bc
       0.08716226 -0.021697387 -0.0027379042 -0.029662484
0000e0 40 75 f7 bc 35 2b a7 3c b1 ca 17 bc 10 59 b4 3b
       -0.030207276 0.020406345 -0.009264634 0.005503781
0000f0 60 3a 2b 3d 4e c8 82 bb ff d4 80 3c cf 2d 2a 3b
       0.041803718 -0.0039911633 0.015726564 0.0025967245
000100 4f 9c 28 bd b2 65 02 3c 34 97 9a bc 73 65 2d 3c
       -0.041164692 0.007958816 -0.018870927 0.010583269
000110 d0 46 5f 3d 74 d3 cf 3c 15 0a ac 3c 15 68 8f 3c
       0.05451089 0.025369383 0.021000901 0.017505685
000120 93 83 e5 ba 5a b6 ab 3c c7 53 3b 3c 17 af da bc
       -0.0017510526 0.020960975 0.011433548 -0.026694817
000130 97 a0 9b bd 73 fd b0 3c 61 15 3b bd 68 94 7f bc
       -0.075989895 0.021605229 -0.045674685 -0.015599348
000140 01 92 95 3c ab 78 a7 3d ba 87 04 3d 5f 52 04 bd
       0.018258097 0.081773125 0.032356 -0.032305118
000150 18 cc 87 bd 6e 47 9e bc 77 f7 61 3d d2 84 61 3d
       -0.06630725 -0.01932117 0.05516764 0.055058308
000160 db 50 57 3d f6 86 3b 3c e8 03 70 bc 0d 7a 97 bc
       0.052567344 0.011445751 -0.014649369 -0.018490816
000170 d7 d5 44 3d 36 5d 66 3d 46 f1 69 3d 98 58 6d 3d
       0.048055496 0.056241237 0.057114862 0.057945818
000180 6e 31 22 3c 45 ef 89 3c 8f b7 f8 bc c4 d9 05 bd
       0.00989948 0.016837725 -0.030360965 -0.03267838

hidden3.0.weight f4 [100, 100]
000000 f6 ea 82 3d 7f 43 02 be c1 e5 33 3d dd ea c7 3d
       0.063924715 -0.1272106 0.043920282 0.097615935
000010 c6 9e cc 3c e8 a2 c5 3d f4 c0 41 bd 27 44 28 bd
       0.024978053 0.096502125 -0.047303155 -0.04108062
000020 be 83 e8 bd 60 36 93 bd 50 cb 79 bd 9f 75 d2 3d
       -0.11353253 -0.071881056 -0.06098491 0.10276341
000030 64 bc 15 3e c6 b3 36 bd 9e d3 82 bd 13 14 9b 3d
       0.14622647 -0.04460504 -0.06388019 0.07572188
000040 cd cc 10 3e 05 93 a2 bd f5 16 8a bd 9d 12 0f bb
       0.14140625 -0.07938198 -0.0674266 -0.0021831163
000050 04 5d 8b 3d a0 8b 94 bd 9a f8 6d 3d 9d 20 05 3e
       0.06804851 -0.07253194 0.058098413 0.13000722
000060 28 82 66 3d bd f5 6e 3a e7 c2 c0 3d 4b e2 7e bd
       0.05627647 0.00091155973 0.09412175 -0.06222753
000070 7a 7c 03 3e f0 75 02 3e 2f 46 b9 bd ea 94 5a bd
       0.12840453 0.12740302 -0.090465896 -0.05336467
000080 1f d7 6f 3e 35 3c 93 3d 35 b0 ca bd 1d 13 a5 3d
       0.23421906 0.07189218 -0.0989689 0.08060286
000090 52 9b 9c bd e7 cd 23 3e 6c 6c a3 bc a1 c0 14 bd
       -0.076468125 0.15996514 -0.01994916 -0.036316518
0000a0 8d 71 9a bd cf ab 4d bd ca 3b 66 3c f0 9c 87 bc
       -0.07541189 -0.050212678 0.014052341 -0.016554326
0000b0 8d b1 90 3b 5e 15 60 3d 9f fd 8d 3c c5 c4 27 bd
       0.004415697 0.054707877 0.01733285 -0.04095914
0000c0 ce 45 fb 3d 8c 2d 8b 3d 41 92 dc bd d2 16 b4 3d
       0.122691736 0.06795797 -0.10770083 0.08793415
0000d0 e8 59 b2 3d 2a d7 8b bc 09 d5 c5 3c 9d 76 cc bc
       0.087085545 -0.017070372 0.024149435 -0.024958903
0000e0 58 e4 01 be b0 a6 a7 bc ce 18 59 3d 5a 07 8c bd
       -0.12684762 -0.020465225 0.05300217 -0.0683734
0000f0 03 c2 b7 3c 09 19 07 3d 60 4e d8 bd 45 71 66 bd
       0.02243138 0.03298286 -0.10561824 -0.056260366
000100 33 45 11 bc 0e 42 a9 3c f7 1c 18 3e 27 77 67 bd
       -0.008866596 0.02066138 0.14854799 -0.056510117
000110 27 d4 dc bc 55 fe 0c be a2 dd 69 bb a0 ec 3d 3d
       -0.02695663 -0.13768895 -0.0035685082 0.04636824
000120 57 58 34 3c 9c 54 7c 3d 0e a7 39 3e a6 0e 89 bd
       0.01100739 0.061604127 0.18130133 -0.06692247
000130 8f a6 23 3e 7c a7 50 3e 60 fb 99 3d 9f 14 15 3e
       0.15981506 0.2037639 0.07518649 0.14558648
000140 87 44 ec 3b 4a cb 62 3d 59 e9 40 3a 18 be df 3d
       0.0072103175 0.055369653 0.000735899 0.109249294
000150 af ef 62 3d 91 01 f7 3d fa 29 70 bd 8f f5 f1 3d
       0.05540436 0.12060846 -0.058633782 0.11814415
000160 27 37 c0 bd 1d f6 47 3e d8 40 9f bc 19 9b 08 3e
       -0.093855195 0.19527479 -0.0194401 0.13340415
000170 27 ca 39 3d 18 7f 13 be 10 7b 8b bd 0f cb 83 bd
       0.045358803 -0.14403951 -0.06810582 -0.06435215
000180 b6 29 6f bc 0e 71 17 3c 92 e2 f3 3d b7 cc f4 bc
       -0.014597347 0.009243263 0.11908449 -0.029882772
000190 a3 a1 4e 3d 5e 13 10 3e 0a 95 33 3d c1 b4 59 3d
       0.050447118 0.14069888 0.043843307 0.053150896
0001a0 f3 e8 d6 3d ef e4 ac 3d c0 24 aa 3b 6e 7a d8 3b
       0.1049365 0.08442103 0.005192369 0.0066063916
0001b0 ae 94 82 bb 19 9c 29 bb 98 f3 82 3d eb e3 7f bd
       -0.003985009 -0.0025880395 0.06394118 -0.06247322
0001c0 f4 bd 69 bc 2e bc 67 3d 5d 08 63 3d a1 14 ae 3c
       -0.01426648 0.056575947 0.055427898 0.021250071
0001d0 a0 ee 93 bd 4a 13 8e 3c 06 ee aa bd 0e c6 b6 3d
       -0.072232485 0.017343182 -0.083461806 0.08924495
0001e0 96 01 87 bd 23 1c 4e 3d d2 43 a1 bc 7d 8e 17 be
       -0.06592099 0.050319802 -0.01968566 -0.14800449
0001f0 cd b2 2b 3c c0 57 94 bd 8f 77 ae bd b1 95 ca 3c
       0.010479641 -0.072432995 -0.08518898 0.024729582
000200 b5 8e 97 bd 65 64 9c 3c 46 09 1e 3e 98 6b a7 bc
       -0.07400266 0.01909084 0.15433225 -0.020437047
000210 aa d2 c3 bd 01 bc 9c bb 08 2b 31 3e 6e 15 c9 3d
       -0.09561665 -0.004783154 0.17301571 0.098185405
000220 62 6a 38 3e 89 23 70 bd 77 cc 6c 3e 3d 31 c2 3b
       0.18009332 -0.05862764 0.23124872 0.00592628
000230 a8 e7 44 3e 89 36 55 3d bb 10 00 be 71 ba 32 3a
       0.19228995 0.052053962 -0.12506382 0.0006817943
000240 67 d8 92 3d b8 d0 63 3d c6 40 69 3c 2d 53 7c bd
       0.07170182 0.05561897 0.014236635 -0.06160276
000250 80 4a c8 bd 29 9f 1e 3e cf 2c f3 3d c3 f8 ba 3b
       -0.09779835 0.15490402 0.11873781 0.0057059242
000260 eb 2a 56 bd 13 49 19 bc 36 90 08 3e 92 b5 3a 3d
       -0.052287024 -0.009355801 0.13336262 0.045583315
000270 3a b5 eb 3d 8a cb 37 3c 2a 3e 8d 3d 95 64 2b 3e
       0.115091756 0.011217961 0.068966225 0.16737588
000280 6b 68 5d 3d 1b d6 82 bd 74 26 b1 3d e6 34 4b 3d
       0.05405466 -0.063884936 0.086499125 0.049610995
000290 ef 30 8f bd cd bb db 3d c9 c0 b5 3c a6 88 89 3d
       -0.06991755 0.107291795 0.022186654 0.06715517
0002a0 52 49 97 bc bb 65 37 3e d0 80 fa 3d 2c c4 58 3d
       -0.018467579 0.17909901 0.122316 0.05292146
0002b0 ab e3 8c bd f3 c1 38 3c aa 7b 79 bd 7b bd 17 3e
       -0.06879362 0.01127671 -0.06090895 0.14818375
0002c0 15 81 84 3d 3f 56 5c 3d cd ff b7 bd 32 70 b2 bd
       0.06469933 0.05379319 -0.08984337 -0.08712806
0002d0 17 45 09 bd f7 cf a0 bc 94 94 18 bd aa 35 6f ba
       -0.033513155 -0.019630415 -0.03725107 -0.0009125123
0002e0 5c 70 a9 3d 12 8b e7 bc 29 99 dd 3d df 99 07 bd
       0.08273384 -0.028264556 0.108202286 -0.033105727
0002f0 2e 52 6d bd 88 9c d0 bd 5b 99 13 ba 3a 3d 1c be
       -0.0579397 -0.10186106 -0.0005630457 -0.15257731
000300 94 78 c3 bd 6b 3f 6e 3d e3 ea a8 3c 41 84 a6 3d
       -0.09544483 0.05816595 0.020619815 0.08130694
000310 67 f8 1c 3e 10 eb c1 bc d9 48 4e bd 89 c4 5b 3c
       0.15329133 -0.023671657 -0.05036244 0.013413557
000320 dc 39 f1 3c 83 da 72 bd af 0e 13 3e 52 38 0c be
       0.029446535 -0.05929042 0.1436107 -0.1369336
000330 18 21 90 3d 2e 56 52 bd cd a3 ba 3c a9 4f b0 bc
       0.07037562 -0.05135172 0.022783184 -0.02152236
000340 e8 77 bb 3d 02 89 47 3e 6f b8 bd bd d3 5b 4c 3c
       0.0915373 0.19485858 -0.092636935 0.0124730645
000350 02 2a 92 bd 6b 15 b1 3d a2 88 ec 3b 37 ea 21 bc
       -0.071369186 0.08646663 0.0072184363 -0.009882501
000360 78 75 07 be d2 c4 be 3d df 9a 0f 3d ce 46 4a 3e
       -0.13228405 0.09314884 0.035059806 0.19753572
000370 41 81 3b 3d 91 40 94 3c 31 4c c5 bd 9f f6 34 3c
       0.045777563 0.018097194 -0.09633673 0.011045127
000380 4c 19 da bd 58 1e 12 bc 66 4e 9e bc 87 9b af bd
       -0.10649356 -0.008918367 -0.019324493 -0.08574586
000390 eb 23 c8 3c 28 d1 0a be 85 74 7b 3c 08 9b c0 bd
       0.02443119 -0.1355635 0.015347605 -0.0940457
0003a0 f7 92 60 bd 81 85 b8 bd 29 0e 8c 3d 42 8d f9 bb
       -0.054827657 -0.09009839 0.06838638 -0.007615716
0003b0 5d fa 8a bb 62 1a 0c 3d 6b 6a 6d bd c5 89 d1 bc
       -0.0042412714 0.034204848 -0.057962816 -0.025578389
0003c0 60 0f a0 3d aa 39 db 3c de 1d d1 3d 77 27 fc 3d
       0.078154325 0.026760895 0.10210775 0.12312215
0003d0 46 f8 41 be 56 53 87 bd 08 65 b6 bd ab 70 bb 3d
       -0.18942365 -0.06607692 -0.08905989 0.09152349
0003e0 e3 4b 1f 3c 0f 14 00 3d e8 3a 53 bd 7c 7d 0a 3e
       0.009722683 0.03126913 -0.05156985 0.13524431
0003f0 ca 5e 0a 3d 89 da 9c bd 1d da 24 3e af 33 7f 3c
       0.033781804 -0.0765887 0.16098829 0.015576287

hidden3.0.bias f4 [100]
000000 0d 5e c0 bd 05 0c 5d bd c1 86 c6 3d b9 2f d2 3d
       -0.09392939 -0.05396654 0.09693671 0.102630086
000010 ae de 95 3d 9b 78 72 3d ef 07 ad 3d 6c 73 88 3c
       0.073178634 0.05919705 0.08448779 0.0166566
000020 92 2a 87 3c 4f e1 a6 3d 14 4d bf 3c e1 c4 0d 3e
       0.016499791 0.08148443 0.023352183 0.13844635
000030 90 20 42 bd 94 6f 7b 3d 5c 86 b5 3d 44 b3 f0 bd
       -0.047394335 0.061385706 0.08863518 -0.11752942
000040 0c f1 e4 3d b6 59 cc 3c fa 0f 00 3e a0 b2 26 3c
       0.111787885 0.024945121 0.12506095 0.010174423
000050 aa 37 df 3d f9 37 b1 3d 99 ec d9 3d d5 0d e6 bd
       0.10899289 0.08653254 0.106408305 -0.11233107
000060 f4 fc ad 3d 58 3c 9b bd 35 c7 fa 3c 19 77 f0 bc
       0.084955126 -0.07579869 0.030612567 -0.029353665
000070 34 4e cc 3c 6c c8 4b 3e b2 46 33 bd a0 e4 d1 3d
       0.024939634 0.19900674 -0.043768592 0.10248685
000080 06 87 53 bd 09 57 cd bd b4 de 04 3d 7e 39 0d be
       -0.05164244 -0.10026366 0.03243895 -0.13791463
000090 ef 4c 22 3e 9c 64 57 3e d1 33 b0 bd 31 c8 f1 3d
       0.1584966 0.21034473 -0.08603633 0.118057616
0000a0 d6 74 09 bd b6 e7 41 3e 10 3c 62 3e b7 3a 00 3d
       -0.03355869 0.18936047 0.22093225 0.031305995
0000b0 1e 62 23 3e 26 69 3e 3e 91 39 8d 3d a8 ce 8a 3d
       0.15955397 0.18594798 0.068957455 0.06777698
0000c0 87 b9 8c 3d 20 9c 04 3e 75 36 f0 3d bb 70 c5 3b
       0.06871324 0.12950182 0.11729137 0.0060254014
0000d0 e1 ea 20 3d 89 ae 46 3e da 49 6f 3e f3 2b 48 3e
       0.039286498 0.19402517 0.23368016 0.19548015
0000e0 fc 82 14 3c 7c ee c5 3d 46 4c 09 3e fa 41 f8 3d
       0.009064432 0.09664628 0.13408002 0.12121959
0000f0 41 78 03 bd 72 1b 3d 3e 45 f7 64 bd d6 9c a3 3d
       -0.032097105 0.18467501 -0.055899877 0.079888985
000100 4a 1f 08 bc 4a 7f 28 3e 4c 85 e6 bd 8c b8 3f 3e
       -0.008308241 0.16454807 -0.11255893 0.18722743
000110 cf 7a f5 3d 5b d9 e0 bc d9 b9 ed 3d 42 1d 9c 3d
       0.119863145 -0.027447393 0.11607713 0.07622768
000120 63 1c 2c 3d be 43 23 3b c6 f7 99 3d e4 c1 73 3d
       0.04201926 0.0024912204 0.07517962 0.05951108
000130 9f 20 85 bc 28 07 a3 3d 64 ed ee 39 35 73 5d 3d
       -0.016250907 0.07960349 0.00045571767 0.054064948
000140 e8 a3 3f 3c 89 74 14 3e 2c 46 bf 3d 60 f4 63 3c
       0.011696793 0.1449758 0.09339556 0.013913244
000150 44 72 22 3d a2 0e 9b 3d ce c6 78 3d 10 b1 b3 3c
       0.039659753 0.0757115 0.06073647 0.021935016
000160 df 72 39 bd cf 45 22 be 10 57 0e 3c 74 98 57 3d
       -0.045275565 -0.15846942 0.0086877495 0.052635625
000170 dd 53 de 3c af 38 95 bd 5b 4b 33 3d 94 4f ae 3d
       0.027139599 -0.07286202 0.043773036 0.08511272
000180 a7 38 04 bc 4b 13 1c 3d 9e 3f fb 3d 84 8c 34 bd
       -0.008070148 0.038104337 0.122679934 -0.04407932

output.0.weight f4 [10, 100]
000000 3e a9 9a bc 65 66 6d be fd 67 98 bd da 05 3c 3d
       -0.01887953 -0.23183592 -0.07441709 0.045904018
000010 ca ed 19 be 49 7a 5b be 7d e1 34 bd 81 e5 e9 3d
       -0.15032116 -0.21433367 -0.044160355 0.114207275
000020 63 b6 65 3d c6 50 5b be 6c b5 ac 3d 79 a6 ad be
       0.05608214 -0.21417531 0.08433041 -0.3391607
000030 1b af dd bd 8e 2d 91 bd 09 36 38 3d 65 38 35 be
       -0.10824414 -0.07088767 0.044973407 -0.17697294
000040 b6 ae 86 bb 3c b2 bc bd 65 ab 7a 3d 7a b2 96 3d
       -0.0041101826 -0.09213683 0.06119861 0.073582605
000050 05 d8 90 be 79 89 84 be 5e a5 80 be 24 74 d1 3c
       -0.2828981 -0.25886133 -0.25126165 0.025568075
000060 8a 25 1f 3d b8 08 a2 3d b8 21 94 3d a8 b3 b1 bd
       0.03885416 0.07911819 0.07232994 -0.08676845
000070 c4 a9 62 3d 7e bb 09 be de 67 32 be e6 9f 11 be
       0.055337682 -0.13450429 -0.17422435 -0.14221153
000080 0d b7 0c 3e 8d 34 1e be d9 ad a0 bc b0 6f f2 3c
       0.13741703 -0.15449734 -0.019614147 0.029594272
000090 ef 77 25 bd fe 50 23 be d4 78 a9 3d 97 34 85 be
       -0.04039758 -0.15948865 0.08274999 -0.26016685
0000a0 a9 91 65 be c8 02 77 be 72 1c ec bd c9 98 69 be
       -0.22418846 -0.24122155 -0.11528863 -0.22812189
0000b0 c6 91 96 be cb 91 76 be 08 57 03 be 92 5e d3 3d
       -0.2940809 -0.24079053 -0.12826169 0.10320772
0000c0 98 27 ad 3d 44 1b e2 3d a2 72 20 be f8 a3 e3 3c
       0.084548175 0.11040357 -0.15668729 0.027788147
0000d0 b7 0b 6b 3d cb 88 e4 bd 09 8a a8 be 08 dc 77 be
       0.05738422 -0.11158904 -0.32917812 -0.24205029
0000e0 78 80 84 be e1 8f 73 3e 83 85 9e bd c6 eb 14 be
       -0.25879264 0.23785354 -0.07740309 -0.14543065
0000f0 68 68 53 3d 1a ef 34 3e 18 d8 31 be 39 c5 16 3e
       0.05161324 0.17669335 -0.1736759 0.14723672
000100 c4 d2 0b be 00 40 6f be 25 6f 08 3e 22 38 48 be
       -0.1365462 -0.23364258 0.13323648 -0.19552663
000110 6f 0a 0e be ab 7e 5c be 14 31 b9 3c c4 9a 6c be
       -0.13871168 -0.21532695 0.02260641 -0.23105913
000120 fa 09 6c be 81 ac 84 be 0c 49 3a 3e a2 0f 94 bd
       -0.23050681 -0.2591286 0.18191928 -0.07229544
000130 14 fc 56 be 7b 60 2a 3e 73 92 81 3e 88 6c 84 be
       -0.20994598 0.16638367 0.25307044 -0.25864053
000140 ce 48 9a bd 73 9a 0d be eb 01 3a 3e f9 ed 1d be
       -0.07533418 -0.13828449 0.18164794 -0.1542281
000150 5d f3 4d be 9d 36 37 be 6b b0 6b be 0d cf 96 3d
       -0.20112367 -0.17891927 -0.23016517 0.073637106
000160 be 25 f6 bd 22 95 2b 3d 60 41 01 bd c2 cd 57 bd
       -0.120189175 0.04189027 -0.031556487 -0.05268646
000170 00 50 42 be 04 16 c5 3d e0 c1 b9 3d 11 cb fa bc
       -0.1897583 0.0962334 0.09070182 -0.030614408
000180 b1 4d 6b be 5f c5 24 be e8 c0 87 bb 88 7d ab 3d
       -0.22978856 -0.16090916 -0.0041428693 0.083735526
000190 68 0e 5b be f4 fa 0d 3d a7 bc 74 3e e8 1c a9 3d
       -0.21392214 0.034663156 0.2390009 0.082574666
0001a0 bd 90 9a bd 0c d2 63 bd ea 85 95 bd bb 11 3b 3e
       -0.07547138 -0.05562024 -0.07300933 0.18268482
0001b0 9c 08 6f be 7b fc 98 be 07 93 a5 bd c1 0e ba 3c
       -0.23343128 -0.29880127 -0.08084684 0.022712113
0001c0 eb 53 e6 ba 99 5c 04 be 75 81 87 be 74 b9 44 be
       -0.0017572617 -0.12925948 -0.26465955 -0.1921137
0001d0 af 85 95 be 65 af 97 3e 56 97 6d bd 98 ee 87 be
       -0.29203555 0.29626003 -0.058005653 -0.2654922
0001e0 2a e9 92 be ac 3e 96 be 9b f5 78 3e e1 97 48 be
       -0.28693515 -0.2934469 0.24312441 -0.19589187
0001f0 4d b9 9d be d9 1c 0e bd 14 1b 95 be bd ed 0b 3d
       -0.30805436 -0.03469548 -0.2912222 0.03416227
000200 75 c8 7e be ff 91 69 be 08 56 97 be 5f 56 8f be
       -0.24881156 -0.228096 -0.29557824 -0.27995583
000210 a5 e2 76 bd 3d 7a 35 be bb 75 7b be 10 af 99 bd
       -0.06027474 -0.17722411 -0.2455663 -0.07504094
000220 cc 22 54 3e 63 34 85 3e 82 f9 9b be ce 82 5f be
       0.20716399 0.2601653 -0.30463797 -0.21827242
000230 1e d3 6f bd 5d 7e 2c be 2e ae 1e 3e ab 75 82 3e
       -0.058550946 -0.16845079 0.15496132 0.254804
000240 9e 41 7c be af f3 22 3e 01 03 5e 3d cc 6c 7f 3d
       -0.24634406 0.1591327 0.054202083 0.062359616
000250 78 11 b5 be e3 6c 06 3e d4 eb 6c be 05 48 bb be
       -0.3536489 0.13127474 -0.23136836 -0.36578384
000260 75 93 63 bd ba 21 92 be 0c e1 c7 bd 85 ab 31 3e
       -0.055560548 -0.28541356 -0.09759721 0.17350586
000270 e9 e8 d9 3d 29 de c7 bd 6b c7 26 be 69 52 0c 3e
       0.10640127 -0.097591706 -0.1628701 0.13703312
000280 7e a1 2b be 5b bf 73 3e 89 09 c6 bd d8 1f 50 be
       -0.16760823 0.23803465 -0.096697874 -0.20324647
000290 c4 91 ea bd d4 1a 3e 3e 1e 55 e9 bd 2a 88 80 be
       -0.11453584 0.18564922 -0.11393188 -0.25103885
0002a0 74 47 b1 3e d4 dd 27 bd fe da 83 be 47 98 31 3e
       0.34624827 -0.040983036 -0.25753015 0.17343245
0002b0 2e 91 18 3e 7a a9 00 3e 66 8a 49 3e 56 82 51 be
       0.14899132 0.1256465 0.19681701 -0.20459875
0002c0 0c ca bf 3d f6 20 33 be c5 50 f9 bd 35 2d 08 3c
       0.09364709 -0.17493042 -0.12173609 0.008311559
0002d0 db c0 f3 3d e1 9d 90 bd 20 89 41 be fa 59 88 3e
       0.11902019 -0.07061363 -0.18899965 0.26631147
0002e0 ae 46 83 3d 65 76 90 be b6 e6 31 3e 84 14 87 be
       0.064099655 -0.28215328 0.17373165 -0.2638284
0002f0 eb 24 d6 3c 29 41 08 be 4b 5c 82 be 2b 83 94 3e
       0.02614065 -0.13306107 -0.2546104 0.29006323
000300 b0 81 07 bd a9 03 f1 bd d5 9a 3c be d4 0c 9e 3d
       -0.033082664 -0.11768276 -0.18418439 0.077172905
000310 d0 20 6c be b7 bb 36 be bd 1a 9d 3e d1 3d db bd
       -0.23059392 -0.17845045 0.30684462 -0.1070515
000320 25 27 5f be 9c e4 7c 3d f7 a2 80 be da 23 3a 3d
       -0.21792276 0.061741456 -0.25124332 0.045444347
000330 3a 20 63 be 45 26 12 3d 47 ed 00 3e 88 f0 46 3d
       -0.22180262 0.035681028 0.12590514 0.048569232
000340 fd 0e 93 3d 3a 8d 0b 3d b1 3a 70 be c6 51 22 be
       0.07180593 0.03407023 -0.23459889 -0.15851507
000350 da 32 15 be 73 7a 08 be 19 b2 df 3d ec 69 5c 3d
       -0.1457018 -0.1332796 0.10922641 0.053811952
000360 d6 8d 99 be 3b 8f 1e be f1 2c 9d 3d 46 d3 ed 3c
       -0.29991025 -0.15484326 0.076745875 0.029031407
000370 41 df 9a 3c 83 7f ef 3d 73 0f a1 be b8 91 5d be
       0.018905284 0.11694243 -0.314571 -0.21637619
000380 23 58 41 3d 40 70 74 be 06 58 a8 be 63 79 3d bd
       0.047203194 -0.23870945 -0.32879657 -0.04625834
000390 0e 77 ac 3c a2 5a 99 be d0 9f ae 3d 2a 98 16 3e
       0.021052863 -0.2995196 0.085265756 0.14706483
0003a0 ed 58 85 3d ff e2 4b bd 31 93 53 3d 60 0e 4d 3d
       0.06511102 -0.049777027 0.051654045 0.050062537
0003b0 af b5 5f 3d 9c 31 88 be 57 8f 81 be 49 dc 15 be
       0.054616626 -0.2660035 -0.25304672 -0.14634813
0003c0 11 43 cf 3d e9 06 25 be fe db 9b be 3a bb 3d be
       0.10120214 -0.16115917 -0.30441278 -0.18528453
0003d0 f2 5e b3 be ac 78 ea 3d c2 5b 4c be a9 f1 86 be
       -0.35033375 0.114487976 -0.19956878 -0.26356247
0003e0 16 bd 94 be 70 24 2d 3c da 7f 16 be 99 51 3b 3c
       -0.2905051 0.010567769 -0.14697209 0.011433029
0003f0 6d f2 28 3d 25 ad 4c be f8 81 16 3e a0 aa a3 be
       0.04124682 -0.19987924 0.14698017 -0.31966114

output.0.bias f4 [10]
000000 6f 92 d4 3e 9c a9 a8 3e 66 68 ed 3e 42 39 48 3f
       0.4151797 0.32941902 0.46368712 0.7821237
000010 87 c6 30 3f 5d 28 46 3f d7 b8 00 3f 1d 3c 60 3f
       0.6905293 0.7740534 0.50282043 0.87591726
000020 32 cc ae 3f bc 06 81 3f
       1.3656065 1.008018
