General/Code/Models/FCN-Nesterov-lr:0.001-acc:96.56.pth (torch, 401615 bytes, 8 tensors)

hidden1.0.weight f4 [100, 784]
000000 38 21 92 3c 74 a5 3e 3c d0 32 91 bb 10 2a a9 bc
       0.017838106 0.011636127 -0.004431106 -0.02064994
000010 2d 2c 01 bd 26 34 41 bc 55 e9 ee bc 90 03 a5 3b
       -0.03153627 -0.011792218 -0.029163996 0.005035825
000020 30 f3 99 3c e8 0a 84 bb 7a 3b cf 3c 3a 46 8a 3c
       0.018792719 -0.0040296204 0.025296915 0.01687919
000030 e7 7d 09 3d d7 9b 4a 3a 8c 8a bf bc db 4e f5 bc
       0.033567335 0.00077289104 -0.023381494 -0.029944828
000040 6a 98 9a 3c 52 0e c8 3c ea 11 cf bc 7c 5c ab 3c
       0.018871505 0.024420891 -0.025277097 0.020918123
000050 a0 19 61 bb c5 82 d3 bc e0 64 24 bb c0 7a a0 bb
       -0.003434755 -0.025819192 -0.002508454 -0.0048974454
000060 5e f7 c7 bc f2 f4 6e bc b0 62 81 3b 10 16 95 3c
       -0.024409946 -0.014584767 0.003948532 0.018198997
000070 d7 c6 0e bd a0 10 34 bc aa b5 10 bd 10 52 bb 3b
       -0.034857597 -0.010990292 -0.0353295 0.0057165697
000080 48 a5 83 bc 7b d4 87 bc fe 2f ea 3c e5 44 5d bc
       -0.016070023 -0.01658081 0.028587338 -0.013505195
000090 17 94 f8 3c e8 4f c5 3b bc 56 06 bd 5f 6a 87 3a
       0.030344052 0.0060214885 -0.03279756 0.0010331384
0000a0 28 d8 ff bc 8b 86 71 bb b1 37 05 bd d3 d3 22 bc
       -0.031231001 -0.0036853875 -0.032523815 -0.009938198
0000b0 40 17 67 bc ef 20 2f bc 94 01 04 3d c5 a4 5e bb
       -0.014104664 -0.010689004 0.032228068 -0.0033972722
0000c0 1d bf 41 bc 3d ff c2 3b eb 28 40 3c f9 eb fb bc
       -0.01182535 0.005950837 0.011728506 -0.030752169
0000d0 c3 71 95 bc 82 03 cb 3c 5b 24 09 bd 30 3c c1 bc
       -0.018242722 0.024781946 -0.033481937 -0.02358827
0000e0 ac c3 c8 bc fe 04 bc bc 93 c2 ae bc 04 81 d7 3c
       -0.024507366 -0.0229516 -0.021333015 0.026306637
0000f0 f7 b0 19 3c cb 88 b8 3c 62 e6 96 3a ca be bd 3c
       0.009380571 0.022526165 0.0011512751 0.023162264
000100 79 65 dc 3c 18 16 a5 bc 49 9c 8b bb 37 3d 01 bd
       0.026903855 -0.020152137 -0.004260574 -0.03155252
000110 23 6e c3 3c ea 6d 5d 3c d8 05 8b bc 3d 65 c3 bc
       0.023856228 0.013514975 -0.01697056 -0.023851985
000120 d9 89 6c bb 03 a3 68 3c f0 ad 0d 3d 4f 95 1b 3c
       -0.0036092906 0.014199021 0.034589708 0.009496047
000130 b9 17 4b bc 60 cd fc bc 69 99 72 3b dd ca cf bc
       -0.012395793 -0.03085965 0.003701771 -0.025365287
000140 cb bf dd bc 89 3b e8 bc 82 21 dd 3c 40 f8 7c 3c
       -0.027068993 -0.028348701 0.026993517 0.015440047
000150 38 e9 d5 bc 74 f0 57 3c ee 44 5d 3b d2 c2 e2 3c
       -0.026112184 0.013179887 0.003376301 0.027680788
000160 43 5f d1 bc 61 83 10 bd 22 19 03 3d 44 21 df bc
       -0.02555812 -0.035281543 0.03200639 -0.027237542
000170 99 a7 92 3c e6 74 16 bd ba f7 07 bd 1e a9 e2 3b
       0.017902182 -0.036732577 -0.033195235 0.006917133
000180 d3 da b3 bb 83 1e 9d bc 11 f1 31 3d 18 2b b1 3a
       -0.0054887324 -0.019179588 0.04344279 0.0013516871
000190 a1 73 d5 3b 55 5a f2 ba 9a c8 cb b8 01 39 cc bc
       0.006514028 -0.0018490056 -9.717159e-05 -0.024929525
0001a0 0d 83 00 3d ef 96 07 bb 7e 95 82 3c cb 82 6d 3b
       0.03137498 -0.0020689329 0.015940424 0.0036241289
0001b0 3c 05 8b 3c 0d 4d 99 3c 32 d6 ac 3b ea a5 65 bc
       0.01697027 0.018713498 0.0052745575 -0.014016608
0001c0 a0 fa 36 bb fa 32 47 bc 00 a6 24 ba 11 4f 35 bc
       -0.002792038 -0.01215815 -0.00062808394 -0.011066214
0001d0 0d 50 83 3c 3e 41 5e 3c 1c cf 83 bb e3 fc fe 3b
       0.016029382 0.01356536 -0.004022492 0.0077816113
0001e0 c8 e9 e5 bc f4 c0 93 3c 98 2a f1 3c b2 4a be 3c
       -0.028065577 0.018036343 0.029439256 0.023228977
0001f0 56 fa a3 3c f6 d2 99 bb ec 73 19 3d b8 e3 27 3c
       0.02001683 -0.004694338 0.037464067 0.0102471635
000200 15 ce 5b 3d 68 0e ce 3c 35 5d a9 3c a2 ad 85 3c
       0.053663332 0.025153354 0.020674327 0.016318146
000210 df ea 61 3c b0 57 53 3c 87 87 a2 3c eb 90 3d 3c
       0.013788908 0.012899324 0.019840015 0.011570196
000220 2f 0b 21 3d 2a c9 db bc 7b ee 9c 3c 29 7c 57 bc
       0.039317306 -0.026829321 0.019156685 -0.013152161
000230 20 87 84 3c 38 f9 50 3c 8e 02 fa bb 7b 76 0a bd
       0.016177714 0.012754731 -0.007629699 -0.033804398
000240 e1 c1 20 bd 72 f2 12 bd ed d1 99 3b 56 a0 17 ba
       -0.039247397 -0.035875745 0.0046942146 -0.0005784085
000250 9e f1 a4 3c f9 d3 8c 3c 01 21 79 3d 86 71 25 3d
       0.020134743 0.01719092 0.06082249 0.040391468
000260 29 0e bd 3c f0 9c 4e 3c 1e c4 21 bc 8f 98 ff 3c
       0.023078041 0.012610659 -0.009873418 0.031200675
000270 c7 6a c7 3b c9 52 17 3d f6 89 3a 3d 57 3c ee 3c
       0.006085727 0.036944184 0.045541726 0.029081507
000280 f1 21 ae 3d 3b f1 8d 3d ba d5 fb 3c b8 1e e2 3c
       0.085025676 0.06930777 0.030741561 0.027602538
000290 dd 58 3b 3d bf cf 31 bc 74 b1 e4 bb 6d 6c dc 3c
       0.045739044 -0.010852753 -0.006979162 0.02690717
0002a0 9a 5c 93 3c 7e 8f 24 bc a1 65 30 3c 88 b6 33 bc
       0.017988492 -0.010043977 0.010766418 -0.010968812
0002b0 07 db 1e bd f4 14 1c bd 2d 4e a1 3b 98 2a b6 bc
       -0.0387831 -0.03810592 0.0049226494 -0.022237107
0002c0 2d bf a4 bb 50 e5 05 3d 5e 70 4a 3c c6 25 f3 3c
       -0.0050276727 0.032689393 0.012355892 0.029681098
0002d0 e8 f7 47 3d 7c 59 e8 3c b5 7c c9 3d 11 4b 15 3d
       0.048820406 0.028362982 0.09838239 0.036448542
0002e0 ee 9b 96 3d d0 20 a0 3d b4 11 93 3c e1 c4 8a 3d
       0.0735396 0.078187585 0.017952777 0.06775833
0002f0 54 35 0c 3d a4 ba dd 3c 2f 47 62 bc 4e 9c a2 bb
       0.034230545 0.027066536 -0.013810917 -0.0049624806
000300 a4 ac 75 bc 8a 09 0d bc 31 e4 9f bb 21 81 df 3c
       -0.014994774 -0.008608231 -0.0048794975 0.027283253
000310 69 8c 12 bb f0 b8 e2 3b 54 f4 fe 3c 1a 6f e9 bc
       -0.0022361523 0.006919019 0.031122364 -0.02849536
000320 87 49 81 3a 09 58 92 3c f6 b2 95 b9 22 da 9d bb
       0.0009863832 0.017864244 -0.0002855283 -0.004817263
000330 d2 be f7 3c fb 67 a5 bb fe f4 2d 3d a0 c8 3e 3d
       0.030242357 -0.005047796 0.04246997 0.04657805
000340 12 02 6d 3d 8d 46 0a 3d 3f ab 6a 3d d1 b8 98 3d
       0.057863303 0.03375869 0.05729222 0.07457126
000350 4c f1 9c 3c 6c 17 69 3c fa 15 0c 3c 0a 29 88 bc
       0.019158028 0.014226776 0.0085501615 -0.016621131
000360 fd 2f 15 bd 4d 6d 41 bd 88 c2 02 bd a6 d0 27 bc
       -0.03642272 -0.047223378 -0.0319238 -0.010242617
000370 01 57 b3 3c a6 ab 38 3b c0 11 6c bc c2 9a 06 3d
       0.021892073 0.0028178482 -0.014408529 0.032862432
000380 cf c8 31 3b 95 f2 c5 3c 4d be 9f bc c7 e5 2b bb
       0.0027127748 0.024163524 -0.019499922 -0.0026229487
000390 bc 11 ac bc 8f 1f b5 bc d4 4d 66 3d c1 a0 f0 b8
       -0.02100455 -0.022109775 0.056226566 -0.000114740345
0003a0 ba 07 26 3b c7 49 49 3d 8a 31 1a 3a 78 51 01 3d
       0.0025334195 0.049142625 0.00058820157 0.031571835
0003b0 aa d0 27 3d 02 50 4e bc 70 0e 62 bc 40 7b 6f bc
       0.040970482 -0.012592318 -0.0137973875 -0.014616787
0003c0 6d 9e 67 bc 7a e4 7a bd e2 14 8b bd 8d 39 b8 bd
       -0.014136893 -0.06125305 -0.067910925 -0.08995352
0003d0 c0 6a a1 bd 71 62 ad bd 3c 55 d0 bd 65 8b 07 bd
       -0.07881689 -0.08466042 -0.10172507 -0.03309192
0003e0 5c 7f 1d bd 93 e5 67 3c 76 e4 b4 bc 27 11 6f 3c
       -0.038451537 0.014153856 -0.022081595 0.014591492
0003f0 d3 44 9a bc 03 6e 8f 3c 3e 7e 37 bb 84 cc 0b 3d
       -0.018831646 0.017508512 -0.002799883 0.03413059

hidden1.0.bias f4 [100]
000000 07 b1 ae 3d 2f 52 a6 3d 9b 17 3f 3e cd 58 93 bc
       0.08529859 0.08121144 0.18661349 -0.01798668
000010 d4 c9 03 3d bc 5b 27 be 2b ed 24 be d8 ad 08 bd
       0.0321749 -0.16343588 -0.16106097 -0.033368915
000020 28 67 d2 3d d0 88 9b bd 2e c1 84 bc 54 8e 9c be
       0.10273582 -0.07594454 -0.016205397 -0.30577338
000030 f4 9f 16 be c1 9a e2 bd 0d 4e 13 be 38 3b cc 3c
       -0.14709455 -0.11064673 -0.14385243 0.024930581
000040 7b 3d 5c bd 58 b7 d3 3d 94 00 19 be fd b2 0b bd
       -0.05376957 0.103377044 -0.14941627 -0.034106243
000050 55 b7 e8 bb b9 ba f8 3c 73 c5 e6 3c 7b 22 21 3e
       -0.007101933 0.030362474 0.028170323 0.1573581
000060 59 ce 90 3d c4 b3 75 3d 07 3f 1f bd 80 ab a5 bd
       0.07070608 0.05998589 -0.038878467 -0.08089352
000070 47 3e 58 bd 19 24 e9 bd c7 f3 b3 bd c1 3a 30 be
       -0.052793767 -0.11383838 -0.08786731 -0.17209913
000080 5a 68 7e bd 4e 3a 1b bd 40 7b fb 3b f2 71 0a bd
       -0.062111236 -0.0378974 0.0076746047 -0.033800073
000090 60 f0 01 be ff c3 fb bd 76 5d 5b 3d 7d 85 d9 bd
       -0.12689352 -0.12293243 0.05355593 -0.10621164
0000a0 89 cc d0 3d 45 63 20 bc 69 88 b5 bc d4 04 03 be
       0.10195262 -0.009789293 -0.022159772 -0.1279481
0000b0 4f f3 15 bd 4c ab 88 3d 4d 6d 62 3d 38 37 2b 3e
       -0.03660899 0.06673297 0.05528002 0.16720283
0000c0 0b ca 2a bd f9 a1 19 be 0d f8 ea bd 4b 2e b0 bb
       -0.04169659 -0.15003194 -0.11473093 -0.0053766123
0000d0 74 68 a2 3d d1 fb b4 3d ea db fb bd 68 2c 85 bd
       0.07930079 0.08837093 -0.12297805 -0.065026104
0000e0 3a f3 db bc 84 e7 8d 3b 2d 43 79 bd 70 c8 7e bd
       -0.026849378 0.0043305773 -0.06085508 -0.06220287
0000f0 65 02 3b be e8 6a 03 be c0 b6 da bb 61 c7 e8 bd
       -0.18262632 -0.1283375 -0.0066746175 -0.113661535
000100 a7 2a 66 be 4c 25 1e 3d d9 54 12 be f2 e1 23 bd
       -0.22477208 0.038609788 -0.1429018 -0.0400104
000110 18 d4 9f 3d de 72 76 bd bc a8 61 3d a7 1b 90 be
       0.078041255 -0.06016814 0.05509256 -0.28146097
000120 74 44 0c 3c 5f 2e 68 bd 21 bf 29 be 8d 7d 07 be
       0.008561242 -0.056684848 -0.16576816 -0.13231488
000130 d3 75 a8 bc a2 d1 3c be 19 a2 36 bd 8a 8a 30 bd
       -0.020563995 -0.18439344 -0.044588182 -0.04310087
000140 2c 44 f1 bd ac 53 7d 3c e5 41 95 bd 5e 8b 21 bb
       -0.11780581 0.015461843 -0.07287959 -0.002464972
000150 8e 29 51 3d 86 71 4f bd c9 48 39 be 50 12 bd 3d
       0.05106502 -0.050645374 -0.18094172 0.092320085
000160 b6 65 e0 ba 35 df 17 be 5c 30 f2 bd 72 04 93 bd
       -0.0017120156 -0.1483124 -0.1182563 -0.07178582
000170 a5 84 4e 3e f2 5b 46 bd cc 57 ea 3d 75 61 77 3d
       0.20167787 -0.04842753 0.11442527 0.060395677
000180 1c 8f 48 3e 18 43 45 3c 73 4d 13 3d 03 fb 24 bd
       0.19585842 0.012039922 0.035962533 -0.040278446

hidden2.0.weight f4 [100, 100]
000000 79 ab 08 3d 74 43 ab bd d2 38 66 3c bb cd 47 3e
       0.033366654 -0.08362475 0.014051633 0.19512074
000010 5a 28 cd 3d 91 28 de bd 32 c7 96 3c 58 f5 e5 3c
       0.10017462 -0.10847581 0.01840553 0.02807109
000020 9b f3 ab bd 4b 69 9b 3d 52 b5 47 3d d9 32 80 bd
       -0.083960734 0.075884424 0.048756905 -0.062596984
000030 39 eb cd 3d 93 9f 43 bd cd b7 ef 3c 93 3f 91 bd
       0.10054631 -0.047759604 0.029262448 -0.07092204
000040 5f de f8 bc fb ff d3 3c 21 7b a6 3c 2d 14 bb 3d
       -0.030379472 0.025878897 0.020322384 0.091347076
000050 9b ff ed bd f4 0b a3 3d 91 db 05 3e 79 99 4c 3d
       -0.116210185 0.07961264 0.13072039 0.04995105
000060 f8 8c 24 bd fd 08 bf 3d c2 8b cc bd 2d 2b d3 bc
       -0.0401735 0.09327886 -0.09987594 -0.025777424
000070 5e c8 12 be 16 9e 84 bd 56 c9 f2 bc e6 65 d5 3d
       -0.14334247 -0.06475465 -0.02963702 0.10419826
000080 b8 32 e6 bc b1 cd 0b 3c 44 d3 f0 3d 00 a5 df bd
       -0.028100356 0.008532927 0.11759046 -0.10920143
000090 51 13 65 3e b6 f0 d3 3d e8 30 ce bd e2 c6 1c 3d
       0.2237065 0.10348646 -0.10067922 0.038275607
0000a0 23 62 13 bd 31 f4 bd 3c 6f 05 16 bd 6c 1e ac 3d
       -0.035982262 0.023187729 -0.036626276 0.0840424
0000b0 8a 4f d2 bd 4b 3e 23 3c 4c 1e 39 3d 4c eb 47 3d
       -0.10269077 0.009963582 0.04519491 0.04880838
0000c0 29 bd 91 bc 59 e7 d7 3d 79 4e e7 3b eb 33 20 3e
       -0.017790394 0.10542173 0.007058915 0.15644805
0000d0 80 5d d5 bc ec 87 a7 3d 16 77 d0 bc a6 42 b0 bd
       -0.02604556 0.08180222 -0.02544741 -0.08606462
0000e0 f9 d0 29 3e 16 dd 30 3e af c6 b0 bd 16 1c c1 bd
       0.16583623 0.17271838 -0.08631646 -0.09429185
0000f0 f9 6b a4 bd 2a 30 06 3d 8b a2 a6 bd 18 cf 2d 3e
       -0.08028407 0.032760777 -0.08136471 0.16973531
000100 bf ef f7 3c 23 da 49 bb 5e b4 73 bd 24 2a fb bd
       0.030265687 -0.0030800186 -0.059498183 -0.12263897
000110 31 41 06 be ce cf 7d bd 03 96 a5 bd 9c 79 75 bc
       -0.13110806 -0.061965756 -0.08085253 -0.014982607
000120 8d e4 15 be 64 99 80 3d bc 7f 18 be b5 98 a0 bd
       -0.14637966 0.06279257 -0.14892477 -0.078416266
000130 65 ef e0 3c a4 bb e6 3c b1 6d 5c 3c ed 38 cf bd
       0.027457902 0.028165646 0.013453887 -0.101182796
000140 43 ac 86 b9 3a 61 51 3d 56 c7 cc bd fd 48 b7 3d
       -0.00025686817 0.051118113 -0.09998958 0.08949468
000150 14 0a 84 3d 19 67 74 bc 0f 34 4b 3d da ad 5f bc
       0.06447235 -0.0149171585 0.049610194 -0.013652289
000160 8d 7c 02 bd 1d d8 28 bd 7d 61 cf bd 01 c7 fa bd
       -0.031857062 -0.041221727 -0.10126016 -0.12244988
000170 6f a9 d5 bd 5e 8f 22 bd 64 ae 6b bd 83 2f 8f 3d
       -0.104327075 -0.039687507 -0.05753936 0.06991484
000180 8c 55 25 bd fa 22 4f ba 49 48 44 3e d8 a7 46 be
       -0.040364787 -0.0007901635 0.191682 -0.19399965
000190 72 ea a0 bc a0 ae 38 bd b8 74 bb 3c 85 98 0b be
       -0.019643042 -0.04508841 0.022882804 -0.136324
0001a0 3e bf f4 3d ca 41 89 bd 0f b1 93 bc f3 72 24 bd
       0.11950539 -0.067020014 -0.018028764 -0.040148687
0001b0 3c 17 02 3d c8 a5 6c 3c f2 10 e6 39 e8 cf ea 3c
       0.03176044 0.014443822 0.00043881644 0.02866359
0001c0 f5 71 43 3c de 74 04 bc 96 16 b8 bb 90 99 55 3c
       0.011929025 -0.008084504 -0.005617927 0.0130371
0001d0 1c dc 9e bc 98 35 d8 3d 32 99 01 be a1 fd cf bd
       -0.019392066 0.10557097 -0.12656096 -0.10155798
0001e0 18 c9 8f bd 32 8e 6e bd 3e 90 23 be 3e 23 30 3e
       -0.070207775 -0.058241077 -0.15972993 0.17200944
0001f0 da 01 18 3e 79 ae 0e bc 0c d9 d3 bd 89 2f 07 3e
       0.14844456 -0.00870859 -0.10344133 0.13201727
000200 5b 40 dc 3c a4 3c 9e 3d de be 5e 3e 46 f2 56 bd
       0.026886156 0.0772641 0.21752498 -0.052477144
000210 db a8 d8 3b d2 3e 30 3e a9 80 f6 bd 0b b8 91 3d
       0.006611926 0.17211464 -0.12036259 0.071151815
000220 94 c2 cc bd 4b c5 e6 3d a1 e0 83 3c ad 28 25 bd
       -0.0999805 0.112680994 0.016098322 -0.040321995
000230 e2 67 e9 3c 98 3c e4 3d 58 23 62 3d de 0d 7c 3d
       0.028491918 0.1114437 0.055209488 0.061536662
000240 6b 11 73 bd 28 6d b3 3d ad f5 ca bd 7e 51 b2 bb
       -0.059342783 0.08761054 -0.0991014 -0.0054418435
000250 41 c2 fc bd 3c 5f 2e bd 8e d0 06 be e7 ae 7e 3d
       -0.123417385 -0.04257129 -0.13165495 0.06217852
000260 f8 d1 b2 3d b6 6f 01 bc 18 9d 68 bd 0e e0 cb bd
       0.087314546 -0.007900169 -0.05679044 -0.099548444
000270 7b a7 56 3d 16 a0 c7 bd 57 20 a5 3d 4f 47 09 3e
       0.052405816 -0.09747331 0.08062809 0.13406108
000280 f8 76 d6 bd a7 1c 97 bb 87 97 eb 3d c2 51 3a 3d
       -0.1047191 -0.00461157 0.11503511 0.045488127
000290 12 ea 38 3a 53 0c fd bb f9 a8 98 3c 2b 09 92 bd
       0.0007053922 -0.0077224164 0.01863526 -0.07130655
0002a0 c5 3e 8c 3c cc 8e ba bd 6c 50 51 3c 2a b9 17 ba
       0.017119775 -0.091092676 0.012775522 -0.00057877845
0002b0 d9 4d 17 be 60 aa cc bc 35 8f 1d 3d d0 e1 82 bc
       -0.1477579 -0.024983585 0.03846665 -0.015976816
0002c0 3c 37 b5 bd 00 36 2b 3c f1 f7 2d 3e 7f 05 cb 3d
       -0.08848426 0.010449886 0.16989113 0.09913158
0002d0 3f f6 01 be 22 e4 21 3d 12 90 2e bd d5 01 ae bd
       -0.12691592 0.039524205 -0.042617865 -0.08496443
0002e0 ef fd 5e bd 08 48 43 3c af 04 4b 3d e1 24 28 3e
       -0.05444139 0.011919029 0.049565013 0.16420318
0002f0 89 14 61 bb cd 9c 8b bc 00 34 28 bc 5c e1 48 bc
       -0.0034344515 -0.017042542 -0.010266304 -0.012260761
000300 09 c3 8b bd c6 c8 8b 3d 98 51 39 3e c8 96 eb 3c
       -0.068243094 0.06825404 0.18097532 0.028758422
000310 28 8b e0 bd 6d 14 2a 3e e7 e4 24 be 9f 23 21 be
       -0.10964042 0.16609354 -0.16102944 -0.15736245
000320 5d 2b c9 3b 7a ab 10 3e 49 fc d1 3d 3c b6 3d bd
       0.0061392025 0.14127913 0.10253198 -0.04631637
000330 2e c9 a8 bd 76 b2 e4 3c ae b4 c8 bd 3f ce 64 3d
       -0.08241497 0.027917128 -0.09800087 0.055860754
000340 fe 5d 03 3e 93 43 d2 bd 06 6d d2 bd d9 60 37 3c
       0.12828824 -0.10266795 -0.10274701 0.011192524
000350 94 40 a4 3c fb ec 88 bc 00 87 03 bd 18 5c 15 3d
       0.020050324 -0.016714564 -0.032111168 0.03646478
000360 f1 94 68 3d 4c 60 07 be a7 07 8c 3c c5 72 34 bd
       0.056782667 -0.13220328 0.017093493 -0.044054765
000370 02 8f d4 3d 62 bd f1 bd d3 98 a3 bd be e5 bd 3b
       0.10378839 -0.118037 -0.07988133 0.0057952097
000380 8c 9d 56 3c fe 6c 57 3d e6 a4 ab bd f3 48 00 bd
       0.013099086 0.052594177 -0.08381061 -0.03131957
000390 42 b8 d9 bc 01 5f 68 3d e4 65 be bd 21 c7 fa 3c
       -0.026577119 0.056731228 -0.09296778 0.03061253
0003a0 10 50 56 3d b2 48 f1 3a 1a 05 01 be 3b 9c 8e 3d
       0.052322447 0.0018408506 -0.12599602 0.06963392
0003b0 8e f6 9c 3c 39 b2 b2 bd bc 84 a8 3d 7b db 1f 3d
       0.019160535 -0.087253995 0.08228442 0.039027672
0003c0 c3 8b 73 3e db 5a e6 bd 80 99 87 3d 79 f6 ae 3c
       0.23783784 -0.11247798 0.06621075 0.021357762
0003d0 8c 3f ea 3d 26 48 bd bd 43 93 60 ba 4d c9 f7 3d
       0.11437902 -0.09242277 -0.00085668656 0.12098942
0003e0 d5 a8 8a bc 79 d5 ef bc 76 38 66 3d 5d a8 10 bd
       -0.016926209 -0.029276596 0.05620619 -0.035316814
0003f0 35 d8 8b 3c 0c 9f 95 3c 8f f1 8d bd ed be ae bd
       0.017070869 0.018264316 -0.06930839 -0.0853251

hidden2.0.bias f4 [100]
000000 66 13 1e ba 65 e0 04 3d f0 2f 38 3d 43 e3 97 3d
       -0.0006030112 0.03244056 0.04496759 0.074163936
000010 ff e4 b1 3c a0 a8 2b 3d 22 0e 47 3d 96 37 34 3c
       0.02171564 0.04190886 0.048597462 0.010999581
000020 03 58 8b 3c 99 60 c8 3b 31 e7 8f 3d 1f e9 a2 bd
       0.01700974 0.006115031 0.07026518 -0.079546206
000030 0a 27 84 3d 29 22 9c 3c 77 8c 64 3d b4 3a 47 3d
       0.064527586 0.019059258 0.05579802 0.048639968
000040 00 12 ba 3c 3d 46 d1 3c 69 1e 9c 3c 42 00 bd 3d
       0.022713661 0.025546188 0.01905747 0.09228565
000050 fd c3 37 3d 19 bf d0 bb 04 3c e4 3b d4 54 14 bd
       0.044864643 -0.006370437 0.006965162 -0.03621371
000060 08 61 74 3c fd cf a5 bc b0 4a b3 3d f1 b1 a6 3d
       0.014915712 -0.020240778 0.0875448 0.081394084
000070 f5 1e 81 3c fd 18 7e 3d 10 3a 7b 3d d1 81 48 3d
       0.015761832 0.06203555 0.06133467 0.048951928
000080 a3 8e 2c 3d ca b3 7d bd 52 75 5b 3d f6 65 8f 3c
       0.042128216 -0.06193904 0.053578682 0.017504673
000090 82 19 9b bd 9d 27 05 3d f0 1d 29 3d d7 d5 02 3d
       -0.075732246 0.03250848 0.041288316 0.031942215
0000a0 04 53 cc bc 48 1a 55 3d a5 e3 a1 bc f7 84 95 3d
       -0.024941929 0.052027017 -0.01976187 0.07300752
0000b0 06 b1 bf 3b 66 61 ee 3c 53 e2 a0 3c 51 7a 20 bd
       0.0058499603 0.029099178 0.01963917 -0.03917915
0000c0 c8 df 9f 3d 38 3b fc bc e1 af a1 bc 80 1f dd bc
       0.07806355 -0.030789956 -0.019737186 -0.02699256
0000d0 9e b9 dd bb 2c 21 7f 3d c2 67 b2 3d cf 36 b8 3d
       -0.006766512 0.062287495 0.087111965 0.08994829
0000e0 e1 31 64 3d b5 fa 02 3d bd ec 1a 3d d2 b9 8a bd
       0.05571163 0.031977374 0.037823427 -0.06773724
0000f0 63 44 27 3d 7d c7 5d 3d 70 a7 76 3d c1 7d 1e 3d
       0.040836703 0.054145325 0.060218275 0.038694147
000100 ec 15 a0 bc 39 c9 4a bd d7 a7 92 ba a5 20 39 3d
       -0.019541703 -0.049508307 -0.0011188936 0.045197148
000110 6b 1d 3c 3d 71 02 9c 3c ae 55 97 3c 68 dc 6f bb
       0.045926493 0.019044133 0.018473472 -0.0036599878
000120 65 eb 46 3d 33 b0 68 3d 08 72 6b 3c dd 3d c2 bb
       0.048564333 0.05680866 0.014370449 -0.005927785
000130 97 2c 6e bd 06 97 51 3d ce ea 81 3d 33 65 5b 3d
       -0.058147993 0.051169418 0.063436136 0.053563308
000140 22 b8 5c bd 15 f3 37 3d 6a 81 9c 3d 60 68 e7 3c
       -0.05388654 0.044909555 0.07641871 0.028248012
000150 1f 24 99 bd bf 21 8f b8 1a 18 18 3d 9e e0 4f bd
       -0.07477593 -6.825057e-05 0.03713236 -0.05075132
000160 34 94 b3 bb c4 4c 9f 3d da d0 94 3d fc d8 04 3c
       -0.0054803137 0.07778314 0.07266398 0.008108374
000170 02 95 a3 3d 9a fe b1 bd 54 92 55 bc ac 04 7c 3d
       0.07987405 -0.086911395 -0.013035376 0.061527893
000180 88 94 75 3c 6c 98 2f 3d bc 84 94 bd c1 dc af 3d
       0.014989026 0.04286997 -0.072518796 0.08587027

hidden3.0.weight f4 [100, 100]
000000 9e 13 29 3d 9b 9c d2 3c 37 aa 9f 3c 2f 6e 6d 3b
       0.041278474 0.025709441 0.019490344 0.0036229005
000010 d2 b6 b9 bc 09 0e c6 bc 45 94 57 3d cb 83 74 bd
       -0.022670183 -0.024176614 0.052631635 -0.059696
000020 81 3f 98 bd ad d5 60 bd 0e ec 9c bd a0 24 76 3c
       -0.074339874 -0.054891277 -0.07662211 0.0150233805
000030 5c cd 71 bb e9 44 96 3b 35 48 81 bd cd 86 3c 3c
       -0.0036896085 0.0045858514 -0.063126005 0.011506748
000040 8f be f8 3d 7f fb f4 bb a4 f3 94 bd 37 d3 53 bd
       0.12145721 -0.0074762697 -0.07273033 -0.051715102
000050 fd 86 6e 3c a6 d2 2a 3e af 49 f0 bd d8 ad 29 3d
       0.014558551 0.16681919 -0.11732804 0.041425556
000060 7b f6 e1 bd b7 1c 2d bd 34 d0 8b 3c 21 f9 02 be
       -0.110333405 -0.042263713 0.017067052 -0.12790348
000070 42 06 46 bd fc 9c 82 bc d5 e9 bd 3c 0c 28 31 bd
       -0.04834581 -0.015943997 0.023182789 -0.043251082
000080 b0 ce b0 3d ce c3 df bd 28 fb c8 3d fe 75 80 3c
       0.086331725 -0.10926019 0.09813529 0.015681263
000090 f9 6e 98 bd fe dc b4 3d 25 93 1c be d7 37 0e 3d
       -0.07443041 0.088312134 -0.15290506 0.03472122
0000a0 92 72 57 3d d2 11 a2 bd 5f 24 f5 bd da 5c aa 3d
       0.052599497 -0.07913555 -0.11969828 0.08318491
0000b0 8d 55 cc bd be 8c 1e 3e 01 21 12 be 70 c1 da bd
       -0.09977255 0.15483376 -0.14270402 -0.106814265
0000c0 c5 11 a6 bd 9a 50 d5 bd 0e f2 27 3d f6 5b 0d bd
       -0.08108858 -0.10415764 0.041002326 -0.03451153
0000d0 01 b9 19 3e 40 28 c7 bd 11 bd e1 bd 1a 62 c3 3c
       0.1501198 -0.09724474 -0.1102239 0.02385049
0000e0 4f e2 78 bd 0e 3c 6a bd 42 cf a9 bc 05 98 a9 bd
       -0.0607627 -0.05718618 -0.020728711 -0.082809485
0000f0 3d aa d8 3d 25 47 30 3c ea d2 ad bd 5a 54 9f 3d
       0.105793454 0.01075915 -0.08487494 0.07779761
000100 a4 a2 a4 bd 88 33 2e 3e cc 93 f4 bc 85 df 04 be
       -0.08038834 0.17011845 -0.029855631 -0.12975891
000110 21 6b 7f bc 86 36 30 3c b8 a8 6d bc 69 16 04 bb
       -0.015589506 0.010755187 -0.014505558 -0.002015496
000120 85 ae e4 bc 3f 12 48 bc ae 10 df 3d 3f 20 db bd
       -0.027915249 -0.012211381 0.10891853 -0.1069951
000130 78 fb 71 3d 19 df 85 3d 44 c9 c8 3d fc b8 89 bd
       0.05907771 0.06536693 0.09804013 -0.06724736
000140 fb 66 f3 3c 57 18 76 bd 80 f2 7a bd 23 35 2c be
       0.02971219 -0.060081806 -0.061266422 -0.16817145
000150 a6 ae 06 bc bc 5f 08 bd 70 07 c6 3d ad cd 61 3e
       -0.00822035 -0.033294424 0.09669387 0.22051115
000160 52 52 21 3e fa 94 8c bd 95 ee 25 bd f7 e7 2e 3e
       0.15754059 -0.068643525 -0.040510733 0.17080675
000170 74 f1 3e bd cd 9a c3 3d 36 72 b4 bd 8e c3 df bc
       -0.046616986 0.0955101 -0.088108465 -0.027314927
000180 b7 03 a6 bd 86 94 8e 3d d4 6b ca bd 39 ce e7 bc
       -0.08106177 0.06961922 -0.09883848 -0.028296577
000190 d9 c7 02 be df 59 70 bc d6 3d a9 bd 12 a2 f2 bd
       -0.12771548 -0.014669864 -0.082637474 -0.11847319
0001a0 92 11 3f 3d 4d bb 9f 3d 9b a1 85 3c 63 0c c8 bc
       0.046647616 0.07799397 0.016312411 -0.024419969
0001b0 fd 24 9a 3d 13 1c 93 bc be 1c 12 be b7 a3 c9 bd
       0.07526586 -0.017957723 -0.14268777 -0.09845679
0001c0 15 2e 27 bd 30 2c d8 3d 97 f3 1f 3d d2 da a0 3d
       -0.04081543 0.10555303 0.039050665 0.07854237
0001d0 cf 65 83 bd 94 41 cb 3d b2 38 cf 3d dd cc 11 3e
       -0.06415903 0.099246174 0.10118236 0.14238305
0001e0 de b8 d3 3d a1 63 66 bd 21 91 8b 3d db ce 7a bc
       0.10337995 -0.056247357 0.068147905 -0.015308107
0001f0 96 74 f0 3c 18 53 1d bd 52 e6 e4 3d 9f 3a 24 3e
       0.029352468 -0.038409323 0.111767426 0.16037987
000200 ed bd 44 38 7d a5 89 3d ff 99 85 3d d6 c9 fa bc
       4.6906924e-05 0.067210175 0.06523513 -0.030613821
000210 2f 3a 14 be df ac b4 bd b0 ff 66 bd 82 6d 91 3c
       -0.1447532 -0.08822035 -0.056396186 0.017752413
000220 65 0e d8 bd 89 cf af bd b0 9c fb 3c b4 74 d9 bd
       -0.105496205 -0.08584506 0.030714363 -0.106179625
000230 e4 95 89 3d c3 6d d7 3d 0a 30 f6 bd bb 90 79 3d
       0.067180425 0.10518982 -0.120208815 0.06092904
000240 ab f7 77 bc b0 b1 b2 bd c8 f4 18 3e f7 0e d1 bd
       -0.015134732 -0.087252975 0.14937127 -0.102079324
000250 69 69 cf bd 60 f2 83 bd 54 60 6d 3d b1 df 8c bd
       -0.10127527 -0.06442714 0.057953194 -0.06878603
000260 cd 80 1b bd 9e b9 ce bd ce f7 fc 3d 4b f4 b7 3d
       -0.03796463 -0.100939974 0.123519525 0.08982142
000270 11 7c 84 3d e3 d3 2a 3d 11 f1 1b bd 22 c8 24 bd
       0.06468976 0.041705977 -0.038071696 -0.040229924
000280 cd ca 0b bd bd b9 6b bc 28 16 20 3e 1a dc a4 bd
       -0.034128953 -0.014387545 0.15633452 -0.080497935
000290 9b 79 cd bd 76 a4 1b bc 23 ef 62 bd 15 d3 ec 3d
       -0.1003296 -0.00949966 -0.05540384 0.11563698
0002a0 cd a5 89 bd 97 17 a7 3c ff 9e 9f bd 95 0c 24 3d
       -0.06721077 0.02039699 -0.07793998 0.04005106
0002b0 e6 60 a3 bd f4 c5 df 3d 0c 52 6b bd 3b 9a dc bd
       -0.07977466 0.109264284 -0.057451293 -0.107716046
0002c0 35 ec 37 3d 75 55 76 3b 03 fc a5 3b 96 80 3f 3c
       0.044903 0.0037587557 0.0050654425 0.011688372
0002d0 91 37 d0 bd 2f fd b1 bb 86 cf c8 3d 21 ef bb 3d
       -0.101668485 -0.005431793 0.09805207 0.091764696
0002e0 10 e8 9a 3d 19 14 91 bd 82 4a 97 3d 49 fe fc bd
       0.07563794 -0.070839114 0.07387258 -0.123531885
0002f0 d6 09 b7 bd aa 4d 9e 3d 6c e7 83 3c 30 a1 49 3b
       -0.08937423 0.07729657 0.016101561 0.0030766241
000300 76 f5 c5 bd 7f 4d 1e bc 52 94 cf bc ef e8 b4 bd
       -0.096659586 -0.009662031 -0.02533928 -0.08833491
000310 82 67 86 bd 1f 4e 57 bd ef fa 0c bc 16 96 36 bd
       -0.06562711 -0.052564736 -0.008604749 -0.044576727
000320 7e b7 07 bd a8 48 76 3d 11 8b 88 bd 18 4a fc 3d
       -0.033133976 0.060127884 -0.0666715 0.1231882
000330 c3 44 55 bd 85 2f 24 3b 92 e8 18 bd cf 55 f7 bd
       -0.05206753 0.0025052738 -0.03733117 -0.120769136
000340 e2 be da bd e8 c4 ce bd 18 c6 2d 3d e2 02 ae 3d
       -0.10680939 -0.10096151 0.042425245 0.084966436
000350 be 6e 7a 3d 71 f4 ea 3d 57 21 91 bd 14 39 ef bd
       0.06114077 0.11472405 -0.07086437 -0.11680809
000360 0b 37 a9 3d 68 e8 59 3d b8 b0 2a 3d 79 3e 5f 3d
       0.08262452 0.053200155 0.04167244 0.054502938
000370 51 43 a6 3b 4a 0a af bc 0b 01 a4 3c 0a 58 0c 3d
       0.0050739427 -0.02136721 0.020020029 0.034263648
000380 47 74 8c bd d2 eb 0b 3e 80 74 d0 3b fb 62 43 3d
       -0.06858116 0.13664177 0.006361544 0.047701817
000390 e3 52 c6 bc 16 1e 70 bd 20 56 fd bd ad b3 32 bd
       -0.024209445 -0.058622442 -0.12369943 -0.043628383
0003a0 ff bf 99 3c 01 bd 8a 3d 54 00 8f bd b5 74 f0 3d
       0.018768309 0.06774331 -0.069824845 0.1174101
0003b0 2f 92 a6 3d 09 62 17 3e f9 d2 c9 bc ba 02 96 3b
       0.08133351 0.14783491 -0.024636732 0.0045779618
0003c0 0e c1 ae bc d7 d3 91 bc ef e2 55 bc 8b 80 1e be
       -0.02133229 -0.017801208 -0.0130545935 -0.15478723
0003d0 55 78 dd 3d 27 a6 ce bd e6 b1 7d 3d cb 88 2c 3d
       0.10813967 -0.10090285 0.061937235 0.042122643
0003e0 5c 1f d2 3d ba ed 91 3d 32 e2 aa ba 7a 43 08 bd
       0.102598876 0.07125421 -0.0013037382 -0.033267476
0003f0 5a 8b df bd d9 2f a6 3d 0a 82 a6 3d 22 d8 08 3c
       -0.10915251 0.08114595 0.08130272 0.008352311

hidden3.0.bias f4 [100]
000000 e2 e0 b7 bc 07 bf 98 3d 37 e6 d4 bd 67 6d 00 3d
       -0.0224461 0.074583106 -0.103954725 0.031354334
000010 12 11 b0 3d 9a 68 ca 3d 70 fa 8a bd 4a ee c4 3d
       0.08597006 0.098832324 -0.067860484 0.096157625
000020 44 44 9c bd 70 89 37 3d 91 53 e1 3d fb ad 11 3c
       -0.07630208 0.044808805 0.11002267 0.008891578
000030 fc 98 04 3e 43 54 ce 3c 88 60 88 bd 1c 98 87 bd
       0.12948984 0.025186663 -0.06659037 -0.066208094
000040 9c 9f 25 3d aa 5a 4b 3e 8a 54 c0 bd 0b ea 09 3e
       0.04043542 0.19858804 -0.093911245 0.13468187
000050 13 b9 a0 bd b9 14 f3 3d 8f 75 c5 3d f1 7f 72 bd
       -0.078478 0.11869187 0.09641563 -0.059204046
000060 19 64 b1 3d cf 60 46 3d 73 c0 9a 3d a4 5f a2 3b
       0.0866167 0.048432168 0.07556238 0.004955249
000070 48 d6 00 3e 7e ac 88 bd f2 0c f5 3d 15 27 e2 3d
       0.12581742 -0.06673525 0.1196536 0.110426106
000080 94 48 ef 3d 14 66 22 3c b3 c6 bb bd 11 41 f6 3c
       0.11683765 0.009912033 -0.09168758 0.030060323
000090 ff 1b 56 3e 0c 0e 9e bd a9 95 e2 3d 04 19 94 bd
       0.20909117 -0.07717523 0.11063702 -0.07231334
0000a0 ca 42 0c bc bb 42 03 be 1e fa 37 3e 69 06 34 3d
       -0.008560846 -0.12818424 0.17966506 0.043951426
0000b0 98 ee a7 3d 20 99 28 3e 4c 88 e8 bc b2 61 53 bc
       0.08199805 0.16464663 -0.028385304 -0.01290171
0000c0 e6 71 f7 3c b3 31 07 be e2 7b 86 3d 06 a8 b4 bd
       0.030205678 -0.13202552 0.065665975 -0.088211104
0000d0 e1 49 34 3e d3 40 18 bc 2e 7c 17 3e dd d7 90 3c
       0.17606308 -0.009292799 0.14793465 0.017681057
0000e0 c7 a0 c9 3d f7 71 22 3b 0a ae ee 3d 0c 89 b3 3d
       0.09845119 0.0024787167 0.11654289 0.08766374
0000f0 b7 32 81 3c 6c 74 d9 bc 31 2d ee 3d 33 5f b0 bc
       0.015771253 -0.026544772 0.11629713 -0.02152977
000100 6a ca 2d 3e b6 a0 6c 3d 1e f3 40 3e 02 c6 31 3e
       0.16971746 0.057770453 0.18842742 0.1736069
000110 7c cb a5 3c e0 02 8e 3c 8d 1b 45 3d 5d c0 fb 3d
       0.02023863 0.017335355 0.048121978 0.1229255
000120 6c 9b 03 bd fc 68 d6 3d 70 56 12 bc 0f c8 5d 3e
       -0.032130644 0.10469243 -0.008931741 0.21658348
000130 64 98 62 3d 09 7c 8a 3d 28 39 a5 bd 01 f9 5a 3d
       0.055321112 0.06761939 -0.08067542 0.053460125
000140 18 21 3e bc be 31 36 3e 70 c9 09 3d b8 3d ee bd
       -0.01160457 0.17792413 0.03363937 -0.11632866
000150 da 76 ca 3c d6 6a 12 3e 64 04 92 bd 59 31 83 3d
       0.024714876 0.14298567 -0.07129744 0.06405897
000160 e2 45 e2 3c a4 e5 fe ba 20 e3 81 3d c5 29 b0 bb
       0.027621213 -0.00194471 0.06342149 -0.005376073
000170 cb e8 c7 3d 79 fb 09 3e a9 63 cd 3d 7e 38 06 bd
       0.097611986 0.13474835 0.10028774 -0.03276872
000180 ce 50 e9 bb 7a 0c ac 3d a2 3d 1f 3d 90 9c c2 bc
       -0.0071202284 0.08400817 0.038877137 -0.023756295

output.0.weight f4 [10, 100]
000000 43 13 08 be 03 b0 63 bd b8 89 fd 3d 9b d2 23 be
       -0.13288598 -0.05558778 0.123797834 -0.15998308
000010 6a e2 27 3e a2 1d 13 be f2 ea c1 bd af 0c 42 be
       0.16394964 -0.14366773 -0.094686404 -0.18950151
000020 c2 02 7c be 9e 0c e4 bc da 9d 62 be 0e ba bd 3d
       -0.24610427 -0.027838048 -0.22130528 0.09264003
000030 33 a2 8d be ba 4d 7b be 4a 22 b7 3d d5 d7 6c 3d
       -0.2766281 -0.24541369 0.08942087 0.05782302
000040 6c 34 17 3d 4e 21 cf bd 96 c7 ba bc b3 d6 6a 3e
       0.036915228 -0.10113774 -0.022800248 0.22933464
000050 a5 5b f9 3d 12 7a a5 bd f8 c7 4d be 60 dd 5e ba
       0.12175683 -0.08079924 -0.20095813 -0.00085016154
000060 e9 6f c5 3d 65 b1 09 be 9b dc 0a 3e af 9a b2 3c
       0.09640486 -0.13446577 0.13560717 0.021802275
000070 c6 99 0a be 37 8c 04 be 35 3f 6c be 5e e3 1e be
       -0.13535222 -0.12944113 -0.23070987 -0.15516421
000080 0d 78 45 be 5d f7 23 3e e8 56 4c be a9 eb 2c be
       -0.19284077 0.1601233 -0.19955027 -0.16886772
000090 d2 e7 91 be 6e 54 37 be 76 65 a0 bd 6a ea 87 be
       -0.28497177 -0.17903301 -0.07831852 -0.2654603
0000a0 29 07 83 3e a1 6d 4e 3d be e4 0b be 70 74 56 3d
       0.255914 0.05039752 -0.13661477 0.052357137
0000b0 5b 56 21 bd 0c a9 53 be b4 64 42 be f1 d5 69 be
       -0.039388996 -0.20669955 -0.18983728 -0.22835518
0000c0 23 04 d3 bd 77 68 8c 3c 14 3e b2 3d 7a 13 86 be
       -0.103035234 0.017139656 0.08703247 -0.26186734
0000d0 66 6b 25 be bf 74 07 be 8f a3 9a bd 11 59 3b be
       -0.1615425 -0.13228129 -0.075507276 -0.18295695
0000e0 46 fc 7b be 6a 13 38 be dd cf da bd 1d ad 84 be
       -0.24607953 -0.17976156 -0.10684178 -0.25913325
0000f0 4c a4 3e be 1e 94 64 3d a2 36 3d be 9f ee 98 3d
       -0.18617362 0.055805318 -0.18477872 0.07467388
000100 d8 3b 44 be e8 7d 94 3c 1e 7e 1d be 21 4d 73 be
       -0.19163454 0.018126443 -0.15380141 -0.23759891
000110 cc df 42 be 29 d6 48 be 19 d9 c9 3d 32 17 14 be
       -0.19030684 -0.19612946 0.09855861 -0.14461973
000120 31 1d 0d bc 85 14 30 bd 03 d5 8f be 63 5c 46 be
       -0.008612917 -0.04298832 -0.28092203 -0.1937118
000130 b2 30 b3 bc fe b9 fd bc 7b e5 88 3e 9f 31 6d 3d
       -0.021873806 -0.030972477 0.2673758 0.05790865
000140 03 b5 65 be 98 bc 23 be e5 1f 3d 3e c8 df e4 bd
       -0.22432332 -0.15989912 0.18469198 -0.111754954
000150 0d 1f 9b 3d 5f 2a 98 bd b6 0a 45 3b 12 79 66 be
       0.07574282 -0.07429957 0.0030066199 -0.22507122
000160 48 98 82 3d 96 6f 9a 3d c8 2d 36 be 3d 8b 29 3d
       0.063767016 0.075408146 -0.17790902 0.041392554
000170 25 c5 44 3d 13 9f 96 3d 3c 30 25 be 8f 1d b7 3d
       0.048039574 0.0735456 -0.16131681 0.08941185
000180 e9 69 22 be 0c 20 d8 bd 03 0b 81 3d ee 7a 15 3e
       -0.15860714 -0.105529875 0.063009284 0.14597675
000190 b8 37 4f be 7c bc cc 3c f9 3b 4b be 8c d2 7c be
       -0.20236099 0.02499222 -0.19847097 -0.24689692
0001a0 2d fd 4b be ed 33 4a be f1 f3 ea 3c 53 db d2 bd
       -0.19920798 -0.1974637 0.028680773 -0.10295739
0001b0 59 f3 14 be ea 41 91 3e 83 4e 5c be 5a 34 9c 3d
       -0.14545955 0.283706 -0.21514325 0.07627173
0001c0 bb b1 f8 3d 4c 4d 83 be e8 b6 5f be 6b 47 50 be
       0.121432744 -0.2564491 -0.21847117 -0.20339744
0001d0 50 b3 3d be 3c c2 a9 bd e4 e9 b4 bb fb 14 48 be
       -0.18525434 -0.082890004 -0.005521046 -0.19539253
0001e0 e8 3a 79 bd 1c b1 f7 bb 7e bb 0a be 03 34 b1 3e
       -0.060847193 -0.007558955 -0.13548085 0.34609994
0001f0 cd 49 16 3d b4 b0 4c 3e f7 6b 2f 3e 1e 64 b9 bd
       0.036691476 0.19989282 0.17131029 -0.09052299
000200 12 21 9e be 63 25 a5 3e 0f 5d d5 3d 52 04 ba 3d
       -0.30884606 0.32255086 0.1041814 0.09082855
000210 b9 cb 9f be 7f 29 21 be 7e 46 28 be ca d3 86 3d
       -0.31210116 -0.15738486 -0.1643314 0.06583364
000220 db 38 a6 be 82 47 2c 3e 6e 5e 72 3e 4f d7 f8 3d
       -0.32465252 0.16824153 0.23668835 0.12150442
000230 e2 51 91 bd 49 fc 42 be f4 c5 3b be 8b be 58 be
       -0.07095696 -0.19041552 -0.18337232 -0.21166436
000240 31 6e 10 be af 7b 1c be a4 92 49 bd 7b c6 70 be
       -0.14104535 -0.15281557 -0.049212113 -0.23513214
000250 be d8 32 be 97 37 fd 3c 7f 39 d9 bc f3 c9 ac 3d
       -0.17465493 0.030910296 -0.026516674 0.08436956
000260 87 e2 37 be 54 b5 54 3e d1 5a 89 bd 00 d9 2f 3d
       -0.17957507 0.20772296 -0.06706775 0.042931557
000270 c3 16 8a be 33 0e 7d be 7b 6e 6d 3e da 66 bf 3d
       -0.2697049 -0.24712448 0.23186676 0.09345789
000280 8d da 8c 3e 85 5f 56 be 89 69 c9 3d e7 6f 28 be
       0.2751049 -0.20934875 0.09834582 -0.16448937
000290 b7 e4 9b 3e 53 98 90 be 6a 82 b8 bd 28 aa 54 be
       0.30447933 -0.28241214 -0.090092495 -0.20768034
0002a0 93 cf 46 bd 8c 4a d2 bd c6 30 b9 3d 34 58 89 be
       -0.048537802 -0.10268125 0.09042506 -0.26825106
0002b0 05 9e 0a be 7e c6 1b be c1 9d b3 be 29 d1 eb bc
       -0.13536842 -0.15212438 -0.35081294 -0.028786259
0002c0 68 18 50 be 64 1f 2e bd b7 51 a6 bd 29 93 48 be
       -0.2032181 -0.042510405 -0.081210546 -0.19587387
0002d0 8d 28 14 3e 6b 48 8b be ac fb 80 3e 59 a1 97 bb
       0.14468594 -0.27203688 0.2519201 -0.0046273884
0002e0 b1 68 99 bd 6b 16 23 3e 30 a1 97 be ab 47 91 be
       -0.074906714 0.1592652 -0.29615164 -0.2837499
0002f0 f5 01 a3 3d 4f 34 8a be 78 03 88 be 0f fb 92 be
       0.07959358 -0.26993033 -0.26565146 -0.28707168
000300 0e fb 38 bd fc c8 81 be 3f 94 03 3e 8d c2 83 be
       -0.0451613 -0.2534865 0.1284952 -0.25734368
000310 07 e5 4f 3e 97 ff b9 3d f7 8d 5f 3d 93 e8 e8 3a
       0.20302211 0.09081953 0.054578748 0.0017769508
000320 2e 44 82 be e5 0e 1f be e5 1f 42 be 99 47 30 3d
       -0.25442642 -0.15533026 -0.1895748 0.04303703
000330 f6 d1 fd 3d 5a c0 48 be 07 29 1b 3e 4d 45 18 3e
       0.123935625 -0.19604626 0.1515237 0.14870186
000340 26 18 9b 3c 6c 05 1c 3c ba a5 94 bd fa b7 b2 3d
       0.018932413 0.009522777 -0.07258172 0.08726497
000350 77 9c 8c be 3b 5e 97 be 11 9a 34 be df 79 8b be
       -0.27463123 -0.2956408 -0.17636897 -0.27241418
000360 90 19 6f be f1 19 3d 3e b3 18 4b 3d 3e c2 81 be
       -0.23349595 0.18466927 0.049584102 -0.25343508
000370 87 69 26 be 60 2c 66 be 8f a0 f6 3c 2b 23 15 be
       -0.16251193 -0.22477865 0.030105857 -0.14564197
000380 99 12 c4 3c 82 e4 76 be f9 9d 88 be ae 11 4d bd
       0.02393465 -0.24110606 -0.26683024 -0.05006569
000390 0a 51 82 be 15 9c 0a be c7 0f 97 be 38 16 88 be
       -0.25452453 -0.13536103 -0.29504225 -0.26579452
0003a0 12 e4 e3 3d 93 e5 af 3c 4f 8d 86 3d 0c 0e b1 bd
       0.11127485 0.021471774 0.06569921 -0.08645257
0003b0 f6 c9 b3 be 69 da 6e be d0 da 17 be 56 e4 3d be
       -0.3511502 -0.23325504 -0.14829564 -0.18544134
0003c0 e7 f9 00 be 0c 48 8a be 81 ef e9 3c e6 5f 70 be
       -0.1259533 -0.27008092 0.028556587 -0.23474082
0003d0 ec 49 3c 3d 1a e3 19 be 27 94 c3 3d fd e4 6f 3d
       0.045968935 -0.15028039 0.09549742 0.05856799
0003e0 20 3e db 3d ad be 0f 3d 50 5e da 3d e0 28 0c 3d
       0.10705209 0.035093952 0.1066252 0.03421867
0003f0 fc 2d 44 be de 2d f2 3d b1 bd 2d be 9f f5 6e be
       -0.19158167 0.11825155 -0.16966893 -0.23335885

output.0.bias f4 [10]
000000 43 75 ee 3e 76 1d c4 3e 05 98 42 3f a3 8f 1e 3f
       0.4657384 0.38303727 0.76013213 0.6193792
000010 b7 88 83 3f 6a b1 4b 3f f1 a0 2d 3f 6e ab 2f 3f
       1.0276097 0.7956759 0.678237 0.68620956
000020 57 05 92 3f 3f 74 59 3f
       1.140788 0.84943
