General/Code/Models/FCN-SGD-lr:0.01-acc:57.5.pth (torch, 401615 bytes, 8 tensors)

hidden1.0.weight f4 [100, 784]
00000000: 97d9 8fbc 6060 09bb 1013 543c 9297 01bc
00000010: 0075 3739 4bcc 02bd 600a 95ba 9f73 023d
00000020: 80cc d83c 2047 22bb 5e21 ec3c 254a aabc
00000030: 46b1 85bb b178 623c 3acd eabc ce22 72bc
00000040: d4f9 03bd 7c9a 2a3c 88c1 d53b 08f8 c43c
00000050: 60e6 d6ba b07f b9bc d8b7 d83c b7e2 03bd
00000060: b975 0a3d 6054 dd3a 5848 19bc 4e92 47bc
00000070: 37cc 8dbc c0fd ae3c 52d6 5fbc 3c2e 083c
00000080: ddf2 753c b4d0 e83c f249 f73c 627f 6d3c
00000090: b7ae fcbc 512a a03c 1103 db3c c054 fcbb
000000a0: 8479 4dbc 9961 9b3c f9d3 02bd 8852 80bc
000000b0: 4b1e e63c b001 9d3b a46b 5ebc dec3 8b3c
000000c0: b06d d7bc dbaf 103c e13a 893c 85cf debc
000000d0: 7895 ac3b 486a 2e3c 5ca6 773c fc73 293c
000000e0: 95f9 97bc 4086 0f3a c41b 09bd 82b7 843c
000000f0: 6af3 babc a8bb ac3c e3c6 72bc 5d5c b9bb
00000100: 5a33 413c d270 2d3c 6a94 383b 3475 9bbb
00000110: 1c5b 20bd 4490 2bbd eaca e43b 0eb3 cc3c
00000120: 3a1a e63a 137d d8bc 3dec 293c 9692 ba3c
00000130: 2a86 dcbc 53ca 9a3c b13b ee3c b77c 0ebd
00000140: c0f4 90bc fa8e debc 18f8 6a3c 1e16 ee3c
00000150: 68cb b43b 7899 b33b 7552 90bc d742 11bd
00000160: 5137 56bc 7ff7 1cbc 4d91 8abc ff9c b63c
00000170: 6949 d1bc a09d 30bd 7d2c 77bb 1924 383c
00000180: 2a11 f4bb 70db c23b 3c8a cabc e4ca 86bc
00000190: 4fa1 1fbd 4df3 d139 0727 e4bc cc04 02bd
000001a0: cbf9 98bc bf9e 0d3c d53e babc d061 70bc
000001b0: 09ee d13c b435 4abc e19d 06bd be73 9c3c
000001c0: f1d9 f5bc aa81 f73c 0076 193c 3df5 cabc
000001d0: cde4 bcbc 6237 7d3c 82cf 583c 8664 95bc
000001e0: c7ce 15bd 3914 883a 23b9 13bd fa1c 023b
000001f0: a978 04bd b48f 4fbd 96d8 b8bc 2f4f 5cbc
00000200: 23ce 47bd c13e 193c 085d 983b fe55 713b
00000210: 4cad aebc 741e 0dbd 4a79 02bd cdb4 743c
00000220: cbef 9c39 0cab 9dbc 8deb 963c 4673 a4bc
00000230: dcaf a93c 3057 2c3c 22c8 84bc 5f70 15bd
00000240: 981e e23b a3a0 533b 6c32 48bc ff90 cabb
00000250: d681 40bd 939e da3b e4a8 03bd 4981 ffbc
00000260: 4f65 74bc 217d 1cbd 35da e63c 02cb b9bc
00000270: 3261 58bc 87d6 01bd 4832 fd3b 4679 16bd
00000280: 8f00 67bd 0e3d fd39 327b 0cbd 988a b43b
00000290: 0b1d 0e3c cd50 b038 6d04 bf3c 604a 283c
000002a0: d47a cfbb 7de4 e03c 0d5e 2b3c 081b 86bc
000002b0: 9f64 d9bc 34ca 41bc 8dce c4bc fb19 06bd
000002c0: 658e 15bc 9b2e 8abc 5ee2 c8bc 6ab8 9fbc
000002d0: 657b b33b 22c5 573b 237e 76bc e267 3fbd
000002e0: 5621 80bc 4f3d 9abc 2de2 03bb 6f37 f3bc
000002f0: 0a30 40bc c5d3 1b3d d390 873a 8a78 f33c
00000300: 029e a1bc 28bc 20bd 4403 eebc f2a8 fcbb
00000310: af30 2dbb 14b8 05bd 110a dc3c a55a b23b
00000320: 690a fe3b d7ce e43c 2142 913b 52cb dabc
00000330: 2946 edbb 8d44 5ebc 5775 4c3c d0e5 abbc
00000340: 26ba f23a c089 17bc a963 57bc 3916 9cbd
00000350: 64eb 4bbc b7c8 09bd dffe 17bd 470f 75bb
00000360: a3bb f5bc 1391 0f3c af05 103d 1f76 de3c
00000370: 0bdd 62bc a95f debc 5db8 0bbd 1323 943c
00000380: a083 fabb d614 153d d388 6ebc 30dd cabc
00000390: ba22 96bb 2e4e b33c f820 003c bded 9c3c
000003a0: 0bbc 50bc e675 4cbd ec53 68bc b87d 00bd
000003b0: 19a5 28ba 3094 8e3c 7847 a43c 7b32 96bc
000003c0: e69c 1e3d 7e5b 95bc 90b8 093d 82b2 48bd
000003d0: 5ea1 0f3d e3d5 113c bc79 fcbb abbd 273d
000003e0: c799 963c d390 b0bc 8681 ecbc 304f ddbb
000003f0: 939c 013d 3957 893c 9572 43bc 7d27 b6bc
-0.01755981 -0.0020961985 0.012943998 -0.007909672 0.00017495826 -0.03193311 -0.001137089 0.031848546
0.0264647 -0.0024761632 0.028824504 -0.020787308 -0.0040799705 0.01382272 -0.028662313 -0.014778806
-0.032220677 0.0104128085 0.006523315 0.024044052 -0.0016395561 -0.022643894 0.026454851 -0.032198634
0.033803675 0.0016886108 -0.009355627 -0.012180878 -0.017309291 0.021361232 -0.013661938 0.008311804
0.015011516 0.02841983 0.030186627 0.014495702 -0.03084503 0.019551428 0.02673486 -0.0077005327
-0.012541179 0.018967437 -0.031940434 -0.015664354 0.028090617 0.004791461 -0.013575468 0.01706117
-0.02629742 0.00883099 0.016751708 -0.027198562 0.0052668415 0.010645457 0.015115347 0.010342594
-0.018551627 0.0005475022 -0.033473745 0.016200785 -0.022821147 0.021085575 -0.014817926 -0.0056567625
0.011792028 0.0105859805 0.0028164634 -0.0047441963 -0.03914939 -0.04188563 0.006982197 0.024987724
0.0017555424 -0.026426828 0.010371265 0.022774976 -0.026919443 0.018895304 0.029081197 -0.034786906
-0.01769483 -0.027167786 0.014341377 0.02906328 0.005517412 0.0054809414 -0.017617444 -0.035464134
-0.013074712 -0.009580492 -0.016914988 0.022291658 -0.0255477 -0.043119073 -0.0037715726 0.011239075
-0.007448335 0.005946569 -0.024724118 -0.016454168 -0.038972195 0.0004004486 -0.027850641 -0.031742856
-0.018673798 0.008643805 -0.022735039 -0.014671758 0.0256262 -0.012341905 -0.03286541 0.019098159
-0.03001115 0.030213196 0.009366512 -0.024775142 -0.02305832 0.015455099 0.0132330675 -0.01823641
-0.03657415 0.0010382003 -0.036065232 0.0019853697 -0.032341633 -0.050674155 -0.022564214 -0.013446613
-0.04878057 0.009353341 0.004649762 0.0036824937 -0.021322869 -0.03445287 -0.03185395 0.014935684
0.00029933298 -0.0192466 0.018422866 -0.020074498 0.02071374 0.010518834 -0.016208712 -0.03648412
0.0069006197 0.0032291792 -0.012219053 -0.0061818357 -0.04699882 0.0066717356 -0.03214349 -0.031189578
-0.014916732 -0.03820527 0.028180221 -0.02267981 -0.013206767 -0.03169873 0.0077269413 -0.03673675
-0.056397017 0.0004830141 -0.034297176 0.0055096857 0.008673917 8.407384e-05 0.02331754 0.010271639
-0.006331781 0.027452702 0.010459435 -0.016370311 -0.026537238 -0.011827994 -0.024024272 -0.03273962
-0.009128188 -0.016867926 -0.024522003 -0.019497115 0.0054773563 0.0032923897 -0.015044722 -0.04672993
-0.015640896 -0.018828062 -0.0020123825 -0.029689519 -0.011730203 0.038043756 0.0010342844 0.029720563
-0.019728664 -0.03924194 -0.029054292 -0.0077105695 -0.0026426723 -0.032646254 0.026860269 0.0054429346
0.007752706 0.02793066 0.004432932 -0.026708279 -0.0072410298 -0.0135661485 0.012479148 -0.020983607
0.0018518611 -0.009249151 -0.013146319 -0.07621426 -0.012446258 -0.033638682 -0.0371083 -0.003739314
-0.029996699 0.008762616 0.03516167 0.027155934 -0.013846646 -0.027145224 -0.03411137 0.018083131
-0.0076450855 0.036396824 -0.014558989 -0.024763674 -0.0045817764 0.021887865 0.00782036 0.019156331
-0.012740145 -0.049917124 -0.014180165 -0.031369895 -0.0006433293 0.017404646 0.02005361 -0.018334618
0.03872385 -0.018232103 0.03362328 -0.048998363 0.035066 0.008901092 -0.0077049416 0.040952366
0.018383874 -0.021553433 -0.028870355 -0.0067538247 0.03164346 0.016765224 -0.011929174 -0.022235626

hidden1.0.bias f4 [100]
00000000: f070 aa3d 8a31 07be b894 14be 1107 c03c
00000010: 224a 0d3e da20 87bc 435b 2cbe 8fac 73bc
00000020: 3b9f e7bd 9636 90bd c64a 94bd 1304 cfbc
00000030: fd81 e13d 94d4 00bd adcd a43b cd5b 903c
00000040: 5388 12bd ab30 403d 0d77 d93d 2eeb 1abd
00000050: 8c50 693c b343 51bc cd34 80bd d2cc 01bd
00000060: ebbe 06bd 0b61 42bd b2f5 aa3d af67 e6bc
00000070: 4844 2e3e 7275 06bd 3c7a 30bc 2514 5abd
00000080: 3d1c e63c 82e2 89bd 4658 7cbd 79e6 1c3d
00000090: 8fdd e0bd c315 353d 2ea8 543c 5fbc f43d
000000a0: c76a de3d e05c bdbc b291 78bd 4b7d 84bd
000000b0: e266 0bbd 85ee 113d ecbe 263d 2221 983c
000000c0: 19d2 73bb 0c34 9fbc 2abb 01be 1349 80be
000000d0: 1b46 41bc 2741 b9bd f6ec f9bd 0b13 a23d
000000e0: 3b0a fdbd 6fce 93bd 7ad6 98bd 8a49 44bd
000000f0: 82a8 b23c a69b 1e3d fd6d a23d 9b60 2d3d
00000100: e0ee 7fbd b054 0a3e da93 143e 207e 2abd
00000110: b47d 8cbc 2f37 313c e17b 81bd 0b86 e33d
00000120: 7c0f 5c3d ae88 a53a 411f afbd 70cf bcbc
00000130: 16a2 18be caec 64be ae3b 663b 6214 4bbb
00000140: dcbf 59bd 40e2 4a3c c8fd b4bd e575 9e3d
00000150: e571 943b f21d 2fbc 21fe 843d 4759 e4bd
00000160: 24a6 2bbd ccfd e4bc ad20 c5bd b552 afbd
00000170: 1a91 f23c 6fa5 3ebd 3514 38b8 efad 593c
00000180: 9692 d73d 33a3 14be a52a c9bd df3a 20bd
0.08322322 -0.13202491 -0.14509857 0.02344087 0.1379781 -0.016495157 -0.16831689 -0.014872684
-0.11309668 -0.070416614 -0.072408244 -0.025270497 0.110111214 -0.03145273 0.0050294013 0.017621899
-0.03577454 0.046921413 0.1061841 -0.03782194 0.014240395 -0.012772488 -0.06260071 -0.031689472
-0.032896917 -0.04745583 0.08347644 -0.028125612 0.17018235 -0.03282685 -0.01077133 -0.053241868
0.028089637 -0.06732656 -0.06160762 0.038305733 -0.10979759 0.044210207 0.01297955 0.119499914
0.1086021 -0.023115575 -0.06068582 -0.0646921 -0.034033664 0.03562786 0.04070942 0.018570486
-0.0037204085 -0.019433998 -0.12669054 -0.2505575 -0.0117965 -0.0904563 -0.122034 0.079137884
-0.12355467 -0.072171085 -0.07462783 -0.047921695 0.021808866 0.038722657 0.07931135 0.04232846
-0.06248367 0.13508868 0.14509526 -0.04162419 -0.017149784 0.010816379 -0.06322456 0.11109551
0.053725705 0.0012629235 -0.08550883 -0.023048133 -0.14905581 -0.22355953 0.0035130787 -0.003098749
-0.053161487 0.012383044 -0.088374674 0.0773733 0.004530179 -0.010688292 0.06493784 -0.11149841
-0.04190649 -0.027953051 -0.09625373 -0.08560697 0.029610205 -0.04654449 -4.3887838e-05 0.013286098
0.10526006 -0.1451538 -0.09822587 -0.039118644

hidden2.0.weight f4 [100, 100]
00000000: 7e93 fdbb c89d 1a3d 36a8 4cbc cd86 9fbd
00000010: 1a7a cdbd 7613 603c 2fbb f03c 94fc 043d
00000020: 277a c0bd ec80 65bd b2fc 2e3d dddd 063d
00000030: c4a5 65bd 8e1d a0bd 7480 d4bc 6008 2ebd
00000040: 74de 20bd 3f1d ff3d 7f69 50bd a298 c2bd
00000050: 0b9c 913d 4130 263e cd2d 383c b000 d13d
00000060: d1ef d7bc 13df 1d3d 023a 27bd 9019 8dbc
00000070: 0616 a0bd 873a 2f3b 1c85 0a3e 2bb7 57bd
00000080: 8e41 fdbc 6d2b a8bd c10b 30bc 56ee 2d3e
00000090: 5627 d03d eaa4 19bc acce 913b f2b3 c8bd
000000a0: c2f5 9f3b 337a 4dbd 673d e83c efaf 8f3d
000000b0: 863d 32bd 3c7c 433d 6683 9dbd de13 a33d
000000c0: e9a8 3b3d 51b8 cebc 5e69 e6bc 0651 9b3d
000000d0: 6626 283d 257b eabd 0196 f1bc 0506 983d
000000e0: 808c c53d f2ff 4bbd 80d9 05bc ecc6 9ebd
000000f0: ba74 c1bc e008 1dbc 6be6 333e f948 54bd
00000100: 5d86 e93d 5bef 3dbd 7bd4 673e 2e19 96bd
00000110: be99 603d 256c 6c3c 8e76 943d 76cc b23b
00000120: cff8 c73b d12f a13d 0d93 e9bd b82c 8d3c
00000130: a8ec 0c3d be8f c83d 0a30 f23d 7df0 a63c
00000140: 3251 8bbd d229 b6bd 3371 61bd 8801 573e
00000150: 39ba 80bd 3e8f 2f3e f26f 283c 0821 fc3d
00000160: 7e19 893d a332 c7bd af9f f23d 5e39 083e
00000170: 6fdf 2c3e 10f0 7ebd e027 9ebd 229a e5bc
00000180: cc09 513e 4b06 b03d f21f 073d 5161 85bb
00000190: 69de 24bd f33b 05bd ecc7 e83c 32b2 a13d
000001a0: fd7d ed3d 5b16 abbd 71ce 28bd d6fa 8bbd
000001b0: e3d1 b43c 367b 463c 5dda 10bd 46c5 0c3d
000001c0: 1d59 e63c 6ab3 aebc 991f 62bd 91d7 8c3d
000001d0: c8b2 97bd e3ef bfbd 9b6c 673d 0c5d 823d
000001e0: 2f7b 593c 01f2 ca3c 0f1c d3bc dd01 33bd
000001f0: d9d9 63bd 6cd4 c3bd e8bb bdbd f053 ca3c
00000200: 696b 75bc 6788 223d bbd7 823a 08f9 d5bc
00000210: 67c1 933d d1f4 373d ff83 9bbd 7478 81bc
00000220: 85d9 423b ce37 bbbd 31e2 243d b9f1 8cbd
00000230: 4207 8e3d a238 7bbc d533 1ebb 98a1 56bd
00000240: 24b8 1f3d 004b 1b3d 2522 033e e70d 923d
00000250: b5c9 aabc 378c 873d 67da 613d 778d 303d
00000260: b17c b8bd 136a 54bd 921a b9bd 92c8 5cbc
00000270: 1f49 403d c45b 5cbd f132 28bd 12f2 083c
00000280: 9030 b23d 5f8a 51bd 1cb7 45bc b7b3 8d3d
00000290: d6da 933c fc13 8ebd 360f 84bd 7553 55bb
000002a0: e43f ccbd 3576 c2bc 24e8 b9bd 1a26 c3bd
000002b0: 1d4a 9e3c 6859 8bbc 4e99 953c 3375 90bb
000002c0: 4cea 53bd 8b97 8a3a 3626 bdbd d21f 76bc
000002d0: c880 adbd 7456 593d 1258 7f3d e931 1a3d
000002e0: b15c 193d dba1 83bd eeb8 883d f688 b1bc
000002f0: 4070 983d 3ba0 b4bd 8709 96bd 8e51 8f3d
00000300: b6b8 653d 1ab3 96bd e063 a9bb 4da8 8e3d
00000310: 40e9 8e3d 63dc 2fbd d82a 94bd dcb0 45bc
00000320: 9131 cbbd 706a 92bd 0336 813d 60bc 46bd
00000330: 05cc 64bd 188d 79bd 0b4a 4b3b 0266 cbbd
00000340: 2f8e fb3d e73b f83d 2db7 08be 1d4d be3d
00000350: 2c13 1e3c 7672 0a3e 0bb5 1c3e c971 93bd
00000360: fe0c d63d 8652 6abd 7227 ffbd be8f c83d
00000370: 330a a1bd 165d dfbd 94ef d2bc 12f6 f7bd
00000380: 7aa1 063c 9d29 09bd 672a 8abc 32d9 bf3d
00000390: 681b cdbd 2734 bb3b 37ad d4bd 1fc3 cd3d
000003a0: 4725 053d 599e 9e3b 35af aa3d 059b 2e3d
000003b0: 8330 393d 998e 133d 8da3 333c f8dd efbd
000003c0: 3d80 1cbe b2fa 153e 2d64 01bd 95d6 84bd
000003d0: 5ba7 1d3e 6f58 09be b6f0 cfbd 39c2 7cbd
000003e0: 007a e0bb 67ca 92bc 2fa6 3a3d 7bf3 12bd
000003f0: 34f4 e0bc b6b9 c93d bc18 be3d ab4c 23be
-0.0077385297 0.03774813 -0.0124912765 -0.07789383 -0.10033055 0.013676515 0.029386131 0.03246744
-0.09398299 -0.056031153 0.042721458 0.03292643 -0.05606629 -0.07818137 -0.025940157 -0.042488456
-0.039274648 0.1245675 -0.05088186 -0.09501769 0.07109841 0.16229345 0.0112413885 0.10205209
-0.02635947 0.03854282 -0.040826805 -0.017224103 -0.07816701 0.0026737766 0.1352734 -0.052664917
-0.030915048 -0.08211408 -0.01074499 0.16985449 0.10163753 -0.0093776975 0.004449686 -0.09799947
0.0048815915 -0.050165366 0.028349591 0.070159785 -0.043515705 0.0477259 -0.07691078 0.07962774
0.045815382 -0.025234373 -0.028126415 0.07583813 0.041052245 -0.11449269 -0.029490473 0.07423023
0.09645939 -0.049804635 -0.008169532 -0.07752785 -0.02361523 -0.0095846355 0.17568366 -0.051827405
0.11402581 -0.046370845 0.22639649 -0.073290214 0.05483412 0.014430081 0.07249175 0.0054565025
0.0061026583 0.078704484 -0.11405001 0.017233238 0.03440538 0.09793042 0.11825569 0.020378346
-0.06802596 -0.08894695 -0.055039596 0.20996678 -0.06285519 0.17144486 0.010280596 0.12310988
0.066943154 -0.09726455 0.118468635 0.13303134 0.16882108 -0.06224066 -0.07722449 -0.028027598
0.20413893 0.0859495 0.03298945 -0.004070439 -0.04025117 -0.032527875 0.028415643 0.07895316
0.11596296 -0.08353873 -0.041212503 -0.068349525 0.022072738 0.012114337 -0.035364497 0.034367822
0.028118664 -0.021325786 -0.055205915 0.068770535 -0.07407147 -0.09371927 0.05650006 0.063654035
0.013273998 0.0247736 -0.025770215 -0.04370295 -0.055627678 -0.09562001 -0.09264356 0.024698228
-0.014979222 0.039680865 0.0009982506 -0.026119724 0.07214623 0.04491121 -0.07593536 -0.015804507
0.0029731703 -0.09141503 0.040254775 -0.068820424 0.06934978 -0.0153333265 -0.002413978 -0.0524002
0.03899397 0.037913322 0.12805994 0.07131558 -0.020848135 0.06618541 0.055139925 0.04310366
-0.09008158 -0.051858973 -0.09038271 -0.013475554 0.046944734 -0.053798452 -0.041064207 0.008358495
0.08700669 -0.05115735 -0.012067582 0.069190435 0.018048685 -0.069374055 -0.06448214 -0.0032550965
-0.09973124 -0.023738006 -0.090774804 -0.09528752 0.01932245 -0.017010406 0.018261578 -0.0044085025
-0.051737115 0.0010573728 -0.09235804 -0.015022235 -0.08471829 0.053060964 0.06233985 0.037645254
0.037441913 -0.06427356 0.066758975 -0.021671753 0.07443285 -0.08819624 -0.07326036 0.06997977
0.056084357 -0.0735838 -0.0051693767 0.069656946 0.06978083 -0.042934787 -0.07234734 -0.012066092
-0.099215634 -0.071492076 0.0630913 -0.048519492 -0.05585863 -0.060925573 0.0031019475 -0.09931566
0.12282979 0.121208005 -0.13351126 0.09292052 0.009648126 0.13520226 0.15303437 -0.07199437
0.10451697 -0.057207607 -0.124586955 0.09793042 -0.078632735 -0.109064266 -0.025749005 -0.12107481
0.00821721 -0.03348695 -0.016865922 0.093675986 -0.10014993 0.005713004 -0.103846006 0.10046982
0.032506254 0.004840654 0.08334199 0.042628307 0.04521228 0.036024664 0.0109642865 -0.11712259
-0.15283294 0.14646414 -0.031589676 -0.06486241 0.15395872 -0.13412641 -0.10153334 -0.061708663
-0.006850481 -0.017918779 0.04556864 -0.035876732 -0.027460195 0.09849875 0.092820615 -0.15947215

hidden2.0.bias f4 [100]
00000000: ab1a fe3c 75f0 16bc 36cf 283c 25c5 ccbc
00000010: ebb0 80b7 a5eb 0a3c 2691 2cb9 b113 503d
00000020: 1f73 fe3a fe94 323a 7ab3 ad3b 6770 c7b8
00000030: 4dc4 063c 9a28 91bd 1698 81bd b1ff b2bd
00000040: 7c89 91bc 965e 5c3b 54f3 66bd 3356 773d
00000050: 2fac 1c3c 0470 55bd d0b4 243d 5f7d e33a
00000060: f401 c1ba 5a56 bc3c fd9e 31ba e116 823a
00000070: 4844 913c 2328 d338 7a07 423d 236e ad3c
00000080: c426 143d 3183 1a3c f2ea 4e3d a07a f43c
00000090: dffe d0bc 66cf 913d 1e23 3a3d 0508 2a3c
000000a0: 2953 18bd e35e a3bc 3192 e83c 50b4 61bd
000000b0: 71a5 363d 68b1 063a 1204 3bbd 3ef2 753b
000000c0: 4255 a13b 573a 0f3a b167 29bd b051 24bc
000000d0: 7a06 71bd b655 7e3d fb6d 533d 39da b33c
000000e0: 527f 0d3d ab15 24bd 6bfb 11bd 7b9d 0bbd
000000f0: 7cbb 05bd 05ca daba 412d a53d c831 963c
00000100: ba47 6f3d cf18 9d3b 6b67 c13c 5f0b 5ebd
00000110: 0d11 3e3b f64e 4b3c ef70 bcbd f8e8 4fbb
00000120: 245c 373c 1deb df38 d043 6abd efad 343d
00000130: a627 2c3d 3621 893c 1aec 5c3d 1902 6e3c
00000140: bd9b 5ebd cf73 933c 2e94 fa3c 8a05 80bd
00000150: 0d8b 023d 4e94 8d3c 1c3b 5bbd f10b 0cbd
00000160: 8280 a2bd 4c09 b53a c552 02bd 1ed9 a7bd
00000170: 8494 b739 628a 093d 8e2f c2bc 2482 07bd
00000180: b056 f03c 87f2 86bb 2f9c f13a d1bf 283c
0.031018576 -0.009212603 0.010303309 -0.02499635 -1.5341173e-05 0.008479034 -0.0001645727 0.05080003
0.0019412971 0.00068123627 0.0053009363 -9.509996e-05 0.008225513 -0.07087822 -0.06327836 -0.087401755
-0.017765753 0.0033625714 -0.0563844 0.06038494 0.009562536 -0.05210878 0.0402115 0.0017356089
-0.0014725314 0.022990394 -0.0006775705 0.0009925031 0.017732754 0.0001006874 0.04737041 0.021170681
0.036169782 0.0094306925 0.05051703 0.029843628 -0.025512157 0.07119636 0.045443647 0.010377889
-0.037188683 -0.019942706 0.028390022 -0.0551036 0.04459137 0.000513813 -0.04565818 0.003752842
0.0049234936 0.00054637104 -0.041358653 -0.010029241 -0.058844067 0.06209346 0.051618557 0.021954643
0.03454525 -0.040059727 -0.03564016 -0.034085732 -0.032649502 -0.0016692287 0.08065272 0.018334284
0.058418013 0.004794217 0.023608884 -0.054210063 0.0029001862 0.0124089625 -0.09201228 -0.0031724554
0.011191402 0.00010677262 -0.057193577 0.04411119 0.04203 0.016739469 0.0539361 0.014526867
-0.054347742 0.017999558 0.030588236 -0.062510565 0.03187089 0.017282631 -0.053523168 -0.034191076
-0.07934667 0.0013811975 -0.031817216 -0.08195709 0.00035015133 0.033579238 -0.023704316 -0.033083096
0.02933821 -0.004118267 0.0018433387 0.010299639

hidden3.0.weight f4 [100, 100]
00000000: 984b 1cbd ba90 a03c f3c1 a53d 3d2f 0e3e
00000010: 50c0 33be 6dd2 0d3d f98c 22bd 412a 243d
00000020: 369e 14be 6782 0ebd 9b08 d3bd dadc 7dbd
00000030: a59e 8c3d d6d1 99bc e0b4 84bd 7f52 cabc
00000040: 192f 5dba 7f99 99bd 692d 46bd 4c56 e33b
00000050: 1567 9fbc 3a2e 26bd 67ff 3c3e 6fbf c9bd
00000060: b2ca 733d 34ea 513d 6f5d 62bd 0ee3 fbbd
00000070: 5caa f2bd b350 7ebd a920 683d b60b a1bd
00000080: 3577 85b9 9e50 9a3c d4c3 a1bd af5c d1bd
00000090: f35f c63d 4541 823c 7bfc 9d3d c5d1 a2bd
000000a0: f705 e1bd 4942 fd3d 2aa0 a6bc 2eef e0bb
000000b0: 9a98 d33d a713 33be 667f 343d 1c40 1c3d
000000c0: 8f26 eebd 7278 abbc 9d5b 1d3d c5ad 6abd
000000d0: 6e7d 41bd f6ce 60bd f98f 84bd 4a85 79bc
000000e0: d16a 0b3e 7fd2 293e 917f e03d 8e75 31bd
000000f0: 62f1 c23d 2368 dbbc 9cef c13c 9446 4c3e
00000100: 5c0e 79bd 97bf d2bb f353 2e3d 3cd1 aebd
00000110: b952 9c3d 82de 70bd 0d20 393d 3b97 d2bc
00000120: 11d5 74bc f06a 363d 84f2 41bd 6dd2 253d
00000130: bd17 593c 8014 b13d 4f96 c33c 65f8 f9bd
00000140: 18a4 813d c2c6 08be 1922 a23d 8eea 803b
00000150: 180c db3d f78c bf3d b261 3abd f911 bc3d
00000160: eb8d 93bc 66d8 713b cefb 9f3d 4f67 dcbd
00000170: 8da0 eabd 7940 023e cd04 5b3d 7c71 b53d
00000180: fc6f 8a3d a4e7 9c3d 5c07 24be 9e35 32bd
00000190: 5c52 fb3d a905 353c 67ac d4bd 6b49 69bd
000001a0: 513d f9ba 3543 48bd d685 83bd 901b 41bd
000001b0: d26d 8ebd 6a79 bb3c 4e63 193c f201 bd3d
000001c0: 1653 ed3c 51b5 aabd 5641 213d 9be8 b03d
000001d0: 99f2 8bbd 06de bd3d 0356 c7bd 29c7 f5bc
000001e0: 8df4 02bc cb4a 80bd 5a62 53bd 70ee c73d
000001f0: 904d 7ebd 109f 983a 456e c13c f8dc b3bd
00000200: 071e c1bc 4363 74bd 746d f6bc b7e7 1a3d
00000210: dfce a6bd 6671 e93c ceba 033d d8df 90bd
00000220: 5b50 353d a2e5 b33d d711 13bd 5e73 8d3d
00000230: 7f7d b43d dbaa a9bd 9a09 edbc 61e5 91bd
00000240: 47c1 cbbd 56d9 993d 9b9b 6dbd 025c 0cbe
00000250: dcf7 3a3e 9f01 9fbd 48a5 7d3c c4ff 1dbd
00000260: 13b6 263e 1464 603c 4238 613a 9fe7 e73c
00000270: 21af 60bd dba3 6b3c 8bd1 4dbc b6a8 0e3e
00000280: d890 e8bd ea8c 0a3c 047d f53d 8e73 84bd
00000290: 1aea 88bc 093d 573d 52fb a1bb d886 7abb
000002a0: 5e6b a5bd c991 bdbd 16cf 6c3c b617 143d
000002b0: 8dc1 10be 3fca 67bd 9b9a a8bc 1b43 133d
000002c0: 8b5f bf3d 227d 353d a4d7 383b f379 5bbd
000002d0: 3068 713b 9c39 203e 2f60 88bd de62 ff3c
000002e0: 0906 863d 7d81 9abd 4e96 d2bc 865d 91bd
000002f0: fcfe f9bc 8e6b 86bc fdd1 e1bc 0fba 273e
00000300: 2119 f0bc 924d 6f3d 2a7e 723d be56 4a3a
00000310: 4f07 f4bb eab1 2b3d 9596 f53c 1ba2 0e3e
00000320: 844d 1ebd 3a48 98bd 921f 9b3d b53b c53d
00000330: fcca 7ebd c34a 453c bb1e 41bd 40fa a83c
00000340: dd66 aebd 1076 57bb 600d 6ebd 369a a03d
00000350: 2f92 a53d 156e 173d 4bae a0bd 4f47 86bb
00000360: 8906 113d 9c23 a5bd 8c70 483d 96ac aabd
00000370: d4d0 773c 2af7 4d3c d3c7 e7bc cc73 373c
00000380: 05b6 df3d 55ac 9d3c 9923 eabd cd90 b83a
00000390: 5ab9 9d3d edd8 debc 0b13 0b3e 5d17 f53d
000003a0: d451 d23d f4fd d6bd ea27 1fbd 15f6 033d
000003b0: 9b31 c03c 9e4d c9bc 839c 2a3d 1400 97bd
000003c0: 0936 83bd 4d13 303d 517e 13bd 6a47 b83d
000003d0: a0f0 bd3c 3bc2 243b d056 03be 8e8e 663d
000003e0: ddb7 0bbe 5913 7f3c 11c8 b13d 1a83 94bc
000003f0: df77 00bd 087a e13d faa1 023e c17d d5bc
-0.03815803 0.019600261 0.080936335 0.13885207 -0.1755383 0.034624506 -0.039685223 0.04007936
-0.14513478 -0.03479233 -0.10304376 -0.0619782 0.068661965 -0.018776815 -0.06479812 -0.02469754
-0.0008437499 -0.0749998 -0.04838315 0.0069377776 -0.019458333 -0.04057143 0.18456803 -0.09850966
0.059519477 0.051248744 -0.055264886 -0.122991666 -0.118489 -0.06208868 0.056671772 -0.07863562
-0.00025456553 0.01883727 -0.078986794 -0.10222756 0.096862696 0.015900264 0.077141725 -0.079501666
-0.10987466 0.123661585 -0.020340044 -0.00686445 0.10331841 -0.17487966 0.04406681 0.038147077
-0.11628448 -0.020931456 0.038417447 -0.057294626 -0.04723876 -0.054884873 -0.06472773 -0.0152295325
0.13614966 0.16584204 0.10961831 -0.043325 0.09518696 -0.026783055 0.023673825 0.19948798
-0.06080471 -0.0064315307 0.04256053 -0.08536002 0.076329656 -0.05880595 0.04519658 -0.025706878
-0.014943377 0.044535577 -0.04735042 0.04048388 0.013250289 0.08646488 0.023875384 -0.122055806
0.063301265 -0.1335707 0.0791666 0.003934211 0.10695666 0.09353059 -0.045503326 0.091831155
-0.018012008 0.0036902665 0.078117 -0.10761892 -0.11456404 0.12719907 0.053471375 0.08859536
0.067596406 0.076613694 -0.16018432 -0.043508165 0.12271568 0.011048713 -0.10384446 -0.056954782
-0.0019015466 -0.04889222 -0.064220116 -0.047145426 -0.0695454 0.022885043 0.009362055 0.09228887
0.028970283 -0.083353646 0.03936895 0.08638116 -0.06833381 0.09270863 -0.09733202 -0.030002194
-0.007992876 -0.062642656 -0.051607467 0.09762275 -0.062085688 0.0011644084 0.02361215 -0.08782381
-0.023573888 -0.059664976 -0.030081488 0.037818637 -0.08144926 0.028496455 0.032160573 -0.07073945
0.044266086 0.08784033 -0.035905685 0.0690677 0.08812999 -0.08284541 -0.028935242 -0.07123829
-0.09948974 0.07512157 -0.058009725 -0.13706973 0.18258613 -0.07763981 0.015481301 -0.038573995
0.16280393 0.0136957355 0.0008591452 0.028308688 -0.054854516 0.014382328 -0.012562166 0.13931546
-0.11355752 0.008456448 0.119867355 -0.06467353 -0.01671319 0.052548442 -0.00494329 -0.0038227346
-0.08077119 -0.09256322 0.01445367 0.036155425 -0.14136334 -0.05658936 -0.020581534 0.03595267
0.09344395 0.04430879 0.0028204704 -0.053583097 0.0036835782 0.15646976 -0.066589706 0.031175073
0.0654412 -0.07544229 -0.025706436 -0.07097916 -0.030517094 -0.016408708 -0.02756595 0.1637957
-0.029308857 0.058423586 0.05920235 0.0007718614 -0.0074471603 0.04191772 0.02997903 0.13929026
-0.038648143 -0.07435651 0.07574381 0.09630529 -0.0622053 0.01204175 -0.047148447 0.020627141
-0.08515713 -0.0032876767 -0.058118224 0.078419134 0.08084523 0.036970217 -0.07845744 -0.004097856
0.035406623 -0.080634326 0.048935458 -0.083336994 0.015125472 0.012571136 -0.028293526 0.011197042
0.10923389 0.019247213 -0.11432571 0.001408124 0.07701369 -0.027203048 0.13581483 0.11967347
0.10269514 -0.104976565 -0.038856424 0.032217104 0.023461154 -0.024573144 0.041653167 -0.07373062
-0.06406791 0.042987157 -0.036009137 0.08997996 0.023186028 0.0025140184 -0.12826085 0.056288294
-0.13644357 0.015568578 0.08680738 -0.01812892 -0.031364318 0.11009604 0.12757102 -0.02606094

hidden3.0.bias f4 [100]
00000000: 2fb0 c93d 849c 9a3d 568d b83d ca5a 893d
00000010: d0c7 923d aa27 193d 71ce c13c 6259 c1bd
00000020: 514d 133d f406 82bd 0a04 dc3d 2fa6 b2bd
00000030: 3433 03be 59c5 9b3d 732c 6d3b 1ce6 a43d
00000040: efdd f83d 834f 283d e968 c23d c3df 9d3d
00000050: 6f0c c13a d9a9 b23d 4f14 913d 1b30 bd3d
00000060: 63fc d1bc 7430 fd3d dc6a 8a3d 2b7b ba3c
00000070: 2521 f53d 60fd ae3d 6b9a 7d3d c9ff 9e3d
00000080: bd02 b63d 5edf 3a3d 2bb2 ed3d 0099 c73d
00000090: 0cd0 463d a8a7 cc3d e6dd 3e3d c857 423d
000000a0: 44f0 563d 13a6 043e a3ca f63d 2860 083e
000000b0: 994f a03d ed0d d83c 043b 013e eeef 823d
000000c0: 49d3 eb3d 02a5 163e 977e 033d 53f9 983d
000000d0: 180a a23d 5e61 923d 75ec 43bd dc0c 223d
000000e0: d293 c9bc 01ce 143d 2ec0 a93d 4e09 893d
000000f0: 0ef5 bd3d 4639 8b3d ce68 ac3d d239 e53c
00000100: b4db 273d 0074 8f3d 8e3c ad3d a55d b73d
00000110: f96a ca3d 140a acbd 3ba8 2c3d dfeb 49bd
00000120: 05c5 c53c 5c32 153d e163 8c3d af78 cb3d
00000130: a33f 9a3d eb27 033e c939 d03d e8b5 c73d
00000140: f17a ff3d 9f3e 503d a09d 523d 38bb 1f3d
00000150: e1a5 213d 95e4 403d 51d5 a33d 95cd 623d
00000160: 9177 3a3e 4109 dd3d a18c de3d 6e43 d73d
00000170: 31b3 823d 5942 a3bd c79b 7d3d 8ce3 ccbc
00000180: 49ff 9d3d d1a6 a23d b52a ccbd baeb 74bd
0.098480575 0.07549384 0.09011333 0.0670677 0.071670175 0.037391342 0.02365801 -0.094408765
0.035962407 -0.063489825 0.10742958 -0.08723103 -0.12812501 0.076060005 0.0036189824 0.080517024
0.121517055 0.041091453 0.09492666 0.07708695 0.0014728437 0.08723802 0.07083952 0.09237691
-0.025633043 0.12362757 0.06758663 0.02276381 0.119692124 0.08544421 0.061914843 0.07763631
0.08887241 0.045623176 0.116062485 0.09745979 0.048538253 0.099929154 0.046598338 0.047446996
0.05247523 0.12953977 0.12050369 0.1331793 0.07827682 0.026373828 0.12620169 0.06393419
0.11514909 0.14711383 0.032103147 0.0746943 0.079120815 0.071474776 -0.047832925 0.039563045
-0.024606619 0.036329273 0.082886085 0.06691228 0.09275256 0.067980334 0.084184274 0.027981672
0.04098101 0.07004547 0.084588155 0.08953408 0.09883685 -0.0840036 0.042152625 -0.04929721
0.024141798 0.03642498 0.06854988 0.09935128 0.07531669 0.12808196 0.10167272 0.09751493
0.12474621 0.05084097 0.051419854 0.038996905 0.039464835 0.047092993 0.07999671 0.05537184
0.18209673 0.10792781 0.108666666 0.10510908 0.06381834 -0.07971639 0.06191614 -0.025010847
0.077147074 0.07941974 -0.09969083 -0.05979512

output.0.weight f4 [10, 100]
00000000: aa4e 36be 478e 45be e56f 573e 057c fcbd
00000010: e0e4 323d 8f80 86bd 6b90 273d f62e c83e
00000020: 65f2 953d b078 503e b2ab 4fbe 3567 70bd
00000030: 89dc 9ebd 1776 1abd 845b f7bd 2e6a 833e
00000040: 8117 3b3d 659f a83c e8a4 7a3c 6b0a 22be
00000050: 0a33 363e f2d3 4abe 3e47 10be a11c 14be
00000060: 4bb6 d8bd 60a7 e53d 151b b8bd aa4b 183e
00000070: 8356 babd d7be 62be 52a1 11be bfa0 833d
00000080: d604 1abe 1819 513d 8f14 8fbd fc34 1bbd
00000090: 17ec 37be d314 10be 01dc b7bd f367 9fbd
000000a0: 59db 6abe ee8f 82be e66c febd 853f 33be
000000b0: 2cc6 4dbd 0f1a 753e f937 d4bd ccf2 00be
000000c0: 9af8 9d3d fa67 43be adab 01be a0c3 5b3d
000000d0: 1996 3bbe b8f0 a7bd c54c 413e 5b89 2bbe
000000e0: 5ce2 83bd 88fc ea3b b6c2 6f3e d00b 6f3d
000000f0: 5b25 cdbc 18f6 35be bf42 01bc 2678 a53b
00000100: 3670 0abe 181c 92bd 4823 b9bd a7c0 34be
00000110: 5240 49be a85b 2c3d bb9e 923e c19e b83e
00000120: 89f3 58bc 0723 03be 2c04 a43e 54f1 383d
00000130: 2356 b9bc c3f3 173e 9a2d 75be 77d8 613e
00000140: 0ec8 f2bd 339d f83d bd64 13be dae4 0c3e
00000150: 8ef2 5c3e 50b0 233e b573 5fbe 6d10 cfbd
00000160: 7248 86bd 230f c8bd 076c b83d d7c7 08be
00000170: c74a 20be 540d 07bc fdc5 adbd 723f 7e3e
00000180: ecc1 2f3e 7627 323e fd6b ad3e 2aa5 c2bd
00000190: 9a98 4bbd 6642 abbd 6c75 133c f990 66bd
000001a0: 8f84 093c c8a0 ccbd eaca 45bd 2066 2c39
000001b0: a8e3 cebd 6223 b5bd ea51 823d 55e5 283d
000001c0: 576b 6a3d 1873 5c3a d3a6 15bd 24f0 96bd
000001d0: 1666 d9bd d473 b9bd 7c26 073d 9a81 2d3c
000001e0: e867 9dbc 9ad2 8bbc 9c5a 073d ad92 ef3c
000001f0: c39d 6ab9 852c a43c fc11 a8bc c28d f13c
00000200: 4e30 07bd 2ad4 a1bd 4315 4b3d d419 8a3c
00000210: 502d 9bbc 06a5 a8bd 8145 b1bd ced8 113d
00000220: 606d e33a 2e81 97bc b2c4 533b a4dc 8fbc
00000230: b606 d2bd 03ee 233c d92b 273c 7d83 89bd
00000240: ebd1 79bd a94e bdbd efed 89bd 8612 23bd
00000250: 3d27 79bd 3d6e 6dbd 5c71 813d defb 32bd
00000260: ef65 d1bd b7e4 09bd 0fd8 63bd 7263 f33c
00000270: 2548 e63b 03e6 b43c c544 f7bc 1b7f c8bc
00000280: 468e 073d a1c5 b7bd 1155 d7bc 46b1 9ebb
00000290: 0bee 2a3d 450c 66bd 03cb c4bd ebc9 4b3d
000002a0: 85a8 afbc 7a16 233b b83f 823c c09a 94bd
000002b0: 3299 6ebd 6806 3d3b e974 313d 52d9 223b
000002c0: 55a7 40bc 6e81 cebd 79cc 0ebd 187b 2dbd
000002d0: 97ea 9f3d 19c1 a93a 0322 043c 6954 e2bc
000002e0: a634 3b3c 3cdc 42bd 4b31 73bd 36ae 92bc
000002f0: a6ea c93c db2c 76bc 30a8 aebd b4ed abbc
00000300: 24af 80bd 1b43 98bc 1a13 59bd 95bf 853d
00000310: ef47 1f3d 4389 2b3c 3756 083c ab3f 1f3d
00000320: bec1 163e 2b15 02be 748b 5bbe 1fd1 4fbe
00000330: eb3d bf3d 7e42 c3bd 8275 933e ae62 ddbd
00000340: 0bc7 b83d 688b 57be c9ae 0dbd 72a3 343d
00000350: 19d1 553d 6686 8abd 7bd9 a73e f2b3 88be
00000360: 095e 45be 88d1 963d 3c0a f9bd 514c 80bd
00000370: 5687 573c 6988 19be cc26 073e b611 023e
00000380: 131f 1fbe 462c 8abe e91d 133e e2b5 9d3d
00000390: 9875 92be 9220 5dbe 13ae b8bd 3a02 24be
000003a0: 6c4a 283e af55 a6bd 6218 413e 5983 d9bd
000003b0: af31 0b3e 1f32 35bd 9971 9e3e e7c0 6bbd
000003c0: 23cb 283e ef51 93bd 7933 9ebe 5eaa 7abe
000003d0: dd57 13be 82ef 1bbe 5b5c 46be 79f7 bcbd
000003e0: e046 1fbe 6b02 8fbe 03bc 6fbd 8148 233e
000003f0: 5589 553e 31f6 0d3e d832 76bd cdde 41bd
-0.17803445 -0.19292556 0.21038778 -0.12328342 0.043675303 -0.06567489 0.040909212 0.39098328
0.07321624 0.20358539 -0.2028034 -0.058692176 -0.077569075 -0.037710276 -0.12078002 0.25666946
0.045676712 0.020583818 0.015298106 -0.15824287 0.17792907 -0.19807413 -0.14089677 -0.14464046
-0.105816446 0.11213565 -0.089895405 0.14872614 -0.09098532 -0.22143112 -0.14221695 0.06427144
-0.15040907 0.051049322 -0.06986343 -0.037892327 -0.17961155 -0.14070444 -0.08977509 -0.077834986
-0.22935237 -0.25500435 -0.124231145 -0.175047 -0.05023782 0.23935722 -0.103622384 -0.1259262
0.077134326 -0.19082633 -0.12663145 0.05365336 -0.18318976 -0.0820021 0.18876942 -0.16751616
-0.06439659 0.0071712174 0.2341412 0.058360875 -0.025042227 -0.17769659 -0.007889449 0.005049723
-0.13519368 -0.07134265 -0.090399325 -0.17651616 -0.19653443 0.042079598 0.28636727 0.3605862
-0.013241657 -0.1280633 0.32034433 0.045152023 -0.022624081 0.14839081 -0.23943177 0.22055231
-0.11854564 0.12139358 -0.14393897 0.13759175 0.21576902 0.15985227 -0.21821482 -0.10110555
-0.065567866 -0.09768512 0.090049796 -0.13357483 -0.15653525 -0.008242924 -0.08485029 0.2482889
0.17163819 0.17397866 0.3387145 -0.09504159 -0.04970608 -0.08362274 0.0090001635 -0.0562906
0.008393421 -0.09991604 -0.048289217 0.00016441243 -0.10102016 -0.08844639 0.0636328 0.041234333
0.057231274 0.0008409484 -0.03653605 -0.07370022 -0.106151745 -0.090552956 0.032995686 0.010589981
-0.019214585 -0.017068196 0.033045396 0.029244745 -0.0002237475 0.02004076 -0.020516388 0.02948654
-0.03300505 -0.07901795 0.049580824 0.016858019 -0.018942505 -0.08234601 -0.08655835 0.03560715
0.0017351322 -0.018494215 0.0032313284 -0.017561264 -0.10255186 0.010005477 0.010203325 -0.067145325
-0.06099121 -0.09243519 -0.06734835 -0.039812587 -0.060828436 -0.05796646 0.0632045 -0.04369723
-0.102245204 -0.033665385 -0.05562597 0.029710505 0.0070276433 0.022082334 -0.030184159 -0.024474671
0.033094667 -0.089732416 -0.02628568 -0.00484291 0.04173092 -0.056164045 -0.09609034 0.04975311
-0.021442661 0.0024885223 0.015899524 -0.07256079 -0.058251567 0.002884293 0.043324385 0.0024848771
-0.011758645 -0.100832805 -0.03486297 -0.04235372 0.07808416 0.0012951224 0.00806475 -0.02762814
0.011426127 -0.047573313 -0.05937318 -0.017905336 0.024648022 -0.015025343 -0.08528173 -0.02098737
-0.062834054 -0.018586686 -0.052996732 0.06530682 0.03888696 0.010469737 0.0083213365 0.038879078
0.14722344 -0.12703387 -0.21439916 -0.20294617 0.09337982 -0.09534167 0.2880059 -0.10809837
0.090223394 -0.21049273 -0.034590516 0.044101186 0.052201364 -0.06763916 0.32783112 -0.26699787
-0.19274153 0.07364184 -0.12160155 -0.06264556 0.013154825 -0.14993443 0.13198394 0.12702069
-0.15539198 -0.26986903 0.14366879 0.07700707 -0.28605342 -0.21594456 -0.09017577 -0.16016474
0.1643464 -0.081218116 0.18856958 -0.10620756 0.13593172 -0.044237252 0.30946043 -0.057557013
0.1648374 -0.07193362 -0.30898646 -0.24479052 -0.14388986 -0.15228084 -0.19371168 -0.09226889
-0.1555438 -0.27931532 -0.05852891 0.15945627 0.2085317 0.13863446 -0.060107082 -0.04733162

output.0.bias f4 [10]
00000000: 4a15 7fbe 5258 45be bac5 bbbc f671 33be
00000010: b4e7 d7bc eb90 003f 55e9 11be b26a 753c
00000020: cacf 42be d6dc 203f
-0.24910465 -0.19271973 -0.022921432 -0.17523941 -0.026355602 0.5022113 -0.14249165 0.014979051
-0.19024578 0.6283697
