General/Code/Models/FCN-Nesterov-0.005-acc:86.14.pth (torch, 401615 bytes, 8 tensors)

hidden1.0.weight f4 [100, 784]
-0.005160928 0.01032513 0.0013808124 -0.016139394 -0.028773416 0.01100301 -0.0136805475 -0.035325937
-0.016478455 0.023344498 0.026933972 -0.010975046 0.02230152 0.017696133 0.0012637554 0.00089748186
0.001390487 0.033663493 -0.03132675 -0.02897884 -0.015667776 0.024132561 -0.017937925 -0.00941609
-0.0064743385 -0.019166028 -0.026537364 0.026635002 -0.015625937 0.026363105 0.029866759 0.010068946
0.023669843 -0.013871367 -0.019077713 0.032440674 -0.02657005 0.022448096 -0.024021704 -0.026854662
0.02777324 0.032740217 0.0025350805 0.02618767 0.026889697 -0.02459861 -0.03127442 -0.02292516
0.032337863 -0.016634801 0.008293007 0.017896283 0.0068428367 0.020310998 -0.025535934 -0.008685542
0.023137588 0.0332605 -0.019405035 -0.03083226 -0.011677829 0.0072722454 -0.017094051 -0.010112415
0.0075373063 0.0489652 -0.00016925919 0.047564577 0.033638105 0.023230541 0.054366093 0.04380568
0.076951645 0.009860814 -0.010452384 -0.014158491 0.024785277 0.03105051 0.001748494 0.008272593
-0.018045014 -0.031360205 -0.006309446 0.0050458238 0.030302722 -0.012426918 -0.02387709 -0.029175295
0.0078046774 -0.023968434 0.045476813 -0.011533546 0.04171192 0.06583618 0.06772266 0.062410653
0.10089856 0.055419937 0.049766995 0.08764115 0.13947392 0.08923392 0.10439453 0.03523758
0.0036941327 -0.037818465 0.009795909 0.017068876 0.0014757758 0.018532943 0.024645144 -0.014164077
-0.0037608854 -0.016974254 0.01603739 0.0034420928 0.026895123 0.013357142 -0.017985344 -0.012335408
0.016507752 0.04664615 0.06136412 0.05138612 0.070406005 0.018977797 0.047419492 0.10157232
0.08728109 0.084620506 0.0044913385 -0.019165386 -0.048421405 -0.08701808 -0.07529737 -0.041862126
-0.020441867 0.034934968 0.040493514 -0.01489954 0.00816156 0.006647948 -0.013459053 -0.028270414
-0.033573788 0.021950772 -0.038120892 -0.0020714444 0.035199128 0.0019414201 -0.0482819 -0.053206537
-0.025653157 -0.019523472 0.040407132 -0.032089557 -0.0098375995 0.101883076 -0.006339444 0.05166436
-0.0061969436 -0.057428103 -0.108461164 -0.07401023 0.006720336 0.0041101566 0.012565272 0.02223601
0.010150716 0.012935518 0.018591026 -0.041144125 -0.051094964 -0.051911335 -0.04944205 -0.035235524
-0.00061641197 -0.0042719594 -0.006402439 -0.02510567 0.00041339392 0.031691864 0.010059958 0.051849917
-0.022294875 0.0063432376 -0.051471896 -0.02592431 -0.06675676 0.04996289 -0.015114003 -0.0048545585
-0.023144308 -0.016080808 0.0059803575 -0.029995387 -0.0057948064 -0.011830742 -0.007122343 0.013661144
-0.0018059781 -0.048980195 -0.044415247 0.020608908 0.1008023 0.04982932 0.0272396 0.018829245
0.014569336 -0.0029498516 -0.11987712 0.05348233 0.006912363 -0.046145193 -0.01001288 -0.05579383
-0.08503313 0.006578773 0.0016414509 0.01634666 0.0040552285 -0.0070036757 -0.054436624 0.032617636
0.02786997 -0.0013707655 0.032797627 0.0054318467 -0.024259415 -0.02777794 -0.016917799 0.07993095
-0.00060881895 0.019836769 0.029286483 0.004758806 0.057880588 0.057086438 -0.045539495 -0.08505728
0.008360907 -0.04315473 -0.0757536 0.010963401 -0.034029756 0.021560444 0.04749204 -0.008151054
0.05568796 -0.022983892 -0.016282903 0.024127891 0.00012496859 0.0056761266 -0.025032395 -0.017736927
00000000: 001d a9bb bc2a 293c 60fc b43a c336 84bc
00000010: 3ab6 ebbc f845 343c 6024 60bc eeb1 10bd
00000020: d3fd 86bc f63c bf3c a2a4 dc3c aed0 33bc
00000030: adb1 b63c 7bf7 903c 98a4 a53a fd44 6b3a
00000040: 0041 b63a bbe2 093d 7a50 00bd 0865 edbc
00000050: b559 80bc a6b1 c53c 8ef2 92bc f245 1abc
00000060: b026 d4bb 1302 9dbc e364 d9bc a631 da3c
00000070: f701 80bc 70f7 d73c 22ab f43c 38f8 243c
00000080: 42e7 c13c bb44 63bc dd48 9cbc 83e0 043d
00000090: 6fa9 d9bc 12e5 b73c 2ac9 c4bc 4ffe dbbc
000000a0: b584 e33c 9b1a 063d 9823 263b 8687 d63c
000000b0: c847 dc3c 0683 c9bc 9b19 00bd 8ccd bbbc
000000c0: b574 043d b545 88bc 64df 073c 3a9b 923c
000000d0: e039 e03b 4063 a63c bc30 d1bc ce4d 0ebc
000000e0: 0a8b bd3c 293c 083d 4ff7 9ebc f093 fcbc
000000f0: 5d54 3fbc 044c ee3b d308 8cbc 8bae 25bc
00000100: 82fb f63b bc8f 483d 2b7b 31b9 13d3 423d
00000110: 1cc8 093d fa4d be3c fbae 5e3d 966d 333d
00000120: d398 9d3d 408f 213c 7a40 2bbc 04f9 67bc
00000130: 7e0a cb3c a45d fe3c b92d e53a c589 073c
00000140: 23d3 93bc 8f73 00bd 78bf cebb 7057 a53b
00000150: 6a3d f83c 469a 4bbc e399 c3bc 0701 efbc
00000160: 61be ff3b 7359 c4bc e545 3a3d 33f7 3cbc
00000170: 1eda 2a3d 1ed5 863d 2eb2 8a3d 50a2 7f3d
00000180: e7a3 ce3d 0400 633d 7ad8 4b3d 347d b33d
00000190: 40d2 0e3e 46c0 b63d cdcc d53d 4855 103d
000001a0: 4319 723b 89e7 1abd 057f 203c 07d4 8b3c
000001b0: d26e c13a 66d2 973c 9de4 c93c 7210 68bc
000001c0: 3079 76bb 970d 8bbc d860 833c bc94 613b
000001d0: 2953 dc3c ead7 5a3c 0056 93bc 731a 4abc
000001e0: 443b 873c 0910 3f3d f258 7b3d 417a 523d
000001f0: 0631 903d 5377 9b3c f13a 423d 2605 d03d
00000200: 6ec0 b23d 844d ad3d 142c 933b ba00 9dbc
00000210: 8655 46bd 8936 b2bd 8235 9abd 9f77 2bbd
00000220: b475 a7bc f817 0f3d 87dc 253d 331d 74bc
00000230: 10b8 053c 08d7 d93b 5c83 5cbc 5b97 e7bc
00000240: ab84 09bd 1bd2 b33c a724 1cbd 12c1 07bb
00000250: f62c 103d 4077 fe3a 3ec3 45bd 19ef 59bd
00000260: 9226 d2bc b0ef 9fbc f381 253d 5770 03bd
00000270: e22d 21bc 13a8 d03d 1cbb cfbb 029e 533d
00000280: bb0f cbbb bb39 6bbd e320 debd ad92 97bd
00000290: 4436 dc3b 7eae 863b 92de 4d3c 4b28 b63c
000002a0: 304f 263c 7fef 533c 354c 983c be86 28bd
000002b0: f448 51bd fba0 54bd bf83 4abd 2053 10bd
000002c0: b596 21ba cbfb 8bbb 8dcb d1bb 68aa cdbc
000002d0: cbbc d839 54cf 013d 86d2 243c 9460 543d
000002e0: bea3 b6bc efda cf3b 32d4 52bd 385f d4bc
000002f0: c5b7 88bd e3a5 4c3d b9a0 77bc fd12 9fbb
00000300: 2299 bdbc e6bb 83bc e0f6 c33b e3b8 f5bc
00000310: 5ce2 bdbb bad5 41bc 8b62 e9bb fed2 5f3c
00000320: 92b6 ecba 759f 48bd c3ec 35bd 03d4 a83c
00000330: 7071 ce3d d419 4c3d 9525 df3c ca3f 9a3c
00000340: 39b4 6e3c 4c52 41bb 2382 f5bd 4a10 5b3d
00000350: 1b81 e23b be02 3dbd 100d 24bc 1288 64bd
00000360: da25 aebd bf92 d73b f425 d73a 6ee9 853c
00000370: b9e1 843b 177f e5bb f0f8 5ebd 129a 053d
00000380: 904f e43c 42ab b3ba ce56 063d a2fd b13b
00000390: aebb c6bc 908e e3bc 3297 8abc d7b2 a33d
000003a0: 2699 1fba b880 a23c 35ea ef3c c2ef 9b3b
000003b0: 3214 6d3d 78d3 693d 9f87 3abd 8332 aebd
000003c0: 30fc 083c 04c3 30bd b424 9bbd d69f 333c
000003d0: c962 0bbd 879f b03c 0387 423d 008c 05bc
000003e0: 0f19 643d b748 bcbc b963 85bc dba7 c53c
000003f0: 000a 0339 cdfe b93b bd10 cdbc 084d 91bc

hidden1.0.bias f4 [100]
-0.5449102 -0.15584151 -0.04414546 -0.6025432 0.033784606 0.14000098 -0.073589906 0.19658792
-0.23354599 -0.07273252 -0.017259289 -0.32500643 -0.11847351 0.07912224 -0.5402656 0.14472538
-0.2797728 0.2726977 0.0849799 0.16532828 0.23128168 -0.40689635 -0.3259289 -0.2952595
0.33389816 -0.67059654 0.09015938 -0.23449336 -0.051541902 -0.10827417 -0.1976874 0.055062983
-0.17833918 -0.11852695 -0.34256834 0.17185849 0.17676435 -0.052811045 0.22919509 0.12895769
-0.30379882 -0.14779687 -0.10675718 0.24672824 -0.1006477 -0.12896432 -0.17504415 -0.10502211
0.031251084 -0.036994282 0.15675294 -0.25333804 -0.115346685 -0.38492143 -0.32477203 -0.35224387
-0.07737385 0.11668733 -0.24782756 -0.16047052 -0.25448018 -0.5189166 -0.13128595 -0.008432811
-0.24747187 0.05414592 -0.23719455 0.019486565 -0.18888357 0.0005089289 -0.2474092 0.12156971
0.01959003 0.008639493 0.37193018 0.018669149 -0.008357136 -0.30366617 -0.27362624 0.011066674
-0.20081466 -0.18632708 0.13220914 -0.11352337 -0.012426804 0.033420734 -0.07915031 -0.58442247
0.261147 0.055895247 0.15752387 0.0846126 -0.2353198 -0.23555209 0.26188037 -0.3785145
0.31162578 0.18621358 -0.18044186 -0.51056594
00000000: 3c7f 0bbf eb94 1fbe dfd1 34bd 4540 1abf
00000010: ba61 0a3d 6b5c 0f3e 4eb6 96bd 584e 493e
00000020: ae26 6fbe caf4 94bd 5a63 8dbc 3e67 a6be
00000030: 3da2 f2bd d70a a23d d94e 0abf e432 143e
00000040: 613e 8fbe 089f 8b3e f109 ae3d d14b 293e
00000050: 1bd5 6c3e b854 d0be 27e0 a6be 412c 97be
00000060: b3f4 aa3e 37ac 2bbf 7ba5 b83d 071f 70be
00000070: 9a1d 53bd d9be ddbd 916e 4abe b989 613d
00000080: 8c9e 36be 42be f2bd 1e65 afbe acfb 2f3e
00000090: b701 353e 6550 58bd 1eb2 6a3e 7c0d 043e
000000a0: 858b 9bbe 1058 17be 82a3 dabd 54a6 7c3e
000000b0: 6220 cebd 390f 04be c63e 33be d515 d7bd
000000c0: 2301 003d 5187 17bd d883 203e 86b5 81be
000000d0: e23a ecbd 6c14 c5be 8548 a6be 4f59 b4be
000000e0: 2e76 9ebd c4f9 ee3d 82c6 7dbe 6252 24be
000000f0: 3a4b 82be b8d7 04bf d36f 06be c629 0abc
00000100: 4469 7dbe 1dc8 5d3d 21e3 72be 4aa2 9f3c
00000110: b26a 41be a469 053a d658 7dbe 8af9 f83d
00000120: 457b a03c a98c 0d3c a26d be3e 0bf0 983c
00000130: 5eec 08bc 227a 9bbe bd18 8cbe ff50 353c
00000140: 5ca2 4dbe 87cc 3ebe d561 073e f17e e8bd
00000150: cb99 4bbc 2ee4 083d 8f19 a2bd b69c 15bf
00000160: 0fb5 853e 6af2 643d f04d 213e 5f49 ad3d
00000170: acf7 70be 9134 71be 2f15 863e a7cc c1be
00000180: 6a8d 9f3e c6ae 3e3e c0c5 38be 73b4 02bf

hidden2.0.weight f4 [100, 100]
0.03463652 0.030132055 -0.12069173 0.13227105 -0.119373605 -0.062337123 -0.10561868 -0.15816462
-0.13271579 -0.13730586 -0.17785765 0.02926705 -0.066472284 -0.16299844 0.012358622 -0.21829617
0.014940899 -0.16307724 -0.023154246 -0.062213246 -0.048229598 0.017370358 0.08203053 -0.14438125
-0.031385522 0.08261623 -0.22469215 -0.07322624 -0.17042385 -0.10869875 -0.12900773 -0.16866767
-0.08976301 -0.051037055 0.17345627 -0.15363355 -0.18351392 -0.26657772 -0.07652599 -0.21712516
-0.123439826 0.016277099 -0.21721254 0.030312324 0.09361585 -0.05154461 0.046245467 -0.18284495
-0.14379562 -0.11518936 -0.13043082 0.15720846 -0.1665343 -0.038466733 0.16889171 -0.13584097
-0.096172795 -0.06110463 -0.007138084 0.03426796 0.01738878 0.039482743 -0.05339648 -0.12623167
-0.12531327 -0.12955368 -0.008632999 -0.09751908 0.039131373 -0.19425565 -0.083102144 -0.0007553988
-0.16478017 -0.09309707 -0.05281322 -0.10666908 -0.18466847 0.0029375474 -0.016843544 -0.0013127177
-0.08255706 -0.07710567 0.123179555 0.04457761 -0.07541617 -0.063751645 -0.09133159 0.048113603
-0.089061014 -0.041920204 -0.1640648 -0.07254838 0.009659087 -0.07251786 -0.1499557 0.13841714
-0.16928089 0.08033517 -0.037799902 -0.16884877 -0.09109144 0.038244203 0.03828837 -0.08868586
-0.18255576 -0.11056993 0.052773792 -0.102197066 0.17416361 0.051380668 -0.14490935 -0.10953337
0.060541257 0.05777027 -0.031595636 -0.053820785 -0.08560421 0.028567864 -0.10075492 0.24664783
-0.043774374 0.05009426 -0.07226049 -0.17188998 -0.013247466 -0.06048972 -0.013799384 -0.013684292
0.036818746 0.0005036768 0.020347139 -0.11000764 -0.010286346 -0.0053732716 -0.06697184 -0.03331532
-0.14908123 -0.19262658 -0.031189842 0.024096841 -0.050816227 -0.17735653 0.01443469 0.21803503
0.17860843 0.029572444 0.05134406 0.05479118 0.07453289 -0.22150809 -0.00016232971 -0.024727574
0.04505674 0.014470709 0.067804076 -0.07191989 0.018689409 -0.06257723 -0.009064405 0.0075330427
-0.0119695775 -0.0071754875 0.03492536 0.02202175 0.066053234 0.0160399 -0.0070726685 0.0025968133
0.033061992 -0.21141729 -0.097824804 0.1274802 -0.15833294 0.054263696 0.04500315 0.109426565
-0.06886334 -0.08342732 -0.12144411 0.0258711 0.14644223 0.01743328 0.09805517 -0.17099425
0.19908112 -0.054504935 -0.019327842 -0.18515177 -0.06490757 -0.0033503172 -0.095069714 0.09314748
-0.1200138 6.545623e-05 0.101706654 -0.015182965 -0.06742542 0.2051983 0.1832854 -0.08229742
0.046385847 -0.00018296666 -0.1961132 0.15144895 0.030448599 0.1866497 -0.096915 0.2047717
-0.10261322 -0.116629 -0.0038753098 0.13376394 -0.015707849 -0.12606107 0.023447044 0.010539935
-0.16610637 -0.12582548 0.14201535 -0.11613906 0.06960597 0.024978084 -0.13774247 0.011407809
0.0012976116 0.07022319 -0.16836512 -0.15181991 -0.20064059 -0.009822748 -0.11256366 0.02931156
-0.16002032 -0.0971216 -0.10745888 0.026543267 -0.0027114789 -0.017402478 0.17135538 -0.056801002
0.06353375 0.02078615 -0.070784226 -0.12116443 0.0032494508 -0.036728088 0.09363581 -0.03127119
-0.21967691 0.0955097 -0.035791975 -0.15746443 -0.17378968 0.04294502 -0.11450629 -0.110290684
00000000: 06df 0d3d 80d7 f63c 3a2d f7bd 1072 073e
00000010: 267a f4bd 3655 7fbd 9b4e d8bd e8f5 21be
00000020: a6e6 07be e899 0cbe 5120 36be 74c1 ef3c
00000030: 9f22 88bd 10e9 26be d17b 4a3c 0889 5fbe
00000040: acca 743c b8fd 26be f9ad bdbc 51d3 7ebd
00000050: 668c 45bd 484c 8e3c 9fff a73d aed8 13be
00000060: 1b8e 00bd b332 a93d b315 66be a4f7 95bd
00000070: 9783 2ebe 739d debd 9a1a 04be 38b7 2cbe
00000080: abd5 b7bd 3b0c 51bd 859e 313e 1d52 1dbe
00000090: 13eb 3bbe e07c 88be a9b9 9cbd 0f56 5ebe
000000a0: 05ce fcbd 8d57 853c f76c 5ebe 8d51 f83c
000000b0: abb9 bf3d 7120 53bd e36b 3d3d b53b 3bbe
000000c0: 293f 13be 66e8 ebbd a88f 05be 41fb 203e
000000d0: f887 2abe 4b8f 1dbd f3f1 2c3e e519 0bbe
000000e0: 3ef6 c4bd d948 7abd 97e6 e9bb 8f5c 0c3d
000000f0: ea72 8e3c a8b8 213d 44b6 5abd e042 01be
00000100: 1f52 00be b8a9 04be 6c71 0dbc 15b8 c7bd
00000110: 3848 203d f4ea 46be 7531 aabd f505 46ba
00000120: 22bc 28be ada9 bebd ad52 58bd 5275 dabd
00000130: bb19 3dbe de83 403b 79fb 89bc 7f0f acba
00000140: ad13 a9bd 94e9 9dbd 9045 fc3d 0397 363d
00000150: cb73 9abd 3990 82bd 0f0c bbbd c512 453d
00000160: 9f65 b6bd 85b4 2bbd 9a00 28be 3f94 94bd
00000170: 2641 1e3c 3e84 94bd fd8d 19be 39bd 0d3e
00000180: f857 2dbe c486 a43d 12d4 1abd b1e6 2cbe
00000190: 268e babd f4a5 1c3d 44d4 1c3d efa0 b5bd
000001a0: e6ef 3abe 7d72 e2bd 5529 583d b24c d1bd
000001b0: f257 323e 8974 523d 1e63 14be 0853 e0bd
000001c0: 1cfa 773d 85a0 6c3d 6d6a 01bd 2f73 5cbd
000001d0: 4351 afbd 2707 ea3c 9858 cebd 4091 7c3e
000001e0: c24c 33bd a42f 4d3d 4ffd 93bd ed03 30be
000001f0: e60b 59bc 12c4 77bd d016 62bc 1534 60bc
00000200: 41cf 163d 2e09 043a 0baf a63c b04b e1bd
00000210: 1088 28bc 4512 b0bb 8828 89bd a575 08bd
00000220: c0a8 18be e73f 45be d781 ffbc bd66 c53c
00000230: ad24 50bd f39c 35be 7a7f 6c3c 9344 5f3e
00000240: 21e5 363e e941 f23c 264e 523d b76c 603d
00000250: b3a4 983d 04d3 62be 0d37 2ab9 7b91 cabc
00000260: 6b8d 383d 8d16 6d3c dddc 8a3d bc4a 93bd
00000270: 881a 993c 7e28 80bd df82 14bc bed7 f63b
00000280: 0c1c 44bc 5a20 ebbb e50d 0f3d f566 b43c
00000290: eb46 873d 1c66 833c d8c1 e7bb 4c2f 2a3b
000002a0: 036c 073d c67d 58be 5f58 c8bd 2b8a 023e
000002b0: 0822 22be 9c43 5e3d 3955 383d 091b e03d
000002c0: 3908 8dbd f1db aabd b1b7 f8bd a1ef d33c
000002d0: f4f4 153e 3dd0 8e3c 26d1 c83d 1e19 2fbe
000002e0: ecdb 4b3e 9140 5fbd 6c55 9ebc 6d98 3dbe
000002f0: 43ee 84bd ff90 5bbb e9b3 c2bd 1bc4 be3d
00000300: ccc9 f5bd 8c45 8938 944b d03d f9c1 78bc
00000310: 5716 8abd 811f 523e 2baf 3b3e 8d8b a8bd
00000320: 16ff 3d3d bdda 3fb9 e6d1 48be 6f15 1b3e
00000330: 576f f93c 1921 3f3e 5f7b c6bd acaf 513e
00000340: e126 d2bd 2fdb eebd e9f8 7dbb 6af9 083e
00000350: bfad 80bc 2716 01be 0414 c03c b1af 2c3c
00000360: ca17 2abe 65d8 00be 796c 113e 51da edbd
00000370: 938d 8e3d d79e cc3c 5d0c 0dbe d2e7 3a3c
00000380: 9f14 aa3a 2dd1 8f3d e867 2cbe ae76 1bbe
00000390: ba74 4dbe 97ef 20bc c787 e6bd cc1e f03c
000003a0: 5edc 23be b0e7 c6bd 6713 dcbd 4471 d93c
000003b0: 11b3 31bb a48f 8ebc c977 2f3e 2ba8 68bd
000003c0: fc1d 823d b747 aa3c 52f7 90bd 0f25 f8bd
000003d0: bdf4 543b 3170 16bd 22c4 bf3d 3816 00bd
000003e0: fcf2 60be 979a c33d 9b9a 12bd 5b3e 21be
000003f0: ecf5 31be 1ee7 2f3d 4682 eabd 15e0 e1bd

hidden2.0.bias f4 [100]
0.13648573 -0.020969002 0.039865643 0.03051852 0.12590094 -0.12726638 -0.067836754 0.04365104
-0.10666326 -0.14939629 -0.103498496 -0.122292906 -0.20449787 0.057755582 0.06999784 0.02728071
-0.056513216 0.029506478 -0.004858513 -0.02481127 -0.06864515 -0.124722816 -0.15200044 0.08348305
-0.14117742 0.0856328 0.017045962 -0.079336606 0.06384677 -0.10724678 0.015765434 0.013837507
0.040250514 0.059019346 0.00048502508 0.0506435 -0.1652756 -0.009181498 -0.007608367 0.06103812
-0.20351167 0.13349366 -0.008220494 -0.043595124 0.049111806 0.015407008 -0.017708154 -0.15482949
0.012632109 -0.12432079 0.012049142 -0.18654068 -0.22845072 0.045723807 -0.18023263 0.053373516
-0.038877297 -0.07700614 -0.15102415 -0.061629936 0.09253169 -0.16443138 0.082275316 0.06876277
0.058779266 0.009426503 -0.06882791 0.054541416 -0.11579147 0.009981619 -0.17640954 -0.15773572
0.0995951 0.05771836 0.06270989 0.06622898 -0.11436662 0.042389926 0.050462686 0.065808885
0.006750427 0.0808739 -0.270948 -0.19216098 0.017190387 -0.13033652 0.08329484 0.01955649
-0.13782364 0.07609517 0.04533944 0.09099179 -0.20307806 0.05708154 -0.040346906 0.0138340425
0.09909032 0.09386967 -0.23859885 0.13733865
00000000: eac2 0b3e 2fc7 abbc 284a 233d fa01 fa3c
00000010: 2dec 003e 1e52 02be ffed 8abd 6fcb 323d
00000020: 4472 dabd 57fb 18be 05f7 d3bd b474 fabd
00000030: e467 51be 1e91 6c3d 075b 8f3d cc7b df3c
00000040: 677a 67bd 92b7 f13c 2934 9fbb 0141 cbbc
00000050: d495 8cbd ad6e ffbd 01a6 1bbe 29f9 aa3d
00000060: d090 10be 4060 af3d f9a3 8b3c 3b7b a2bd
00000070: 18c2 823d 33a4 dbbd 8326 813c b6b6 623c
00000080: b9dd 243d 45be 713d f74a fe39 8f6f 4f3d
00000090: 023e 29be fe6d 16bc 9c4f f9bb 1c03 7a3d
000000a0: 5d65 50be 90b2 083e 40af 06bc cd90 32bd
000000b0: 7629 493d ad6d 7c3c b110 91bc 9f8b 1ebe
000000c0: e8f6 4e3c e69b febd c469 453c 8504 3fbe
000000d0: fcee 69be e348 3b3d e78e 38be 309e 5a3d
000000e0: cd3d 1fbd 65b5 9dbd 13a6 1abe ac6f 7cbd
000000f0: 4181 bd3d b360 28be f67f a83d 7fd3 8c3d
00000100: 87c2 703d 9f71 1a3c a6f5 8cbd d266 5f3d
00000110: 1424 edbd f289 233c b4a4 34be 7985 21be
00000120: 84f8 cb3d 166a 6c3d 0b6e 803d 0fa3 873d
00000130: 0c39 eabd 0fa1 2d3d f6b1 4e3d cfc6 863d
00000140: b032 dd3b 37a1 a53d b2b9 8abe d9c5 44be
00000150: dbd2 8c3c f076 05be 7c96 aa3d ef34 a03c
00000160: a421 0dbe c9d7 9b3d d9b5 393d e759 ba3d
00000170: b2f3 4fbe 55ce 693d cc42 25bd 2ea8 623c
00000180: deef ca3d be3e c03d 4253 74be 81a2 0c3e

hidden3.0.weight f4 [100, 100]
-0.044768248 -0.032046452 0.016751893 0.05433281 -0.056868635 -0.084230155 -0.01592725 0.09106811
-0.12159773 -0.15168007 0.096292846 -0.17033303 -0.088979684 0.04723889 0.10981513 -0.032317065
0.025263702 -0.20003025 -0.0152376555 0.13035913 -0.080460496 -0.09476804 -0.00038527162 0.10168951
-0.08470171 0.031215306 0.026356086 -0.12695053 0.23802115 0.019423729 0.08216822 -0.082691826
-0.09541113 0.0643482 0.0152570605 0.019279769 -0.08684684 -0.016037358 0.0011504033 -0.16895358
0.04099295 -0.037131857 0.0155711165 0.034254983 0.053145196 -0.037698667 0.0617035 -0.064598404
0.05139886 -0.090979666 -0.0063703163 -0.10825919 0.009436011 0.12550338 0.035297766 -0.18811348
-0.11438995 -0.11355617 -0.11931212 -0.010690991 -0.10778686 0.07816828 0.09704738 -0.005488187
-0.14706449 -0.15648252 -0.12846632 -0.047426652 -0.13765037 0.059172496 0.02080915 -0.15384877
0.033242136 0.20062439 -0.018698908 -0.12691768 0.010260445 0.0034228112 -0.07630938 -0.105261326
0.040557273 -0.08447112 0.06352271 -0.15487054 0.18615375 0.007336782 -0.051659044 -0.040346324
-0.063530184 0.14609978 0.03370483 0.0935936 -0.0059556384 -0.1175978 -0.055483855 0.030462028
0.1317224 0.033270206 -0.0965336 -0.044185538 -0.077665806 0.112791285 -0.18217671 0.025591435
-0.033502128 -0.14082272 -0.14254849 -0.16953231 -0.12463509 0.14247184 -0.16011444 -0.005104151
-0.12956221 -0.03374841 -0.008635033 0.05616626 -0.100115664 -0.02338198 -0.15422 -0.12053553
0.030898511 -0.0143336905 -0.022370126 -0.0037244712 0.0018086501 -0.037388403 0.115416825 0.06689544
0.050895076 -0.089672916 -0.12168178 -0.10607598 0.05764877 -0.08380965 0.096480325 0.04708223
0.084826544 -0.16233896 0.14312589 -0.02147261 0.032886814 -0.16416591 -0.018349387 -0.12922072
-0.034173355 0.049071204 0.07618095 0.038225897 0.087054566 -0.023602683 0.09515069 0.032863293
-0.02530318 0.018504681 -0.12618685 0.0034494416 -0.044775706 0.044595722 -0.10298093 -0.012230408
-0.12945591 -0.15283996 -0.034345772 0.09483225 -0.13858819 -0.10621483 -0.0014608752 0.019950237
-0.09286996 0.1802004 -0.009532853 -0.07733435 -0.042112757 0.044481188 0.04806706 -0.12406859
-0.16143805 -0.124557294 0.02019453 -0.091002636 0.13538918 -0.1837406 -0.10793228 -0.012943836
0.050098486 -0.19443709 0.05925731 -0.19916542 0.012129415 0.11295868 0.050717533 -0.05659797
0.16006957 -0.14531653 -0.08697996 0.1389194 0.07664068 0.053756937 0.13163875 -0.20515324
-0.06979599 0.05904314 -0.09734831 0.025813336 0.054080836 -0.037393898 -0.117978066 -0.07200749
-0.038984377 -0.009541845 -0.13149282 -0.12874079 0.0062336307 0.045954157 0.017294304 0.054953124
-0.12664644 -0.099444605 -0.08521729 -0.115476385 -0.14036563 -0.03163348 -0.107582286 0.0423211
-0.0274613 -0.051269338 -0.002012156 -0.09017616 0.14756311 -0.05152671 -0.047454808 -0.10342903
-0.047523137 0.0022732415 0.096819 0.095217355 -0.0701342 -0.14760207 0.009867648 -0.18444353
0.016219214 -0.08727416 0.0703059 -0.07005246 -0.06418858 0.06549345 0.062387012 0.038351245
0.0074105663 -0.050579485 -0.011541108 0.08591936 -0.018090442 0.11218905 -0.057209373 -0.17663574
00000000: e95e 37bd 2443 03bd 443b 893c 158c 5e3d
00000010: 16ef 68bd dc80 acbd dd79 82bc eb81 ba3d
00000020: 3b08 f9bd 0552 1bbe 2f35 c53d c86b 2ebe
00000030: fb3a b6bd 917d 413d c1e6 e03d e65e 04bd
00000040: d3f5 ce3c bbd4 4cbe 5ca7 79bc dd7c 053e
00000050: 79c8 a4bd bf15 c2bd 48fe c9b9 9742 d03d
00000060: 1778 adbd 3eb7 ff3c b8e8 d73c 52ff 01be
00000070: d1bb 733e 831e 9f3c d047 a83d 555a a9bd
00000080: e966 c3bd fdc8 833d c0f8 793c 9bf0 9d3c
00000090: c2dc b1bd c760 83bc 21c9 963a 2b02 2dbe
000000a0: 39e8 273d 9317 18bd ff1d 7f3c f44e 0c3d
000000b0: c7ae 593d eb69 1abd cfbc 7c3d 2b4c 84bd
000000c0: 9c87 523d 8c53 babd 16be d0bb ffb6 ddbd
000000d0: 8099 1a3c f583 003e 6494 103d d2a0 40be
000000e0: 4745 eabd 2390 e8bd ea59 f4bd 4429 2fbc
000000f0: 5bbf dcbd b116 a03d c7c0 c63d 40d6 b3bb
00000100: 1398 16be f43c 20be ad8c 03be 7342 42bd
00000110: 38f4 0cbe dc5e 723d f377 aa3c 888a 1dbe
00000120: e828 083d 7b70 4d3e 742e 99bc b5f6 01be
00000130: 6d1b 283c 3e51 603b 1848 9cbd 4093 d7bd
00000140: 621f 263d 32ff acbd 3218 823d 6296 1ebe
00000150: 179f 3e3e 6369 f03b 6f98 53bd 3042 25bd
00000160: 1d1c 82bd 2e9b 153e 130e 0a3d 00ae bf3d
00000170: 8427 c3bb 1ed7 f0bd 0a43 63bd 818b f93c
00000180: 3de2 063e 5746 083d 68b3 c5bd e5fb 34bd
00000190: 400f 9fbd 1eff e63d 888c 3abe 21a5 d13c
000001a0: 8739 09bd d533 10be 3bf8 11be e199 2dbe
000001b0: af40 ffbd 23e4 113e 0af5 23be b940 a7bb
000001c0: f5ab 04be c63b 0abd f479 0dbc 980e 663d
000001d0: 7109 cdbd 918b bfbc d9eb 1dbe 55db f6bd
000001e0: e01e fd3c dbd7 6abc 8e41 b7bc 4216 74bb
000001f0: 3a10 ed3a 9524 19bd a85f ec3d 7a00 893d
00000200: 5b77 503d 6fa6 b7bd 4c34 f9bd 5d3e d9bd
00000210: 1e21 6c3d 65a4 abbd 7a97 c53d 4cd9 403d
00000220: 8ab9 ad3d 2f3c 26be 988f 123e 54e7 afbc
00000230: 53b4 063d 1c1b 28be 7451 96bc 7052 04be
00000240: 5cf9 0bbd e3fe 483d c204 9c3d c292 1c3d
00000250: aa49 b23d 6a5a c1bc 5dde c23d a99b 063d
00000260: 9d48 cfbc 2197 973c 2037 01be 0710 623b
00000270: bb66 37bd 01aa 363d aae7 d2bd 0d62 48bc
00000280: 1790 04be 1482 1cbe 27ae 0cbd 6937 c23d
00000290: 10ea 0dbe 2987 d9bd d67a bfba ae6e a33c
000002a0: 9b32 bebd 7486 383e af2f 1cbc 7961 9ebd
000002b0: 6d7e 2cbd e831 363d f7e1 443d ac17 febd
000002c0: 0450 25be e517 ffbd 006f a53c 975f babd
000002d0: 76a3 0a3e 7f26 3cbe 990b ddbd 6212 54bc
000002e0: 1234 4d3d 841a 47be cbb7 723d 05f2 4bbe
000002f0: 74ba 463c e156 e73d 30bd 4f3d 46d3 67bd
00000300: 47e9 233e dbcd 14be 8d22 b2bd e340 0e3e
00000310: caf5 9c3d 3c30 5c3d 4fcc 063e b113 52be
00000320: 33f1 8ebd 38d7 713d 8d5e c7bd 7d76 d33c
00000330: de83 5d3d 582a 19bd 7c9e f1bd aa78 93bd
00000340: 15ae 1fbd 6655 1cbc 0ea6 06be a0d4 03be
00000350: 7c43 cc3b 6d3a 3c3d c9ac 8d3c 8716 613d
00000360: 9baf 01be 9da9 cbbd 6786 aebd e27e ecbd
00000370: 02bc 0fbe 1c92 01bd 1a54 dcbd e458 2d3d
00000380: 85f6 e0bc ccff 51bd 60de 03bb 47ae b8bd
00000390: c91a 173e ac0d 53bd f95f 42bd 99d2 d3bd
000003a0: 9fa7 42bd aafa 143b 0a49 c63d 5101 c33d
000003b0: 85a2 8fbd ff24 17be eaab 213c c4de 3cbe
000003c0: 28de 843c cbbc b2bd 8afc 8f3d aa77 8fbd
000003d0: 4d75 83bd 6e21 863d 8689 7f3d 3216 1d3d
000003e0: 56d4 f23b 6f2c 4fbd ea16 3dbc 7df6 af3d
000003f0: 6832 94bc 5fc3 e53d 6054 6abd 00e0 34be

hidden3.0.bias f4 [100]
0.12207513 0.16100079 0.1522317 0.06791091 0.11410739 0.18595907 0.16608544 0.15512864
0.026187127 0.13156138 0.08488972 0.13737999 0.12275405 0.16315138 0.17322513 0.1982898
0.10676247 0.1633206 0.023834562 0.13547644 0.015430045 0.23294969 0.020682838 0.12162205
0.09610263 0.13267113 0.12302409 0.2400987 0.07957982 0.033166558 0.1363239 0.15054683
0.19638962 0.04837332 0.123761475 0.15293801 0.2317269 0.19916855 0.13922082 0.03740496
0.11495164 0.058698297 0.11075986 0.14475332 0.10551967 0.092258506 0.16654539 0.11922499
-0.0010977103 0.15311262 0.11212405 0.11720985 0.038740356 0.10901466 0.15147763 0.11982612
0.098473646 0.10496122 0.012726029 0.18371132 0.14106336 0.044951882 0.039056372 0.16388683
0.18692686 0.26068816 0.10657697 0.1363397 0.041205034 0.08233178 0.22282813 0.08926403
0.0052976785 0.05596605 0.17152978 0.12142276 0.12404706 0.024119647 0.026369175 0.17611277
0.1414788 0.1438788 0.11642881 -0.026415946 0.03260385 0.1336665 0.11312337 0.017223122
0.14839232 0.08811239 0.13305141 0.11263437 0.09070515 0.011713917 0.18820952 0.09227976
0.16557293 0.13039929 0.12250525 -0.035385445
00000000: 8702 fa3d 64dd 243e a0e2 1b3e e014 8b3d
00000010: 23b1 e93d 0e6c 3e3e 4d12 2a3e 0bda 1e3e
00000020: 6386 d63c 07b8 063e a9da ad3d 57ad 0c3e
00000030: 7a66 fb3d 2811 273e ee61 313e 7b0c 4b3e
00000040: 48a6 da3d 843d 273e b340 c33c 56ba 0a3e
00000050: 4dce 7c3c 5d8a 6e3e 0e6f a93c fb14 f93d
00000060: 75d1 c43d f1da 073e 0ef4 fb3d 6fdc 753e
00000070: bffa a23d a8d9 073d 7e98 0b3e f328 1a3e
00000080: 5c1a 493e 1a23 463d a876 fd3d c89b 1c3e
00000090: d149 6d3e d7f2 4b3e e78f 0e3e f135 193d
000000a0: c46b eb3d a06d 703d 11d6 e23d 373a 143e
000000b0: b21a d83d 07f2 bc3d e08a 2a3e 3b2c f43d
000000c0: 0ce1 8fba 8ec9 1c3e 4ba1 e53d b80b f03d
000000d0: 35ae 1e3d 1443 df3d f41c 1b3e 6667 f53d
000000e0: 8dac c93d e8f5 d63d d680 503c d21e 3c3e
000000f0: ea72 103e 771f 383d 93f9 1f3d f3d1 273e
00000100: c169 3f3e eb78 853e 0745 da3d a29c 0b3e
00000110: 9cc6 283d 909d a83d 0f2d 643e 0fd0 b63d
00000120: 2698 ad3b a83c 653d 81a5 2f3e 7fac f83d
00000130: 630c fe3d 9196 c53c 2b04 d83c e856 343e
00000140: d2df 103e f754 133e 3a72 ee3d 4166 d8bc
00000150: 9d8b 053d dfdf 083e 3aad e73d 8117 8d3c
00000160: 28f4 173e 4574 b43d a13e 083e d9ac e63d
00000170: 9fc3 b93d bbeb 3f3c ffb9 403e 2cfd bc3d
00000180: f38b 293e 6487 053e 08e4 fa3d 54f0 10bd

output.0.weight f4 [10, 100]
0.10030513 -0.2952773 -0.19663212 -0.16042598 0.040063776 -0.35291398 -0.014391126 -0.39676058
0.058782134 0.18565953 0.041197047 -0.26291072 0.11447202 -0.39525798 0.08742612 0.13523397
0.15311135 -0.1951066 0.07034529 -0.29090774 0.042189833 -0.2689387 0.00027779015 0.09048189
-0.3058957 -0.2348647 0.06337924 -0.3955809 -0.2504448 -0.116493985 -0.25456542 -0.19033647
-0.28587595 -0.4230564 0.032235418 -0.1481826 -0.22321525 -0.1216803 0.08355368 -0.2776326
-0.26072046 -0.36924902 -0.24574839 -0.33043605 -0.032929685 0.09530851 -0.070618905 -0.14508083
0.0686175 -0.2501664 -0.33783567 0.019343663 0.089552864 -0.19717342 -0.072200924 -0.18678501
-0.43999103 0.12160219 0.082458414 0.14870217 0.07521954 -0.22269645 0.0532516 0.0928381
0.0892698 -0.23026302 0.051334873 0.10217853 0.05899276 0.027337154 -0.3702053 -0.32384002
0.06718081 -0.17420618 -0.26818523 -0.23531516 0.07744637 -0.21558905 -0.2572027 -0.30314922
-0.22721489 -0.2349788 -0.26514596 -0.1532862 -0.22942044 0.026816538 -0.21435739 0.041506264
-0.29363278 -0.25836292 0.12378151 0.14286205 -0.16092241 0.052555554 -0.23835407 -0.31229046
-0.25449094 -0.12670982 -0.3865494 0.089970194 -0.040693842 -0.05445029 0.03551042 -0.036735345
-0.06764261 -0.08411307 -0.017187735 0.030855069 0.010982598 0.032774054 0.02195764 0.023908706
-0.08781352 -0.08627898 0.027190898 -0.083716094 -0.10456654 -0.04160429 0.0010398118 -0.01877146
-0.08997367 -0.029241992 -0.08578857 -0.056285772 -0.062293917 -0.009696283 -0.01963948 0.025896454
-0.0001500412 -0.09157029 -0.079706654 0.061497662 -7.6239754e-05 -0.07159359 -0.031018581 0.060036417
0.018214822 0.009531134 -0.02617265 -0.008788342 -0.04138683 -0.03676812 -0.026302818 -0.09409529
0.05738318 0.025683008 -0.08567466 -0.071782045 -0.014064152 0.013441616 -0.0729601 -0.053811606
0.011906104 -0.06606587 0.0030601805 -0.030522378 -0.07184101 0.0031536885 -0.03558055 -0.035365626
-0.048002675 -0.08068441 -0.08604574 0.013751873 0.033740517 -0.009885869 -0.0055260365 -0.012337248
-0.023366481 0.006388533 -0.028194223 -0.06441066 -0.045462668 0.047206067 -0.093019344 0.012162621
-0.10753949 0.01858075 -0.010376336 -0.038060553 0.014530438 -0.0943405 -0.0671812 0.049335036
0.0005838115 -0.10326421 0.03281076 -0.067312896 -0.04689313 0.05986928 -0.085888654 0.04511787
-0.042204026 -0.007154175 -0.023572465 -0.080682226 -0.019138448 0.041324634 -0.068975694 -0.080848224
-0.21761248 -0.27388817 -0.19539878 -0.141499 0.028155383 0.05004671 -0.19800754 -0.4561537
-0.3431847 -0.1077488 0.040923405 -0.24531333 -0.23221274 -0.4259105 -0.4178229 -0.39965
-0.059195872 -0.34461293 0.03946022 -0.025029393 -0.30978748 -0.42909095 0.0078822505 -0.29203638
0.07515477 0.08469527 -0.40123945 -0.38167343 0.045763697 0.06261189 -0.3014502 -0.28377214
-0.19900097 0.022425266 -0.27270943 -0.26255465 -0.3054984 -0.35805485 0.053681545 0.04532168
0.028532607 -0.36434448 -0.37279975 -0.22780195 -0.08536704 -0.27104095 0.1279904 -0.3064199
0.051933028 -0.27320394 0.046271913 0.056250397 -0.3586912 0.068832956 0.02640486 -0.18026695
00000000: c76c cd3d 962e 97be ee59 49be b546 24be
00000010: ea19 243d 24b1 b4be c2c8 6bbc 3424 cbbe
00000020: 89c5 703d 881d 3e3e 3cbe 283d 3c9c 86be
00000030: 4e70 ea3d 415f cabe 770c b33d c67a 0a3e
00000040: 39c9 1c3e 06ca 47be 3111 903d dcf1 94be
00000050: 3fcf 2c3d 55b2 89be 5da4 9139 924e b93d
00000060: 5c9e 9cbe 5f80 70be facc 813d 9489 cabe
00000070: 4d3a 80be 6694 eebd 6656 82be 90e7 42be
00000080: 555e 92be d99a d8be 4909 043d 2ebd 17be
00000090: 8a92 64be 8533 f9bd 311e ab3d dc25 8ebe
000000a0: 277d 85be 350e bdbe 77a5 7bbe ea2e a9be
000000b0: 47e1 06bd 1c31 c33d a5a0 90bd 1290 14be
000000c0: 5587 8c3d cf15 80be ccf8 acbe 9a76 9e3c
000000d0: 7e67 b73d d4e7 49be 14de 93bd 9244 3fbe
000000e0: 8146 e1be 920a f93d f5df a83d 6245 183e
000000f0: b40c 9a3d 8a0a 64be 5a1e 5a3d e721 be3d
00000100: 16d3 b63d 12ca 6bbe 8444 523d fa42 d13d
00000110: 64a2 713d 2bf2 df3c 8d8b bdbe 5cce a5be
00000120: 1896 893d 1b63 32be 934f 89be 75f6 70be
00000130: 349c 9e3d 60c3 5cbe 13b0 83be 6036 9bbe
00000140: 05ab 68be 489e 70be 36c1 87be 0ff7 1cbe
00000150: 31ed 6abe 5bae db3c 8180 5bbe 7902 2a3d
00000160: 0957 96be 2548 84be 2981 fd3d 6e4a 123e
00000170: d8c8 24be 7e44 573d 1713 74be 89e4 9fbe
00000180: a34c 82be 38c0 01be cee9 c5be 4b42 b83d
00000190: 96ae 26bd 4407 5fbd 6073 113d cd77 16bd
000001a0: 3588 8abd 7943 acbd 4bcd 8cbc c5c3 fc3c
000001b0: 5bf0 333c 163e 063d 82e0 b33c 31dc c33c
000001c0: 93d7 b3bd 09b3 b0bd 72bf de3c 5873 abbd
000001d0: fb26 d6bd 4369 2abd 4b4a 883a 9bc6 99bc
000001e0: 1e44 b8bd e78c efbc ebb1 afbd e98b 66bd
000001f0: e827 7fbd 29dd 1ebc fae2 a0bc cd24 d43c
00000200: 6154 1db9 3489 bbbd 3e3d a3bd f9e4 7b3d
00000210: e8e2 9fb8 a99f 92bd ae1a febc bfe8 753d
00000220: 4037 953c 7928 1c3c 0668 d6bc fafc 0fbc
00000230: 3d85 29bd 2b9a 16bd 0279 d7bc 08b5 c0bd
00000240: a00a 6b3d 2c65 d23c 3276 afbd 7702 93bd
00000250: 546d 66bc 393a 5c3c 1b6c 95bd 8f69 5cbd
00000260: d211 433c 8b4d 87bd 4f8d 483b 110a fabc
00000270: 6121 93bd 1dae 4e3b e9bc 11bd 8cdb 10bd
00000280: 749e 44bd de3d a5bd c038 b0bd 894f 613c
00000290: 7f33 0a3d 57f8 21bc c113 b5bb 2b22 4abc
000002a0: 106b bfbc e656 d13b 92f7 e6bc bce9 83bd
000002b0: 1037 3abd 265b 413d ed80 bebd bb45 473c
000002c0: aa3d dcbd a836 983c 8201 2abc 62e5 1bbd
000002d0: 1311 6e3c 9835 c1bd 4c96 89bd 8913 4a3d
000002e0: ed0a 193a 307c d3bd 9364 063d 58db 89bd
000002f0: 0313 40bd 7d39 753d 64e6 afbd 84cd 383d
00000300: 21de 2cbd 926d eabb 0b1b c1bc b93c a5bd
00000310: 3cc8 9cbc 0544 293d 2143 8dbd c193 a5bd
00000320: ced5 5ebe 123b 8cbe 9e16 48be 1de5 10be
00000330: 1ea6 e63c c7fd 4c3d 7dc2 4abe fa8c e9be
00000340: e8b5 afbe 67ab dcbd 4d9f 273d 6b33 7bbe
00000350: 2dc9 6dbe f110 dabe e2ec d5be ed9e ccbe
00000360: 5f77 72bd 1b71 b0be 0aa1 213d 710a cdbc
00000370: 779c 9ebe cfb1 dbbe 8e24 013c cb85 95be
00000380: beea 993d b774 ad3d 426f cdbe b36a c3be
00000390: b772 3b3d aa3a 803d ae57 9abe 954a 91be
000003a0: e9c6 4bbe 31b5 b73c 92a0 8bbe 906d 86be
000003b0: 496a 9cbe f752 b7be 2ee1 5b3d 3aa3 393d
000003c0: 37bd e93c 5c8b babe 9cdf bebe ea44 69be
000003d0: ead4 aebd e1c5 8abe ea0f 033e 12e3 9cbe
000003e0: bab7 543d 63e1 8bbe 9e87 3d3d d166 663d
000003f0: 5fa6 b7be 4bf8 8c3d 014f d83c e697 38be

output.0.bias f4 [10]
0.76751906 -0.1589165 1.2022297 1.1553324 1.2092538 1.4009861 1.0958585 1.0252861
1.3572246 1.5119534
00000000: 217c 443f 02bb 22be aae2 993f efe1 933f
00000010: d4c8 9a3f 8353 b33f 1745 8c3f 933c 833f
00000020: 89b9 ad3f b087 c13f
