General/Code/Models/FCN_batchnorm2-SGD-lr-0.005-acc-96.54 epochs-150.pth (torch, 404606 bytes, 12 tensors)

hidden1.0.weight f4 [100, 784]
00000000: 4ef0 b63c c9f6 033d b87e a03b 5435 9dbb
00000010: 6efa 87bc 95d7 96bc 14fd acbb b8e4 643c
00000020: 94e5 1a3c 9c12 bf3c 4040 acbb 9e48 11bd
00000030: c374 d8bb ec55 da3c 7abe 42bc 6c95 fbbb
00000040: f04c 8d3c 306e 343b cedb 08bc 603a 0f3b
00000050: fab1 ff3c 8c8c af3c 60e2 31bb 4e03 00bd
00000060: 1ed2 a93c 3097 c5bb 2156 103d a02c dabc
00000070: a817 253c 46d4 ce3c c6a9 ff3c c609 df3c
00000080: 15bf c1bc f52e 113d d106 83bb 9233 dc3c
00000090: 9404 e73b 3ea7 8bbc c16e 74bb 1472 26bc
000000a0: 17ed b2bc 7ef7 28bc 5d1a e4bc d3ea a2bc
000000b0: bd41 01bc 3c23 7b3c 2a41 e5bc 080a 933b
000000c0: ba16 a73c 75e9 20ba 05d2 a4bc 0008 173c
000000d0: d450 5f3c 050b ebbc fca4 acbc dc8d aabb
000000e0: 3a43 fbbc 9cab 1d3c 54aa 1abc bf33 5bbb
000000f0: 26eb 0abc 761f 853c 43bf de3c 993f a7bc
00000100: a7d8 7c3c 3f75 6bbb f89d d63c 622b aa3c
00000110: fc21 b2b9 ea5b 49bd f8a2 3cbd 6c79 4e3c
00000120: 6e5a 68bc 1d6f 09bd 8fed 15bd d802 b4bc
00000130: c557 043d 1c55 13bc 86a2 ab3b db08 523c
00000140: d5ac b63c d98b 45bc 131a b0bc c083 09ba
00000150: 9243 ca3c 683c 07bd 5c44 b1bc 5dc9 4d3c
00000160: 2ef8 20bb baf5 f33c d622 d63c 59d8 24bc
00000170: 9ed6 11bd d14d febc d952 a6bc 2207 7d3b
00000180: f2bf 4cbd 889a 2abd 336f b4bc ff2e 70bc
00000190: fc94 373c a848 833c 22d5 d5bb 8c4e d83c
000001a0: 1dbb 6fbc 4e3c 483c cf24 52bb bb7e 0a3d
000001b0: e0bd 7f3c 1c16 e63c 8a63 11bc aeee 0fbc
000001c0: 43c3 09bd 2e30 38bc 8f4f 8bbc 68db 0ebd
000001d0: 0776 0b3b 28f2 e3bc a507 6abc 92e5 993c
000001e0: c24c 36bd 64d9 8cbc bf5f 4dbd 8331 febc
000001f0: d90e 88bd 058b 5abd cf30 a2bd 9c5c 42bd
00000200: f865 38bd 1775 8ebc 5c6d f9bc fc92 50bc
00000210: c9a2 cf3c 0dec 4bbc 17e5 083d 78d1 8f3c
00000220: 519a 153d 8c5f 56ba 1e89 0a3d 9510 c83c
00000230: 1013 353b 6b5b 083d f3a5 a43b 9c50 b9ba
00000240: c78d 44bc 04af 24bc 158f df3c 81b0 31bd
00000250: cf5d 0f3c c22f 9b3c 9cbe f9bc 29f3 76bd
00000260: 4fe5 8abd 9309 103c 062f 09bd ec69 0a3b
00000270: 8d4f 3cbc 3a31 19bd 07a1 23bd f80a 0ebc
00000280: aaa9 70bc e250 1e3d 6d6f 37bc 1ddc b03c
00000290: bc94 cbba a368 cebc c2ed 15bd acbf 233c
000002a0: 3c28 a0bc bf8c c0bc 15fb cd3c 29d4 043d
000002b0: ebdd 073c e4e6 acbc ab76 e13c a85e 23bd
000002c0: 7e7e 81bc d638 da3a 2e2e dbbc 8a87 f9bc
000002d0: 9e51 d03a b29d 973c c6ee 8f3d d177 393c
000002e0: e4b7 24bc 424c 0ebd 393b 1ebd a0b8 65bd
000002f0: ef0f 5abc 2124 fdbc f47a 1fbd 60ec a1bc
00000300: 657b 1abc 3428 d03c 1090 073d 0d44 07bd
00000310: 90a9 67bc 6af0 98bc 7627 793b 4823 aabc
00000320: b352 c03b 849f 22bc 965a 52bb e61a f93b
00000330: 3846 21bd 1353 01bc 80b5 aaba e24e 713c
00000340: 86da fdbb a5d9 9f3c ea93 3a3d 9499 473b
00000350: c0ae 92bb cd11 ec39 0ba5 c1bc 77b3 a7bd
00000360: f75d 953c cfd1 34bd 0e5b 3bbd b805 20bc
00000370: 5a8a 96bb 58f4 933c 0aa3 a0bc 9858 fa3c
00000380: 9cd3 78ba d0d2 05bc 7ee2 2dbc 79fa 0dbc
00000390: 0583 a6bc 046a 72bb a347 a43c 91b5 4abd
000003a0: fd46 29bc 3957 71bd 7944 0cbd 7646 8bbc
000003b0: 0737 87bc 33e1 68bc e63c 0d3d f83a 8e3b
000003c0: 0875 87bc cac8 ce3c 8d20 4abd 3934 e9bc
000003d0: 4852 cbbc 0035 debc 0fc4 60bd e3b0 1fbd
000003e0: 7295 11bd b15a a03b e90e b3ba f179 363c
000003f0: 2aa1 8bba 3236 f63c 1161 8dbc 8613 d7bc
0.022331383 0.032217775 0.0048979186 -0.004797617 -0.016598906 -0.018413344 -0.0052791927 0.013970546
0.00945415 0.023324303 -0.0052566826 -0.035469644 -0.006605716 0.026652299 -0.011886233 -0.0076777246
0.0172486 0.0027531497 -0.008353187 0.0021854863 0.031212796 0.021429323 -0.0027142987 -0.03125315
0.020730074 -0.006029986 0.03523839 -0.026632607 0.010076441 0.025247704 0.031208884 0.02722634
-0.023650685 0.035445172 -0.0039986153 0.02688006 0.0070501063 -0.01704752 -0.003729746 -0.010159034
-0.021841569 -0.010312913 -0.027844602 -0.019887364 -0.007889208 0.015328225 -0.027985174 0.00448728
0.020396579 -0.00061383034 -0.020119676 0.009218216 0.013630111 -0.028691778 -0.021074764 -0.0052048992
-0.030671705 0.009623434 -0.009440023 -0.003344759 -0.008478915 0.016250353 0.02719081 -0.020416068
0.015432513 -0.0035928038 0.026198372 0.02077264 -0.00033976126 -0.04915992 -0.046053857 0.012602191
-0.014181716 -0.03355323 -0.036603507 -0.021974012 0.032310266 -0.00899246 0.00523788 0.012819494
0.02229921 -0.012057268 -0.021496808 -0.00052457675 0.024690423 -0.033016592 -0.021639042 0.012560216
-0.002456199 0.029780257 0.026139658 -0.010061347 -0.035605066 -0.031042965 -0.020303177 0.0038608988
-0.04998774 -0.04165128 -0.02202568 -0.014659642 0.011204954 0.016025856 -0.0065256516 0.026404642
-0.014632014 0.012221409 -0.0032065397 0.033812266 0.015609235 0.028086714 -0.00887383 -0.008784933
-0.03363348 -0.011241956 -0.01700571 -0.03487721 0.0021280067 -0.02782543 -0.014284049 0.018786225
-0.044506796 -0.017193504 -0.05014014 -0.031029468 -0.06643457 -0.053355236 -0.07919466 -0.0474516
-0.04501912 -0.017389817 -0.030447654 -0.012730356 0.025346177 -0.012446416 0.033421602 0.017555937
0.03652412 -0.000817769 0.03382217 0.02442197 0.002762977 0.033290308 0.0050246655 -0.0014138403
-0.011996693 -0.010051493 0.027289907 -0.043381218 0.008750393 0.018943671 -0.030486397 -0.06029049
-0.067820184 0.008791345 -0.03349211 0.0021120263 -0.011493576 -0.03740046 -0.03994849 -0.008669607
-0.014688889 0.038651355 -0.011196 0.021589333 -0.0015531997 -0.025196379 -0.036603697 0.009994429
-0.019550435 -0.023504613 0.02514414 0.032428894 0.008292655 -0.021106191 0.027522406 -0.039885193
-0.015807386 0.0016649019 -0.026755419 -0.030460138 0.0015893464 0.018507812 0.07027964 0.01132007
-0.010053609 -0.034740694 -0.038630698 -0.056084275 -0.013309463 -0.030901017 -0.038935617 -0.019766033
-0.009428834 0.025409795 0.033096373 -0.033023883 -0.014139548 -0.018669326 0.0038017905 -0.020768777
0.0058692335 -0.009925727 -0.003209745 0.0076020835 -0.039373606 -0.007893342 -0.0013024062 0.01472828
-0.0077469973 0.01951296 0.045551218 0.003045653 -0.004476398 0.0004502669 -0.023638269 -0.08188527
0.018233282 -0.0441454 -0.045741133 -0.009766988 -0.0045941295 0.018060848 -0.019608993 0.030559823
-0.00094919815 -0.008167937 -0.010613082 -0.008665674 -0.020326147 -0.003698946 0.02005369 -0.04948956
-0.010331866 -0.058921073 -0.034244988 -0.017001372 -0.016505731 -0.014213848 0.034481905 0.0043405257
-0.016535297 0.025242228 -0.04934745 -0.028467285 -0.024819508 -0.027124882 -0.054874476 -0.03898705
-0.035542913 0.0048936238 -0.001366106 0.0111374715 -0.0010652889 0.03005514 -0.017258199 -0.026254427

hidden1.0.bias f4 [100]
00000000: 80f7 0a3c a5fa 8c3d 22aa c4bc 3018 31bc
00000010: 5ed3 35bc ecc9 f93e 561a 1fbc 6dbb 10bf
00000020: d7fc febe ed9f a33d 937a 04bd 1cdb 153b
00000030: e6da a23e 215e 3bbd 9b6d 083e 355f d73b
00000040: effb 083e dcd3 353e 4599 9dbe bc5e 00be
00000050: 6060 f23e 75a0 21be 65e6 be3e ac9f 14bf
00000060: f162 3bbb cd0b 48be 0b43 77bd c5be 2ebc
00000070: 7bb0 afbb cdf0 21be ece1 5ebe bb8c 55bf
00000080: 2878 853d 8dc1 0d3e 3a28 40bc 6c53 79be
00000090: aee2 2c3e 63af 8dbd de2b f4bc f42a 033f
000000a0: ecfe 013d d6af b3be 2fcd 18bd 15ae f1bd
000000b0: 4abd bfbe 9a0a 68be 7dae babe 12d7 edbc
000000c0: 336a 883e 394d be3e 85a0 3bbf ad1f 1cbe
000000d0: b9c8 9cbd 932f b6be 24d1 cfbd 8bc6 82be
000000e0: 4fe3 08be e98a 08be 2884 e5bc 7eb7 d6bd
000000f0: 0ca8 63be a9a3 05bf c191 cfbe cb9e 01be
00000100: c2e6 61be 4782 16be 6ec0 293e e5fb 703e
00000110: 3d21 dd3d 6aef 653c 5ac4 37bb e09a 26bb
00000120: 4efc 38be 01f9 4bbe 0b71 bcbc 58b0 b13c
00000130: 1d5c 1abd d6fe ee3d 8e98 5cbe feed c63d
00000140: 3db2 64bc da82 e5bd 7ac2 a2bc 806f 4dbe
00000150: bbc4 cc3d a4ef 54bf 00ea b5bd f5c6 8abe
00000160: 700e 9d3d 392e 98be 29c2 e6bd f798 15bd
00000170: 6a7f f6bc cf40 2abd a999 0abe 4896 033c
00000180: fc90 0ebe 05ae 55bc f120 1ebe c696 ddbb
0.00848186 0.06883744 -0.024006907 -0.010808989 -0.011097757 0.48786867 -0.009710869 -0.5653599
-0.49802276 0.07989488 -0.03234346 0.0022866195 0.3180763 -0.045744065 0.13323061 0.006572629
0.13377355 0.17756599 -0.30780998 -0.12536138 0.47339153 -0.15783866 0.37285152 -0.5805614
-0.002859291 -0.19535752 -0.06036667 -0.0106656 -0.0053616143 -0.15814514 -0.2176587 -0.8341786
0.065170586 0.13843365 -0.011728341 -0.24348229 0.16883346 -0.06918218 -0.029806074 0.51237416
0.031737253 -0.3509509 -0.037305053 -0.11800782 -0.37449104 -0.22660294 -0.3646125 -0.029033218
0.26643524 0.3716829 -0.7329181 -0.15246458 -0.07655472 -0.3558317 -0.10147312 -0.255421
-0.13367961 -0.1333424 -0.028017119 -0.10484217 -0.22232074 -0.5220285 -0.4054089 -0.12658231
-0.22060683 -0.14698134 0.16577312 0.2353359 0.10797355 0.014034132 -0.0028040619 -0.0025421903
-0.18064997 -0.19919206 -0.023003122 0.021690533 -0.037685502 0.116697 -0.2154257 0.09713362
-0.013958511 -0.112065986 -0.019868124 -0.20062065 0.09998461 -0.8317816 -0.088825226 -0.27104917
0.07668769 -0.29722765 -0.11267502 -0.03652283 -0.030090053 -0.041565713 -0.13535179 0.008031435
-0.13922495 -0.013041978 -0.15442254 -0.0067623584

hidden2.0.weight f4 [100, 100]
00000000: 983d bb3d a9e7 28be 3cdb c9bd 8497 293c
00000010: 9730 b4bd a41b 65be 314c c6bc 6488 a0bb
00000020: c911 2abd 4195 c7bd 8112 4bbd 57e8 a63d
00000030: d462 3ebe 9ecd bb3d 5be4 983c 6b33 883c
00000040: 625c 60be 377c 28be f0c6 ad3c df28 d9bb
00000050: 571a fbbd 1caa c7bd a441 b8bd ba21 35bd
00000060: 7147 1c3d 7d60 a4bc e7bb df3b 8386 b2bd
00000070: 40e4 03be 161d efbc a8e4 0fbc 9860 5dbd
00000080: e698 44bd 147d 95bd 35f1 f9bd 00c2 e539
00000090: b8bb 29be c98e 9a3c 0b4b c33d a3ae 44be
000000a0: d8a9 a6bd 2fd9 08bd 04f4 1dbe 883d e33d
000000b0: 111a 27bd ef4a 52bd 91ba 3fbd 2b84 813b
000000c0: 71d7 453d 20ba 58be ebb1 ebbd 015f 03bc
000000d0: 2480 edbd 5004 d03c 58b6 3cbc ce70 42be
000000e0: 5acb febc 0c65 3bbe 00e6 fd3d 6a16 073e
000000f0: f1fd 2bbe 1fbc 95bb f3bc 02be 8a06 e93c
00000100: 0648 29be 39c7 343d 4820 b33c 00e9 22be
00000110: 4a1d 32be 572a b33c de60 0bbb 6169 7c3d
00000120: cbcf dd3d 6c18 933c 8075 f9bc b472 913c
00000130: 671b 84be 7470 ecbd bee7 47be 5729 ca3c
00000140: a684 16bc c50d 6ebe c199 22be dafb 54be
00000150: 0495 0a3d 120e 39bc 554e 203d 0836 04bd
00000160: 549f a33d 1c17 46bd 2c8e 43be 0373 283d
00000170: 9ab2 91bd 648c b8bd ae7f 21be e5ac 0b3d
00000180: 5712 d73d 2775 c43b d1c0 22bc 1af9 c43c
00000190: b85e 65bd 24c1 943c d541 bdbd cd9d 1c3d
000001a0: 2737 ff3c 683e 6a3d 1ace a23d 1c68 b9bc
000001b0: ee96 97bd 13fd 84bd 1e51 373d 1888 1bbd
000001c0: 3126 f0bd 9518 e3bc 0588 acbd fdc9 88bd
000001d0: e78e e5bd 745b a43c 9264 54bd 4896 e8bc
000001e0: 37dc 283e 69e2 05bc 7698 a13d f86a 3f3e
000001f0: 920d 4cbb ed70 0bbd 2b4a 97bd a6d8 dbbc
00000200: 6dc4 e13c e9d8 283c 483d 8d3c e4b3 9fbd
00000210: 8be7 913d 7b55 f83d 0353 f3bb be7f 6ebd
00000220: a071 81bb bb95 d8bc cfb9 d8bc b071 b63d
00000230: 706a 86bd f208 a9bd 9427 14bd cde1 6b3d
00000240: ea4d 6dbd 0277 cf3c e29c 313e 212d 803d
00000250: 7842 87bd 4114 503d 69ef 20bc 9bee dbbc
00000260: 61b6 5abd 4fc5 d2bc e5df dbbd 3328 c6bd
00000270: 0429 ccbc aa0a 98bd 182e e1bc 71ca b1ba
00000280: 1911 66bd e3d4 adb9 1c64 653e 3948 81bd
00000290: f910 87bc 3f06 c23a d8c6 de38 a5b2 913d
000002a0: dac0 26bd e35c 21bd 3fd1 63bd 4548 72bd
000002b0: 9571 23bd c9d2 9cbd 728e c5bd 940b e53d
000002c0: d5ba c73d 4db1 793d c919 9ebd ff42 033e
000002d0: 853f c2bd 3154 ebbc 6c66 99bc 5896 a9bd
000002e0: 51ba d5bd 743f acbc 57bc 6abd 87a3 ebbd
000002f0: c3b3 71bd 1d46 833e 73ed 163d 7f77 453d
00000300: 9c99 453b d2f7 28bd 44e3 5b3d bb9c c0bd
00000310: 8627 92bd 5927 91bd 0ac8 7fbd 0625 60bd
00000320: 7b50 adbd b8d0 b53d f01b 6e3d 8bcf c4bb
00000330: 0f3d 5d3b 7085 b3bd a71a 6a3d a901 e8bd
00000340: 8987 84bd 4797 313d 8cc1 5ebc d2f3 b5bc
00000350: b333 b3bc 49f1 ba3d 5eeb 0dbe 8ed9 683d
00000360: 014b bf3c 3700 a5bc f69c 5a3d 94f0 8f3d
00000370: 235f 0dbe 3b53 983d 86b6 eabd 32d9 1bbe
00000380: 6f73 31be 9bba 193e f7ae 1d3e 25b0 0d3d
00000390: dc0d c3bd d694 923d 26d0 893d ecae 263d
000003a0: 7909 90ba a583 aebd c449 5d3d e9bd f7bb
000003b0: 5ce9 063d fc03 1fbe 6e7e 623d f35b 29be
000003c0: 4ae3 653c f2b0 0ebd d2f8 98bd e8ea 5fbd
000003d0: 417f fcbd b030 46bd cc34 05be 9aa2 833d
000003e0: 54a2 14be e9e7 10be 879e 003d 7d00 db3d
000003f0: de17 f93c bfed 19be befe 173e 7ac0 8abc
0.091426075 -0.16494621 -0.09856269 0.010351066 -0.0879833 -0.22373825 -0.024206253 -0.0048990715
-0.041520867 -0.09745265 -0.049578194 0.08149784 -0.18592387 0.09170078 0.018663576 0.01662608
-0.21910241 -0.16453634 0.021213025 -0.0066271867 -0.12260883 -0.09749243 -0.08996895 -0.044221617
0.03815407 -0.02006554 0.0068278196 -0.08717062 -0.12880039 -0.029188674 -0.008782543 -0.054047197
-0.047997378 -0.072992474 -0.1220421 0.00043822825 -0.16575515 0.018866913 0.09535798 -0.19207244
-0.08137864 -0.033410247 -0.15425116 0.110957205 -0.040796343 -0.051340993 -0.046808783 0.003952523
0.048301164 -0.21164751 -0.115085445 -0.008018256 -0.115967065 0.025392681 -0.0115180835 -0.18988344
-0.031102825 -0.18300265 0.12397385 0.13192144 -0.1679609 -0.004569545 -0.12767391 0.0284455
-0.16531381 0.044135306 0.021865979 -0.15909195 -0.17393985 0.021870775 -0.0021267454 0.061623935
0.10830649 0.017955981 -0.030451536 0.01775489 -0.25802156 -0.11544886 -0.19521996 0.024677915
-0.009186899 -0.2324744 -0.15878965 -0.20799199 0.03383352 -0.0112948585 0.039137203 -0.03227809
0.07989374 -0.048361883 -0.19097203 0.04112531 -0.07114144 -0.090111524 -0.15771362 0.034100432
0.10501545 0.005995411 -0.009933666 0.024044562 -0.055998534 0.018158503 -0.09241072 0.038236428
0.031154228 0.05718842 0.07949467 -0.022632651 -0.074018344 -0.064935826 0.044755094 -0.037971586
-0.117260344 -0.027721683 -0.08424381 -0.06679151 -0.11208897 0.02006314 -0.051853724 -0.028391972
0.16490255 -0.008171656 0.07890408 0.18693149 -0.0031136018 -0.03404324 -0.07387193 -0.026836704
0.027559483 0.010305622 0.017241135 -0.07797983 0.071242414 0.12125679 -0.0074256673 -0.058227293
-0.0039503127 -0.026438585 -0.026455788 0.08908403 -0.0656327 -0.08253659 -0.036170557 0.057588387
-0.057935633 0.025325302 0.17345002 0.06258608 -0.06604475 0.050800566 -0.009822705 -0.026847174
-0.053396586 -0.02572885 -0.10736064 -0.09675636 -0.024921902 -0.07423909 -0.0274878 -0.001356436
-0.05616865 -0.00033155744 0.2240147 -0.063126035 -0.016487585 0.0014802887 0.000106228224 0.07114152
-0.04071126 -0.039395224 -0.055619475 -0.059150953 -0.039903242 -0.076573916 -0.0964631 0.11183849
0.09752432 0.060960103 -0.07719762 0.12818526 -0.09484772 -0.028726669 -0.018725596 -0.08280629
-0.10435928 -0.02102635 -0.05730852 -0.115058 -0.059009325 0.2563943 0.036847543 0.048209663
0.0030151373 -0.041251965 0.053683534 -0.09404894 -0.07136445 -0.07087583 -0.06244663 -0.05472281
-0.08462616 0.088777006 0.058132112 -0.0060061864 0.0033758318 -0.087656856 0.057154324 -0.11328442
-0.06471164 0.04335716 -0.01359595 -0.02221099 -0.021875238 0.09128053 -0.13859317 0.0568481
0.023351194 -0.020141704 0.053372346 0.070283085 -0.13805823 0.0743775 -0.11460595 -0.15219572
-0.1732919 0.1501259 0.15398775 0.034591813 -0.09524128 0.071572945 0.06729154 0.040694162
-0.0010989151 -0.08521203 0.054025427 -0.007560481 0.032937393 -0.15528864 0.055296354 -0.16538982
0.014031241 -0.034836717 -0.07469334 -0.054667383 -0.12328959 -0.048386276 -0.13008422 0.06427498
-0.14515048 -0.14150967 0.031401183 0.106934525 0.030406889 -0.15032099 0.1484327 -0.016937483

hidden2.0.bias f4 [100]
00000000: f90e 333c a88f bc37 0b34 d93d 6524 f6bb
00000010: 1d55 49bb 38cf 1e3b 1d79 013d 46ef cbbd
00000020: 9579 1cbd f5ff b33a 8db9 873d daa5 a8be
00000030: dd5d b637 75e1 433b c5d4 abba 0b27 7b3d
00000040: 2169 a93c 6562 0937 c19c 153c ed3f 63bd
00000050: 8d09 c23d 1b08 6abe ac98 763d 37cc 563d
00000060: d34f 9339 a9d1 b6b7 4af2 e33d 91a1 eb3c
00000070: e7ac dc3a 86b8 a73d 6722 f63c 5431 64bd
00000080: ee0f 63bd 405f 033c 4bc3 c43d ab8b 5dbd
00000090: 280e af3d d136 e33b 0c4f 673d bf29 d93c
000000a0: d9d2 7739 6de1 b3bd 02b1 173d 9100 5fbe
000000b0: 5e8a 23b9 03ef cfba 3570 3f3a 7102 ef3d
000000c0: f7b6 373a 2fb0 ce3d f728 9d3d a0b2 e33c
000000d0: 764b e0b7 35dc a1be 9c39 29b9 7db0 ad3d
000000e0: deee 86bb 4a66 b83c 3fbe 973d b6ad ccb9
000000f0: 7579 68b9 ba23 e0bd de51 3c3d 886e f13b
00000100: 5b0f cab8 f61c 203b e755 e43d 9e5f 043b
00000110: bbf3 4a3d bbe7 7dbe 4f21 c03d d48c 873b
00000120: dfaa 4abd 922c 8d3c b305 bcbb b4f8 953c
00000130: 4ec2 673b 7142 5539 78fc 083b b307 b2b8
00000140: e821 c338 0ad6 293d ca86 ec3d dce7 9d3d
00000150: 486b 913b 91af 58bb 2993 f23c b328 c7b9
00000160: 3d08 32b7 dc94 e13d 29ba 01be b9e7 9a3d
00000170: 980d 263b b11a d33b fbde 80b9 ec8b f03d
00000180: d50a 9f3c 9287 103c 092e 1c3b 0c05 a63d
0.010928863 2.2478242e-05 0.106056295 -0.007511663 -0.0030720897 0.0024232399 0.031609643 -0.09957747
-0.038201887 0.0013732897 0.06627188 -0.32939035 2.17398e-05 0.0029889022 -0.0013109675 0.06131653
0.020680012 8.188746e-06 0.009131611 -0.055480886 0.09474478 -0.22854654 0.060204193 0.05244085
0.000280975 -2.1793721e-05 0.11130197 0.028763564 0.0016836197 0.08189492 0.030045701 -0.055711105
-0.055435114 0.008018315 0.09607562 -0.054088276 0.08547622 0.006934025 0.05647187 0.026509164
0.00023634302 -0.08783231 0.037034042 -0.2177756 -0.00015596437 -0.0015864078 0.0007302792 0.116703875
0.000700816 0.10092198 0.07673829 0.027795136 -2.673802e-05 -0.31613317 -0.00016138557 0.08480928
-0.0041178307 0.022509713 0.074093334 -0.00039039337 -0.0002217049 -0.10944314 0.045976512 0.0073679127
-9.634971e-05 0.0024431325 0.11149197 0.0020198594 0.049548846 -0.2479543 0.09381353 0.004136661
-0.04947936 0.017233167 -0.005737984 0.018307067 0.0035363617 0.00020338014 0.0020902436 -8.4891355e-05
9.30464e-05 0.04146389 0.115491465 0.07710239 0.0044378377 -0.003306363 0.029611187 -0.0003798656
-1.0611545e-05 0.11014721 -0.1266867 0.07563729 0.0025337692 0.006442391 -0.00024580196 0.11745438
0.019414345 0.008821385 0.002383115 0.08106431

hidden3.0.weight f4 [100, 100]
00000000: 6842 ebbd c225 95bd 4a18 163e 0672 a43d
00000010: e63c 8dbd 595e 383d 9510 ce3c a8e0 6fbd
00000020: 7bf9 d4bd f0f3 393d 55c4 1c3d d94e d2bc
00000030: cd78 00be e20f e6bc 560d b13d 940a 0b3d
00000040: bac2 ae3b 8ecd 9abc 228c 893b 9189 4dbc
00000050: 1f07 ed3d 0773 3cbb 61db a7bc 4789 083e
00000060: 45e4 c53d 8ff2 003d 4769 fdbc 3ef3 603d
00000070: e0fe b53d 3581 3e3d d8c8 8dbd 6692 993d
00000080: 14fc fa3c 1618 023e 579b eabc 59a3 0c3d
00000090: ce86 86bc ec45 1abe 7168 bd3a 8b01 0e3d
000000a0: 1503 eb3c e5b2 c4bc 278f aa3d 889a 153d
000000b0: 89ca 013d 3714 c73d 174c f23d 3b42 613d
000000c0: 9de6 993d 2648 eabd c42a 1bbc de27 c2bb
000000d0: 7811 263c 5cb5 313d cc5b ecbd fa07 a7bd
000000e0: e97c 52bd 6d40 9bbd 0b42 80bd f6c1 143c
000000f0: 415f 58bd 7315 663d 6fbe c4bc e4c4 033e
00000100: ba10 91bd 5417 c0bd 1938 12bc 4a57 cfbc
00000110: b2de 2c3e 3f31 b6bd db81 e93c 7235 e139
00000120: ee04 b33d d502 923d bf8c 933d 7a5a 64bd
00000130: 0093 c3bc 7158 e9bd 26b7 d33d 8642 233d
00000140: 4985 6ebd f6d0 47bb 3d82 09be e470 063d
00000150: 061e bbbb cd92 853c df4d b4bc 2133 a23b
00000160: 3ac4 f9bc 9607 05bd 93be 8fbd e8a8 0dbd
00000170: 5fee 6cbd 73c9 763d 8f17 b23d 0621 683d
00000180: bd43 bf3c fd40 aabd 18a4 9abd 453e a3bd
00000190: da0b 733d 2a9a 15be a891 19bc 1463 dbbd
000001a0: 8925 a43c 7003 fdbd 8ebe 5f3d 67a5 debd
000001b0: 956a 293d 42e8 0bbc 5439 213d dd01 f3bd
000001c0: 2da0 d6bd 4750 c2bc 9465 2d3d 185d f0bd
000001d0: 359e 05be 2bef a9bc 52a6 aabd ab04 8a3c
000001e0: 01e0 933d 1786 e3bd 9be5 703d 5409 9fbb
000001f0: 6fa3 67bc 05be 1f3d b42e 8f3d 8887 c1bd
00000200: 8e0a 483d 4b2a 7bbb d3b3 2d3d d9c7 4f3d
00000210: ec96 cbbb 6d05 17be 8d4b b53c c9db 73bd
00000220: 41b0 dc3d 6e4b 9cbc b66e 18be 36c3 773d
00000230: 68d7 babd fb1c 33be 7fff 823c 0ac0 da3b
00000240: b853 24bc ad72 313c 4e45 0b3b 6a14 e93c
00000250: 9242 06be 9246 1f3e 1947 143d 44b2 3abe
00000260: 49ae a63a 348b 363c e326 babd 448f fe3b
00000270: 8508 f4bd 40d3 683d ff1e ad39 dc02 7c3b
00000280: b33d cebd 381c 69bc a70b 3dbc 7116 3bbe
00000290: 849a 903c 1dd1 7bbc 17d7 b73c b87b 04be
000002a0: 042d 25bd 3f2b 0bbe ebe0 4fbd e496 a7bd
000002b0: b8b9 513c 539c 163d e8c3 adbd 78b9 a3bd
000002c0: edbb d9bb 87a6 82bd 71b4 af3c 2af4 bdbc
000002d0: e625 fd3c fff8 72bd 085e d73d 0a8e 2dbb
000002e0: ddd8 afbd b43a 7e3c b82d dbba c551 8b3c
000002f0: 4a29 0fbd 682e c93c a719 22be e5f3 8c3d
00000300: a91b 7c3c 516d e4bd 1048 1a3d 3ea8 49bb
00000310: 85bc 3e3d cbef 483d b623 3fbe 43c4 bb3d
00000320: e0ae 2bbd 8361 8abb bbee 51bb d1b8 d5bd
00000330: a46b c1bc 2240 cebd 12d0 273d 2eb3 a2bc
00000340: 6118 74bd 84dd 30be 0f2b d2bc 9375 573c
00000350: 1a44 0d3d 36ac 1fbe 70db f1bd 5e81 10bd
00000360: 6837 073d 7022 c43d 5c0d 1cbe 7f87 483c
00000370: 8d8b 3ebe 47ab aebc 0cff 12be 61f1 8e3c
00000380: dc9c 80bd 77af 00bd 8c96 963c edfb 03be
00000390: 0822 1a3c 491d 23be dd22 ab3d eea1 7cbd
000003a0: eb54 2fbb 7f5b 263c bc1f e8bd bd2d d23c
000003b0: 3b7a 433d 8a1d 9a3c b79a 91b9 bd59 98bc
000003c0: 2dc2 9cbc fa91 443b 757f 89bd 95ec 01bc
000003d0: 81b3 3dbc 7683 fdba 9032 2cbc 3a46 10be
000003e0: a636 2abd ba8b d0bc 7117 34be a8e0 033d
000003f0: a713 3abe 71af c6bd 95c7 c03b 37a8 45bd
-0.11487275 -0.07282592 0.14657703 0.08029561 -0.06896381 0.045011852 0.025154391 -0.05856386
-0.10399147 0.045398653 0.038273174 -0.025672363 -0.12546082 -0.028083745 0.08645122 0.033945635
0.005333272 -0.018896844 0.0041976133 -0.012545005 0.11573624 -0.0028755085 -0.02049035 0.13333617
0.096626796 0.031481322 -0.03093399 0.054919474 0.08886504 0.04650994 -0.069230735 0.074986264
0.030637778 0.127045 -0.028638525 0.034335468 -0.016421702 -0.15065736 0.0014450682 0.03466944
0.028687993 -0.024011085 0.083280854 0.036524326 0.031687293 0.097206526 0.11830919 0.054994803
0.07514689 -0.114395425 -0.009470645 -0.0059251627 0.010136001 0.04338585 -0.11540946 -0.08155818
-0.051388655 -0.075806476 -0.06262597 0.009079447 -0.052825216 0.0561728 -0.024016587 0.12868077
-0.070832685 -0.093794495 -0.008924508 -0.025310177 0.16881827 -0.08896112 0.028504303 0.00042955164
0.08741175 0.071294464 0.072045796 -0.055750348 -0.023873806 -0.11393822 0.10337667 0.039858364
-0.05823258 -0.003048954 -0.13428588 0.032822505 -0.005710366 0.016305352 -0.022009788 0.0049499427
-0.030489076 -0.032477938 -0.07018771 -0.03458491 -0.057844516 0.06025071 0.086959 0.05667212
0.02334773 -0.08313177 -0.0755083 -0.07970861 0.059337474 -0.1460959 -0.009373106 -0.10712257
0.02003743 -0.12354171 0.054625086 -0.10871392 0.04136141 -0.008539261 0.039361313 -0.1186559
-0.1047977 -0.02371992 0.0423332 -0.11736506 -0.13048632 -0.020743927 -0.08332504 0.016847929
0.0722046 -0.1110956 0.05881272 -0.004853407 -0.014138087 0.038999576 0.0699133 -0.09449679
0.04883819 -0.003832477 0.042407822 0.0507277 -0.0062130596 -0.14748164 0.022130752 -0.059535775
0.10775805 -0.019078936 -0.14885983 0.060488902 -0.09123117 -0.17491524 0.01599097 0.006675725
-0.010029726 0.0108305635 0.0021251026 0.028452117 -0.13111332 0.15554264 0.036200617 -0.18232065
0.0012716736 0.011141587 -0.09089448 0.0077685434 -0.119156875 0.05684209 0.00033020225 0.0038453853
-0.10070362 -0.014227919 -0.011538423 -0.1827028 0.017651804 -0.015369681 0.02244143 -0.1293782
-0.040326133 -0.13590716 -0.050751608 -0.08183077 0.012800626 0.036770176 -0.08484632 -0.0799436
-0.006644717 -0.06379419 0.021448346 -0.023187716 0.03090186 -0.059319492 0.10515982 -0.0026482367
-0.08586285 0.015516926 -0.0016721999 0.017006764 -0.034951486 0.024558261 -0.15830098 0.06882457
0.015387454 -0.11153663 0.03766638 -0.0030770446 0.046566505 0.04905681 -0.18665966 0.09168293
-0.04191482 -0.00422305 -0.0032033164 -0.104356416 -0.023610897 -0.10070826 0.040969916 -0.01986083
-0.059593562 -0.17272002 -0.025655298 0.0131505905 0.034488775 -0.15593037 -0.118094325 -0.035279624
0.033011824 0.09576881 -0.15239471 0.012239336 -0.18607922 -0.021321906 -0.14355105 0.017449083
-0.062799186 -0.031417336 0.018382333 -0.12889071 0.009407528 -0.1592914 0.08356259 -0.061677866
-0.0026753496 0.01015365 -0.11334178 0.025656575 0.04772399 0.018812913 -0.00027771827 -0.018597478
-0.019135559 0.0029994235 -0.067137636 -0.007929941 -0.011578442 -0.0019341547 -0.010510102 -0.1408929
-0.041556023 -0.025457252 -0.17587067 0.03219667 -0.1817156 -0.097014315 0.005883167 -0.048256125

hidden3.0.bias f4 [100]
00000000: d946 3b3d d080 923d a98a da3d fcfb 343d
00000010: a4e3 8f3d 5133 843d 9bb3 cb3d f0db c23d
00000020: 511e 753d f99b 8e3d e003 b4bd 475d 9c3d
00000030: 4953 b13d 8bef b63d 1889 903d 917e e53d
00000040: 1d15 7f3d 2359 d53d f903 ec3d b4ae a83d
00000050: 1aac 913d 26eb d83d b789 ee3d e6e4 633c
00000060: ca94 d53d f342 7a3d a885 873d aa40 f13d
00000070: c117 bf3d 44d1 ab3d 42cf ce3d baca b23d
00000080: aac8 ce3d c019 813d 381a c13d b2b8 a4be
00000090: a804 a63d aa90 a93d 892a 993d 32ed ca3d
000000a0: 1efb af3d 0966 fe3d b5af c93d a285 483d
000000b0: 97d1 563d 637d aa3d 5374 ca3d a307 da3d
000000c0: 73e9 e03d c2fa 823d 7cd4 d13d b1dd 133e
000000d0: 253e a23d 71f2 963d d7b4 d33d 3bfb 273d
000000e0: d71a 833d 6831 7b3d 8769 7d3d 8c40 b73d
000000f0: 6c20 bd3d 5f9a 0f3e 8429 883d 7fb8 df3d
00000100: f178 ce3d 25b0 e73d f8c1 fd3c 862c c53d
00000110: 8d02 163e d609 903d 0cd0 c73d c71c b33d
00000120: 04b7 e23d 53b3 033e 2781 b63d b051 d53d
00000130: 6656 e53d 6ede d73d a023 a63d 16d6 963d
00000140: cfe3 aa3d fad1 993d f86b 9c3d 88a5 bc3d
00000150: 1ad5 ce3d fb91 e63d 7efa bc3d 9ed9 973d
00000160: 2020 af3c 4609 8ebe be6c 9e3d 3002 943d
00000170: 828c d43d 9024 023e 464d 453d 49c3 8abe
00000180: 7f25 6c3d 79bd bc3d 3a5c c53d 1007 903d
0.045721862 0.07153475 0.106709786 0.044185624 0.07025841 0.064551 0.099463664 0.09514606
0.059843365 0.06963343 -0.087898016 0.07634979 0.086584635 0.08932408 0.070573986 0.11205781
0.062275995 0.10417392 0.11524195 0.08236447 0.07112904 0.10591726 0.11647361 0.013909554
0.1042877 0.061099004 0.0661729 0.11779912 0.093307026 0.083895236 0.10098125 0.08730073
0.100968674 0.063037395 0.09428829 -0.3217216 0.08106357 0.082795456 0.07478816 0.09908523
0.08592819 0.124218054 0.098479666 0.048955567 0.052445974 0.08324697 0.09885468 0.10645988
0.10982027 0.063954845 0.10245606 0.14440037 0.079220094 0.07370461 0.10337227 0.041011076
0.06401604 0.061326414 0.061868217 0.08947858 0.092346996 0.14023732 0.066485435 0.10923862
0.100816615 0.11312894 0.03097628 0.09627633 0.1464941 0.07033126 0.09756479 0.08745723
0.11070064 0.12861376 0.089113526 0.10415971 0.1119812 0.10540472 0.08112264 0.073650524
0.08344232 0.07510753 0.07637781 0.0921126 0.1009924 0.11258312 0.09227465 0.07414554
0.021377623 -0.2774145 0.07735585 0.0722698 0.10378362 0.1270926 0.048169397 -0.27102116
0.057652947 0.092158265 0.096367314 0.07032597

normised.weight f4 [100]
00000000: 5f0d 8f3f 119c 893f e919 873f 360d 8d3f
00000010: b3cb 913f 9e77 8e3f 8ad9 8c3f 50a7 8a3f
00000020: bf86 8e3f a97c 903f 0ae1 803f 9224 913f
00000030: 5e12 8e3f 58a0 8f3f 7bc0 8f3f 0a14 883f
00000040: fe20 903f 2711 853f 37f5 8b3f d91b 843f
00000050: 54f2 923f 52ca 883f 4453 853f 0d66 903f
00000060: e5bd 8a3f b23d 8d3f 5e30 8c3f 152a 863f
00000070: fa96 853f a5bf 933f ca0b 853f dfca 863f
00000080: 80a5 863f 2fd8 8a3f 23f1 893f 09a4 7e3f
00000090: 7abf 8a3f 7f3b 8f3f 29b8 913f 9723 8b3f
000000a0: 7f92 8b3f a4d1 833f 5247 8c3f 5b2e 8b3f
000000b0: 9976 903f 59ea 8b3f d29d 913f 3ac6 8b3f
000000c0: aee6 893f a22b 803f 03bd 8e3f 2d35 853f
000000d0: ee80 863f e265 8f3f 1880 8d3f 3ba6 8c3f
000000e0: 7c4a 8a3f 714c 843f 9215 883f 54e3 8f3f
000000f0: cebe 883f f3a6 893f f93c 8a3f ebf7 863f
00000100: 468b 743f aac0 873f bf85 873f 29ab 853f
00000110: 98c6 823f 47b7 823f 2c41 873f f9ef 7f3f
00000120: 7617 873f efc9 893f e5b1 8c3f 06eb 8a3f
00000130: 14b4 8e3f 46cd 923f d0c6 843f 8dae 833f
00000140: c34c 8b3f 8fea 843f e616 8c3f 50d2 873f
00000150: 460d 883f 6824 8d3f 52ac 813f 6187 7f3f
00000160: 1327 8b3f 903f 7d3f 9b58 8a3f 5755 803f
00000170: 5c3e 873f b4d5 893f 0fd9 8c3f 261e 7c3f
00000180: 4ebe 863f f440 913f 635c 893f ebf9 7a3f
1.1175956 1.0750753 1.0554782 1.1019657 1.1390289 1.1130254 1.1003888 1.083231
1.1134871 1.1288043 1.0068676 1.1339285 1.1099355 1.1220808 1.1230615 1.0631115
1.1260068 1.039586 1.0934209 1.0320998 1.1480203 1.0686743 1.0416036 1.1281143
1.0839201 1.1034453 1.095226 1.0481592 1.0436699 1.154286 1.0394223 1.0530661
1.0519257 1.0847224 1.0776714 0.9946905 1.0839684 1.1190032 1.1384326 1.0870236
1.0904082 1.0298352 1.0959265 1.0873522 1.1286193 1.0930892 1.1376288 1.0919869
1.0773523 1.0013316 1.1151432 1.0406853 1.0508096 1.1202967 1.1054716 1.098823
1.0803981 1.0335828 1.0631583 1.124125 1.0683229 1.0754074 1.0799857 1.0544409
0.95525014 1.0605671 1.0587691 1.0442859 1.0216856 1.0212182 1.0566764 0.99975544
1.0554035 1.076475 1.0991789 1.0852973 1.1148705 1.1468894 1.0373173 1.0287644
1.0882801 1.0384082 1.0944488 1.0611057 1.0629051 1.1026735 1.0130713 0.99815947
1.08713 0.98925114 1.080829 1.0026044 1.0565906 1.0768342 1.1003741 0.984835
1.0526826 1.1347947 1.0731319 0.98037595

normised.bias f4 [100]
00000000: 46ba b63e 5118 793e 3c6b 913e d96d a83e
00000010: ad25 953e 5e06 573e fe0c ab3e b982 763e
00000020: 75e1 7d3e eb03 ae3e df76 8b3e 0fe7 893e
00000030: 2445 923e 85f2 873e 7ad3 a13e 4c79 923e
00000040: 8d1f c33e 7669 9b3e 5855 723e c564 933e
00000050: 8c1c 913e 0532 903e 1408 973e 8ae2 483e
00000060: 5ba6 993e 8338 643e 1e6d 9a3e 441e 953e
00000070: ea86 d13d 2791 503e 8d28 333e f31a 893d
00000080: 8366 963e 4c96 ba3e 95fb 463e 7d97 b83d
00000090: 8138 883e a914 553e 82b0 9a3e 42d1 1f3e
000000a0: db42 f63d e2b4 383e 00e7 933e 0737 883e
000000b0: 1998 993e 9eb8 983e f35d 843e 17e6 333e
000000c0: 215e 833e cb60 a03e 5230 123e 6834 3b3e
000000d0: 2656 493e 59e1 313e 566d 8f3e f097 a03e
000000e0: 1134 913e 231d 7c3e a7b3 473e f99b af3e
000000f0: 66dc 9c3e 65f5 8b3e 3874 953e 7678 843e
00000100: 3c4a a13e e851 bc3e 5e4d 4cbd c556 813e
00000110: 1719 1b3e 667f b13e 9687 883e 04a8 973e
00000120: b18b 093e 8198 503e efef a03e 7671 ca3e
00000130: 1f08 be3e 1cec 193e 0137 4e3e 40ae 873e
00000140: 25cf 8d3e d762 b33e f732 9f3e 3344 8c3e
00000150: 2395 563e 56ac 9d3e a7cc 553e 4347 80bc
00000160: 9765 9e3e 27f9 2a3e b096 893e b21e 883e
00000170: e3c7 6a3e 5073 8e3e 692c 863e df33 433e
00000180: 3b66 953e 8488 993e b260 6f3e 8640 7c3e
0.3568899 0.24325682 0.28402126 0.32896307 0.29130307 0.20998523 0.3340835 0.24073304
0.24793036 0.33987364 0.2723913 0.26934096 0.28568375 0.26552215 0.31606656 0.28608167
0.3811001 0.30353898 0.23665369 0.2878782 0.28342092 0.28163162 0.2949835 0.19617668
0.30009732 0.22287183 0.30161375 0.29124653 0.10230811 0.20367871 0.17495938 0.06694593
0.29375085 0.36442792 0.19431908 0.09013269 0.2660561 0.20808662 0.3021279 0.1560717
0.120244704 0.18037751 0.28887177 0.26604483 0.29998854 0.29828352 0.25852928 0.17568241
0.25657752 0.31323847 0.14276245 0.1828171 0.1966177 0.1737112 0.28013104 0.3136592
0.28360036 0.2462049 0.19502126 0.34298685 0.306369 0.2733566 0.2919023 0.25873154
0.3150195 0.3678124 -0.04987847 0.25261512 0.1514629 0.3466751 0.26665944 0.29620373
0.13432194 0.20370676 0.31433055 0.3953969 0.3711557 0.15031475 0.2013817 0.2650013
0.276971 0.35036346 0.3109357 0.27395782 0.20955329 0.30795544 0.2087885 -0.01565898
0.30936882 0.16696607 0.26872778 0.2658592 0.22927813 0.2782235 0.26205757 0.19062756
0.29179558 0.29986966 0.2337673 0.24633989

normised.running_mean f4 [100]
00000000: ee27 b83e 29d6 f93d ba48 fb3d 77d1 b83e
00000010: d919 8a3e 0328 903e 2da3 b13e 43a2 ad3d
00000020: ed9a ad3e 947e 753e d4a2 1639 a9d5 463e
00000030: d611 5b3e d17d 413e 7f0e 8f3e 2b45 a73d
00000040: c8b6 523e 5910 a13d b716 743e 884d 993d
00000050: d767 f43e d9e2 0a3e f100 c53d 61de b33e
00000060: 0f59 b03d ae6c 3e3e d244 f53d e23d cb3d
00000070: 89f0 1b3e 64ef 843e 2b7d 823d b007 433e
00000080: c495 b03d 70d5 5d3e 6d1e 0f3e ef5e 3929
00000090: 8280 143e 09bd 863e fa11 5e3e db09 af3e
000000a0: d0e1 733e b28f a43e b050 333e b9fe a23d
000000b0: 1fe6 7e3e 7cfc bd3d fc56 913e 715c 303e
000000c0: 8b8c e03d 2734 ff3b 2416 a63e b834 de3d
000000d0: 07cc b33d 7f45 943e caeb b43e 339d 873e
000000e0: caf6 a83e c9eb 513e 3098 c33e 0399 6b3e
000000f0: a53d 813e 41fe 5a3e b45a 083f 9a6e 583d
00000100: 7437 db3c 4235 ee3d 9c63 9c3e 553a b73d
00000110: fd4e 083e 9c22 ba3e 3163 fc3d 4026 ee3c
00000120: 6a92 6e3d 27ec 273e 1c93 1b3e 7253 5c3e
00000130: b9d7 b53e 48f2 513e 65f0 b43d 5532 4b3d
00000140: d9d3 9b3d bbfd f93d e608 783d 1220 8f3d
00000150: bbcf e93d afca 8a3e 5911 233d ddda 493e
00000160: a610 c43e 9b12 ef2e d605 5e3e 0c16 203d
00000170: 75c2 bb3d fe5a 783e a4e3 463e 0400 0000
00000180: f807 093e 1fb6 d33e 87ed ea3d 5aef ae3c
0.35967964 0.12199051 0.12269731 0.3609731 0.26972845 0.28155527 0.34694806 0.084782146
0.33907261 0.23974067 0.00014365773 0.19417442 0.21393523 0.18895651 0.27940747 0.081674896
0.20577538 0.07864446 0.2383679 0.07485491 0.47735474 0.13563098 0.0961932 0.351306
0.086107366 0.18596146 0.11976017 0.099239126 0.15228476 0.2596389 0.0637153 0.19045901
0.086223155 0.21663451 0.1397645 4.1160594e-14 0.14502147 0.26316097 0.21686545 0.34187207
0.2381661 0.3214088 0.17511249 0.07958741 0.24892472 0.09276673 0.28386676 0.17222764
0.109643064 0.0077881995 0.32438767 0.10849899 0.087791495 0.2895927 0.35336143 0.2648712
0.33000785 0.20500101 0.38202047 0.23007588 0.25242344 0.21386053 0.532634 0.052839853
0.02675984 0.11631252 0.30544746 0.08946673 0.13311382 0.3635453 0.12323607 0.029070973
0.0582451 0.16398679 0.15192837 0.21516207 0.35516146 0.20502579 0.08834914 0.049608547
0.07608766 0.12206598 0.06055536 0.06988539 0.114165746 0.2710776 0.039811466 0.19712396
0.38293952 1.0871767e-10 0.21681914 0.039083526 0.09167949 0.24253461 0.19422776 6e-45
0.13381946 0.41349885 0.11471086 0.021354366

normised.running_var f4 [100]
00000000: 8881 613f ee36 b23d 2b74 993d 1cc7 733f
00000010: 0e5b bb3e 5044 d53e 41b6 373f eaa5 623d
00000020: 8400 4c3f 4b73 b83e afa7 d237 f952 783e
00000030: 31a5 a13e 3301 5b3e 9d4a 173f cb6b 443d
00000040: df68 a23e 1ac3 2a3d 5f1b fd3e e359 243d
00000050: 9215 b03f f936 e13d 31e5 483d 93b9 913f
00000060: a100 2e3d 29c7 913e 722f d83d a3dc b43d
00000070: a826 0f3e 3d41 c93e b3b5 133d 30b7 ae3e
00000080: 8909 6a3d 06eb cc3e 35bb fb3d dfe9 1727
00000090: 1bd9 0c3e 6f48 b33e 6ed9 8e3e 115e 173f
000000a0: 40a9 a83e 9dda 5b3f a727 1c3e 6e70 653d
000000b0: 86aa d03e 0212 7d3d 1b28 053f 6244 433e
000000c0: c43c 9a3d 7c5f 353a 27ef 133f 5510 923d
000000d0: dfe8 453d 0c86 d83e d1a0 2a3f 3a38 253f
000000e0: 3b49 2e3f 4c71 a63e 4a55 733f 0f22 013f
000000f0: 63ab c33e 713e 353e d40e ee3f cbf3 b13c
00000100: 6147 d23b 2a55 c53d b7ef 3e3f 402f 993d
00000110: ca8f ee3d 41de 763f 81a0 b83d f47b fa3b
00000120: 27d5 c53c f4d2 f83d dd00 3a3e 218e c83e
00000130: 0ea3 4d3f 161a 9d3e 53d1 443d 01b8 9f3c
00000140: 04f4 233d a454 0b3e 78a6 eb3c d854 233d
00000150: fd50 b23d c83c 123f 8faa 583c 9416 af3e
00000160: adc0 6b3f 5416 9b2c a98f df3e 7e20 7a3c
00000170: 10e9 3a3d 9de7 8f3e f778 993e 0400 0000
00000180: b2d9 6a3e 65d0 623f d8c6 023e a1a0 d63b
0.88088274 0.08701883 0.074928604 0.9522569 0.36592907 0.4165368 0.7176247 0.05533401
0.79688287 0.36025462 2.5112035e-05 0.24250402 0.31571344 0.21387176 0.59098226 0.047954362
0.31720635 0.04168997 0.49434945 0.040124785 1.3756583 0.10996813 0.0490467 1.1384758
0.04248107 0.2847226 0.105559245 0.088311456 0.1397959 0.39307585 0.036061954 0.34124136
0.057138 0.4002306 0.12291566 2.1082241e-15 0.13754694 0.350162 0.2790026 0.5912791
0.32941628 0.8588045 0.15249501 0.056015424 0.407551 0.06178475 0.5201432 0.19069055
0.075311214 0.00069188303 0.5778679 0.07132021 0.048317786 0.4228977 0.66651636 0.6453892
0.6808049 0.32508314 0.95052016 0.50442594 0.38216695 0.17699601 1.8598275 0.021722695
0.0064172004 0.096353844 0.74584526 0.07479715 0.11648519 0.9643288 0.09014989 0.007644171
0.02414949 0.12149611 0.18164392 0.39170936 0.80326927 0.30683964 0.04805119 0.01949692
0.040027633 0.13606507 0.028765902 0.039875835 0.087068535 0.57123995 0.013224258 0.34196913
0.92090875 4.407844e-12 0.43664292 0.015266536 0.045632422 0.28106394 0.299751 6e-45
0.22934607 0.88599235 0.12771165 0.00654991

output.0.weight f4 [10, 100]
00000000: 873b ea3d 9555 66be 1f1d 7abe 8f6f 9abe
00000010: 0ac3 b63d 2948 7f3d cef1 c23d 5164 db3d
00000020: cc50 92be 3546 b13d 737b edbd e943 b23d
00000030: 6a62 bc3d 4738 95be ee8e 903d 6fd8 98be
00000040: 9990 ae3d faeb 6bbe bdee 92be e286 6ebe
00000050: 9808 ac3d efe4 73be 0307 44be 95ed bd3d
00000060: d9c8 91be b296 69be f3c6 92be a78b a1be
00000070: f944 52be 9336 be3d 4b11 48be 635e 32be
00000080: 113f 57be 26da 82be cca5 49be ce44 f2bd
00000090: f71e b03d a2ce 90be cdc9 b03d 6cd3 a4be
000000a0: 4901 44bd 0abd fe3c 20b2 923d 54b3 0b3e
000000b0: 52b0 e03d 2e25 91be 33a8 7e3d b68f a0be
000000c0: a35a 96be 5bcd 42be e447 bf3d 8c26 8abe
000000d0: 8043 61be 9300 d43d aa61 67be 09ca 76be
000000e0: 96d0 87be 6cf9 2cbe 35e3 d13c 97dd b1be
000000f0: 56c7 75be 1a1e a5be 417e a73d 87dd 91be
00000100: 9939 00be 10e4 7ebe e9be 973d a890 6fbe
00000110: dffb 39be ef5a 80be d6a9 56be a505 0fbe
00000120: 73e1 77be a55c 88be a33b 83be c1a0 b03d
00000130: 5a6a 8c3d ae88 e33d dc1f 39be 67f9 5abe
00000140: 8ca3 5abe 3ee7 4cbe de29 64be bf6e 8bbe
00000150: 05b8 52be eeae 7d3d 114b 95bd c393 603d
00000160: 7da0 cc3d 2b49 fcbd eb5c d83d 6a84 82be
00000170: 5b25 8bbe b648 85be 0171 54bd 8e8e bcbd
00000180: 165f 48be f261 51bd d9f7 46be 01cd 8cbe
00000190: 08c3 513d 1c84 a2be 4e32 ef3d 58ce 4fbe
000001a0: 8d55 4a3d 3f54 aebe 896b 8abe a80d be3d
000001b0: 20fc 80be e404 3fbe 414b ce3d 7dc9 93be
000001c0: 05ac 93be 29f4 b53d 4039 93be ade3 c53d
000001d0: 7e90 89be dbe5 e43d 0c2a 6dbe bcd1 75be
000001e0: fa79 acbe fd83 80be 10db c43d 6e02 1abe
000001f0: eea3 8cbe 436f 4ebe 46b1 75be 9f08 44be
00000200: 6862 883d 765b 9cbe 596f ce3d ec9b 55be
00000210: 4065 023e 0b3d 57be 2f40 88be 79e5 7fbd
00000220: 150e 7fbe dae8 64be c9da 9ebe 1de8 293d
00000230: 7a34 bc3d 3303 b23d ac56 99be 2885 62be
00000240: 28ab 983d 11c7 90be 01a1 76be e3e2 8ebd
00000250: 750e 3cbe 6314 ed3d b234 aa3d ca20 7abe
00000260: 7bd8 dd3d 6992 7d3d 676a b43d 32c8 55be
00000270: 3fb0 3cbe a3be 963d d691 62be 6e5f 68be
00000280: caf5 94be 75da 193d 9036 85be e60d 5abe
00000290: 762b 003e 1387 69be 447c 63bd b461 56be
000002a0: 73fc d83d d38f 23be 67b1 6abe 719e 123e
000002b0: 191e ff3d 63ed a9be 10c5 cc3d 5f10 e53d
000002c0: daa9 92be 9735 e43d fbf5 433d a5bd 64be
000002d0: 253b d13d 75de 8cbd a4a1 ae3d ffae 8fbe
000002e0: a246 b43d 4543 41be b9b3 0f3e 9ad4 86bd
000002f0: fd51 50be 8626 96bd 768d cbbd 5db3 6fbe
00000300: e023 a03d 06cf 63be b2ea 7dbe d6a7 54bd
00000310: 22e0 86be 9054 afbe 5e48 d83d 8064 a1bd
00000320: 4fec 8f3d 08b8 a33d 33f5 73be 3333 263d
00000330: 5b31 963d 0a9a 573d dbd8 8dbe 2231 84be
00000340: 31b4 323d 1cf9 553d 7e68 e0bd c5d7 adbe
00000350: f01f 86be 9926 633d 3557 a03d 6aa6 42be
00000360: 47d3 a23d af8e 52be a2f8 39be af6f 6bbe
00000370: 83aa 3f3d 3264 aa3d d547 71be 86d3 8ebe
00000380: b3bd a8be fdf9 933d 2ea9 b73d 2c30 7fbe
00000390: e42a 25bc 77a8 a4be 3f64 6dbe 2e54 6ebe
000003a0: 3d3c 64be 3a71 4fbe 69f2 8cbe 4e89 373d
000003b0: 93dc 81be 631d 073d 2b1c abbe 9e37 81be
000003c0: d451 a1be 7ab6 b7bd 2e2c acbe 0079 7fbe
000003d0: 1448 4e3d 9b6c 673d 7701 86be f054 b23d
000003e0: 241c 93be ee3f 62be c018 96be 5570 86be
000003f0: 85f8 62be 7ac3 613d d2b6 3b3d f9a5 283d
0.11437135 -0.22493584 -0.24425171 -0.30163237 0.089239195 0.062324677 0.09518777 0.10712493
-0.28577268 0.08655969 -0.11595812 0.08704359 0.091984585 -0.291445 0.07058512 -0.29852626
0.085236736 -0.23039237 -0.28697768 -0.23293641 0.08400077 -0.238178 -0.191433 0.09273831
-0.28473547 -0.22811392 -0.2866741 -0.3155186 -0.20534123 0.09287753 -0.19537847 -0.17418818
-0.21020152 -0.2555706 -0.19692153 -0.1182953 0.08599656 -0.28282648 0.086322404 -0.32192552
-0.047852788 0.031096 0.07162881 0.13642627 0.109711304 -0.28348678 0.062172126 -0.31359643
-0.29366025 -0.1902365 0.09339884 -0.26982534 -0.21998405 0.10351672 -0.2259585 -0.24100508
-0.26526326 -0.16892022 0.025621036 -0.34739372 -0.24001822 -0.32249528 0.08178378 -0.28489324
-0.12521972 -0.24891686 0.0740946 -0.23395026 -0.18162487 -0.25069377 -0.20963225 -0.13966997
-0.24207096 -0.26633182 -0.25631437 0.086244114 0.068562225 0.11110054 -0.1807856 -0.21384202
-0.2135145 -0.20010087 -0.22281596 -0.2723293 -0.2057801 0.061934404 -0.072897084 0.054828417
0.09991548 -0.12318643 0.10564598 -0.2549165 -0.27176937 -0.26032037 -0.05186558 -0.09206878
-0.19567522 -0.0511188 -0.19430484 -0.27500156 0.051211387 -0.31741416 0.11679517 -0.20293558
0.049397994 -0.3404865 -0.27035168 0.092799485 -0.25192356 -0.1865421 0.10072947 -0.2886466
-0.28842178 0.088844605 -0.28754616 0.09662566 -0.2686805 0.11176654 -0.23160571 -0.24005789
-0.3368681 -0.251007 0.09612095 -0.1503999 -0.27468818 -0.2015963 -0.23993406 -0.19143914
0.066593945 -0.3053853 0.10079832 -0.2086026 0.12733936 -0.2101938 -0.26611468 -0.0624747
-0.24907716 -0.22354451 -0.31026295 0.041481126 0.091896966 0.086920165 -0.29948938 -0.22121108
0.074545205 -0.28276876 -0.24084856 -0.06976869 -0.1836489 0.11576154 0.08310832 -0.2442657
0.10832306 0.061907206 0.08809357 -0.2087715 -0.18426608 0.0736058 -0.22125944 -0.22692654
-0.29093772 0.037561852 -0.2601819 -0.21294364 0.12516579 -0.22805433 -0.05553843 -0.20935708
0.10595026 -0.15972833 -0.22919236 0.14318253 0.124569125 -0.33188924 0.09998524 0.11184763
-0.2864521 0.11143034 0.047842007 -0.22337969 0.10216359 -0.06878368 0.08526924 -0.280632
0.08802535 -0.18873318 0.14033403 -0.06583519 -0.20343776 -0.073315665 -0.09939091 -0.23408265
0.078193426 -0.22246942 -0.2479656 -0.051917873 -0.26342875 -0.34244204 0.10560678 -0.07880497
0.07027494 0.079940856 -0.23824005 0.04057617 0.073336326 0.052637137 -0.2770451 -0.25818735
0.043628875 0.052239522 -0.1095743 -0.33953682 -0.2619624 0.05545673 0.078291334 -0.19008794
0.07950454 -0.20562242 -0.18161252 -0.22991823 0.046793472 0.08319892 -0.23562558 -0.27895755
-0.3295723 0.07225416 0.08967815 -0.2492072 -0.010081027 -0.32159778 -0.23182772 -0.232743
-0.22288604 -0.20258036 -0.27528694 0.04480868 -0.25363597 0.03298701 -0.33419928 -0.25237745
-0.31507742 -0.089703515 -0.33627456 -0.24948502 0.050361708 0.05650006 -0.26172993 0.08707607
-0.28732407 -0.220947 -0.29315758 -0.26257578 -0.22165115 0.05511806 0.045828648 0.04117391

output.0.bias f4 [10]
00000000: 066d 04bf 6ee1 50bf 3802 12bf 1808 15bf
00000010: 1a54 0ebf 9c4f 21bf 2e54 16bf 7f51 26bf
00000020: de3e 1ebf ef97 23bf
-0.51728857 -0.8159398 -0.57034636 -0.58215475 -0.5559708 -0.630121 -0.587222 -0.64968103
-0.6181468 -0.6390371
