General/Code/Models/FCN_batchnorm1-MaSS-lr-0.005-acc-46.39 epochs-150.pth (torch, 403070 bytes, 12 tensors)

hidden1.0.weight f4 [100, 784]
00000000: ec59 9dbc 046d 343c 5b82 0d3d 5086 27bc
00000010: 3999 e4bc e268 b9bc d0e6 7b3b 06b5 983c
00000020: 18e6 853b 7139 0b3d cc3f edbc fcfd 9d3c
00000030: fc0c 27bc eabb e13c 20fa b13c a4d8 583c
00000040: 0030 793a 6a04 a5bc 8c74 adbb caf2 c83c
00000050: 8046 68bb 0423 103c e2a5 f2bb 7ead ea3c
00000060: ca3c febc 4057 1d3a aefb bebc 38ec c8bc
00000070: 4e7d bb3c f8c0 0e3c bcaa 663c 692c 003d
00000080: 0c66 813c 7aec dd3c 145f f3bb 151d 043b
00000090: a713 26bc 429e 96bb 0b85 cf3c 2f1f b03b
000000a0: f73c 683b 7768 7d3c 9c09 043c c055 f03b
000000b0: e837 17ba d358 fdbc 50eb 16bb de98 ebbc
000000c0: d675 84bc 17fb 0fbd 0072 2b3a 20f5 74bc
000000d0: 54b1 2a3c d64b f13c 7160 0d3d 626b a63c
000000e0: bc1e cabb 9686 84bc a448 753c 4524 acbc
000000f0: ac74 81bc 288a da3b 142a c7bc ba70 17bc
00000100: de72 fb3c aa34 03bd fc26 5b3c 70ef 79bc
00000110: ebc0 57bc 0a7e 57bc 1030 08bd 3d04 99bc
00000120: 044b 1bbc 9e18 bbbc d051 4d3c 1486 05bd
00000130: 3a10 683a 16fd 6abc 9c98 cd3c d2b9 44bb
00000140: 2a11 96bb 2c86 c3bc 77c5 afbc 8a14 e03c
00000150: 5c46 d0bc 10bb e2bb e0c2 8fbc 14fa fabb
00000160: 7c9d 103d 37d0 8c3b 1682 53bc 8ae8 ec3a
00000170: 9c52 0cbb e721 bc3c a60a 93bc c596 b23c
00000180: fd05 c53c c473 eebc 9c2f 263b 36d2 7fbc
00000190: 500b 03bd cd22 c0bc 0d56 0a3d ea1b ffbb
000001a0: 5b79 febc 9739 b93c f2fc 3d3c d508 a0bc
000001b0: 1ed2 76bc fa22 e2bc 60b7 8dbc 4c2c 153c
000001c0: 53ba 083d 3452 263c 435d cbbc 4011 9dbb
000001d0: fb66 debc fc2c 733c 0f85 e2ba b0d2 f7bc
000001e0: 1889 d53c b7c3 603c ea3c f93c 39d9 6c3c
000001f0: 1fa8 9b3b 57be 92bc 09e8 d4bc 5f0b a4bc
00000200: 5fce e8bc 615e c1bc 4835 613c cbff c43a
00000210: ef87 113d 2c7f 16bb 8a18 093c 16cc 87bc
00000220: e0d0 7bbc 5625 e3bc d6cd 843c 11e9 293b
00000230: 40eb 413a 0057 e4b9 aaa2 41bc a923 313c
00000240: 01cc 8a3b 026c a23c 6475 fbbc f84d efbc
00000250: 43bc 78bc 2c64 043c a3bd fabb 3fe2 063c
00000260: d4c5 bbbb 9f92 383c e680 d3bc a2d4 61bc
00000270: 847b 843c 60da e1bc 8b6c 8b3c e612 08bd
00000280: 6ba0 693b e27f b23c 709f 013d eef5 ef3c
00000290: f91a c5bc 6739 37bb a63c fbbb 05ad eebc
000002a0: 2883 cbbb b8f6 38bc 720d dc3c 5d1a 9fbc
000002b0: 9ed4 7bbb 6d7f 75bc c6e6 bebb 8dae f2bc
000002c0: d266 863c 8027 d5bb 87c4 c03c 2fe0 c4bc
000002d0: 4a39 b4bc 5e6c 87bc 6a9f 46bc 2ea8 ddbc
000002e0: 5bb2 2b3c 9e75 d0bc 422d 5bbc 84ac fabc
000002f0: ee5b a3bc 2bdc 08bc 058f c13b 6832 72bc
00000300: 2046 a53c c3b7 d73c 828b 31bb ff0c 8abc
00000310: 7d8f 09bd 0a1d f3bc 9648 a13c 6f9f b3bb
00000320: f5a2 6d3b 93cd dabc 665a a7bc baa8 75bc
00000330: 904c 09bd 946a c0bc a626 ccbb d628 25bd
00000340: 7613 593c 4118 c4bc e6f1 c8bb 3b3d 303c
00000350: 91a8 083c 596d cebc 759b 82bc e674 a6bc
00000360: 3681 523c e34f e73b 5b2c 5b3c 1b53 633a
00000370: 41a1 033d bad6 83bc 6f0e dc3c 03c8 f93c
00000380: ee02 b03c f209 523a ba11 bb3a 9b65 8fbc
00000390: 227e 1a3c 032c e73c 6d15 72bc 562c 00bd
000003a0: 11df fbbc 1314 1cbd 49ca ebbc 2b50 12bd
000003b0: 836c a53c 4b82 bcbc 53e7 dcbc 40a5 c13c
000003c0: 220c 203d 1b32 93bc 8b50 de3a ed2f c4bc
000003d0: 62a9 27bd b88e 123c 10bd d73c 1f02 783c
000003e0: da7a 63bc aad3 08bd c85f 0bbb 281b d6ba
000003f0: 489a 8bbb 4b1b 163c 3c09 0d3d fd9c 2d3c
-0.019207917 0.0110123195 0.034548145 -0.010224894 -0.027905094 -0.02263302 0.0038437136 0.018641006
0.004086267 0.033990327 -0.028961085 0.019286148 -0.010195967 0.027555425 0.021725714 0.013235245
0.0009505749 -0.020143706 -0.0052934345 0.024529833 -0.0035442412 0.008797411 -0.0074050287 0.02864718
-0.031034846 0.0006002076 -0.02331337 -0.0245267 0.022886898 0.0087129995 0.014078792 0.031292353
0.01579573 0.0270903 -0.0074271057 0.0020158936 -0.010136521 -0.0045965025 0.025331995 0.005374811
0.0035436729 0.015466801 0.008058932 0.007334441 -0.00057685236 -0.030926144 -0.002302844 -0.028759416
-0.01616947 -0.035151567 0.00065401196 -0.0149510205 0.010418255 0.029455107 0.0345158 0.020314876
-0.0061682146 -0.016177457 0.014970932 -0.021013388 -0.015802704 0.0066693015 -0.024312057 -0.009243185
0.030694421 -0.032032646 0.013375994 -0.01525484 -0.013168554 -0.013152609 -0.03324896 -0.018678779
-0.009478334 -0.022838887 0.012531713 -0.03259857 0.00088525156 -0.014342567 0.025097184 -0.0030017984
-0.004579683 -0.02386769 -0.021456463 0.027353544 -0.025424175 -0.0069192722 -0.017548978 -0.007659206
0.03530644 0.004297282 -0.012909433 0.0018074673 -0.0021411544 0.022965385 -0.017949414 0.021800408
0.024050707 -0.029107936 0.0025357967 -0.015614083 -0.03199321 -0.023454094 0.03377347 -0.00778531
-0.031063726 0.022610469 0.011595951 -0.019535461 -0.015064744 -0.027604569 -0.017299354 0.0091047995
0.033380818 0.010151435 -0.024824744 -0.004793316 -0.027148714 0.014842268 -0.0017282086 -0.03025183
0.026066348 0.013718537 0.030424554 0.014456087 0.004750266 -0.017913027 -0.02598955 -0.020024953
-0.028418718 -0.023604574 0.013745613 0.0015029846 0.035530027 -0.0022963984 0.008367667 -0.016576808
-0.015369624 -0.027727764 0.016211431 0.0025926272 0.00073974207 -0.0004355237 -0.011818567 0.010811725
0.004235745 0.019826893 -0.030695625 -0.029211983 -0.015181604 0.008080523 -0.007652001 0.008232652
-0.00573037 0.011265426 -0.0258183 -0.013783606 0.016172178 -0.02756995 0.01701953 -0.033221148
0.0035648595 0.021789495 0.031646192 0.029292073 -0.024060713 -0.0027957798 -0.007667142 -0.029135237
-0.0062107034 -0.011289291 0.02686188 -0.01942175 -0.003842629 -0.014983994 -0.00582585 -0.029624248
0.01640645 -0.006504953 0.023531212 -0.02403268 -0.021999974 -0.016531166 -0.012122968 -0.027057733
0.010479535 -0.02544671 -0.0133774895 -0.03059984 -0.019941296 -0.008353273 0.005906942 -0.014782526
0.02017504 0.026332742 -0.002709121 -0.0168519 -0.033584107 -0.029676933 0.019687932 -0.0054816524
0.003626046 -0.026709354 -0.020428848 -0.014993841 -0.03352028 -0.02348832 -0.006230193 -0.040322147
0.013249269 -0.023937346 -0.006132352 0.010756786 0.008340971 -0.025198625 -0.015943268 -0.020319413
0.012848189 0.007059084 0.013377274 0.00086717465 0.032136206 -0.0160936 0.026862351 0.03049088
0.021485772 0.0008012346 0.0014272251 -0.017504504 0.0094294865 0.028219229 -0.014775616 -0.031292282
-0.030746015 -0.03810508 -0.02878298 -0.035720985 0.020193344 -0.023011347 -0.026965773 0.023638368
0.03907407 -0.017968228 0.001696126 -0.023948634 -0.04093302 0.00894516 0.02633527 0.015137224
-0.013884271 -0.033404984 -0.0021266807 -0.0016334997 -0.004260335 0.009161781 0.034432635 0.010596511

hidden1.0.bias f4 [100]
00000000: f071 f03c d6b4 84bd 845f 8b3b 66d8 813d
00000010: b000 b13a 3735 b7bd fefa 983d 3436 143e
00000020: 62b5 8abd 43a2 04be 6124 1bbd 2e0d 0f3d
00000030: 5590 00be 8ac5 373c 2de4 203e 7c2d 02be
00000040: 4a94 42bd 8ee7 85be 2155 03be a401 15bd
00000050: edbd 16be 1b12 2fbc cb54 8bbd 4634 0fbe
00000060: 17ad 0fbf 83a0 e6be 503a e0bc aa15 283c
00000070: a4d5 f3bb 55ef 39bc da02 98be 9480 1fbc
00000080: e73a c9bb d4cf 91bd 53a9 56bf 253d 91bd
00000090: f2c6 2bbe cb92 293e 3c01 15bf 85de b5bb
000000a0: 4043 9cbd b213 26bd 0ead ca3c 4214 8fbd
000000b0: e00a 3dbd 649e e0be 2758 f8bd 6a69 efbc
000000c0: 205d 96bb 3cd4 d9bd fb83 603c 3cf4 8ebd
000000d0: 49a2 623d f569 6abc eded 5ebd a219 dabc
000000e0: a633 0fbe c584 7a3c 165c e7bc 5f94 b1bd
000000f0: 64ad c6bc 101e 94be f9af bebe c740 15bd
00000100: 4ade e4bd 5f58 96bd 2bf6 0cbe b30b 8fbe
00000110: 9857 25be 24a3 68be a913 1cbd 48fd 20be
00000120: 4234 8abd 0bf6 38be 619c 78be 44ea 3e3d
00000130: 8607 863c 276c 1dbf 9e72 0fbd ad58 773d
00000140: 7270 10bf 9029 c6bd f0f3 ccbe 65f1 dbbd
00000150: f291 6c3a f5a3 ffbe c48c 6dbd e11b ee3d
00000160: a8f1 5f39 fb9f 9cbc 11b1 883d 976d f5be
00000170: 180b 7fbe 5785 d5bd b27a f0bd 36a4 bebc
00000180: 38f7 d7bd 9985 5dbf 6e11 9bbe 4d85 19be
0.029351205 -0.06479804 0.0042533297 0.06340103 0.0013504233 -0.08945697 0.07469748 0.14473802
-0.06772877 -0.12952523 -0.03787649 0.03492468 -0.12555058 0.011216531 0.15712042 -0.12712663
-0.0475047 -0.26153225 -0.12825443 -0.036378518 -0.14720888 -0.010685469 -0.06803282 -0.13984784
-0.5612349 -0.45044336 -0.027371556 0.010259071 -0.0074412394 -0.011348565 -0.29689676 -0.009735245
-0.006141055 -0.07119718 -0.8385212 -0.070917405 -0.1677511 0.16559903 -0.5820501 -0.005550208
-0.076300144 -0.040546127 0.024740722 -0.06986286 -0.04615295 -0.43870842 -0.12126189 -0.02922507
-0.004588738 -0.106361836 0.013703342 -0.06980178 0.05533055 -0.014307489 -0.054426122 -0.02662355
-0.13984546 0.015290444 -0.028242152 -0.08670878 -0.024252601 -0.28929186 -0.3724363 -0.03643873
-0.11175211 -0.07341074 -0.1376578 -0.27938613 -0.16146696 -0.22718483 -0.038104687 -0.15721619
-0.06748249 -0.18062608 -0.24278404 0.04661013 0.01636101 -0.6149315 -0.035021417 0.060387302
-0.5642158 -0.09675896 -0.4002986 -0.10739402 0.0009024433 -0.49929777 -0.057995573 0.11626411
0.00021356961 -0.019119253 0.06674398 -0.47935173 -0.24906576 -0.10425823 -0.11742152 -0.023271661
-0.105452 -0.8653198 -0.30286735 -0.14992256

hidden2.0.weight f4 [100, 100]
00000000: 1ef2 683d 924a 4abd 5b28 c43d c80d adba
00000010: 6bc9 743c f417 2ebd a7c5 253d 844c 19bc
00000020: 450d 143d 3d8a c2bd d971 cf3d 6446 f6bc
00000030: 2a73 06bd 66e0 973c d188 213d 2de1 ae3d
00000040: f6b8 92bd 6409 c7bd 78a4 aebd b409 a73d
00000050: b2ce 04bd 799f b0bb 20e2 19bd 55a2 c53c
00000060: ca54 cabc e03e d9bc 1030 213c 2008 653b
00000070: b656 023d ce89 e03d 241e e83d 6e23 b63c
00000080: a830 28bd aeba ad3d b3bb 1bbd f0e3 8bbc
00000090: 428e ddbd 9449 893c 727a c6bb e59c 9dbd
000000a0: 245c 073e 351c a33d 82d8 38bc d9e7 a3bd
000000b0: fb1a b2bc 1a76 18bd 6f67 a1bc 5796 963d
000000c0: badd 08bd baec cf3d 9dd0 ac3c cd24 1e3d
000000d0: d9f4 f7bc bdb4 96bd 7956 fdbc c026 81bc
000000e0: faea 8bbd f283 c3bc 4c14 8a3c 8fc9 ac3d
000000f0: 809b af3b be42 50bd bcc6 20bd 9ff8 533d
00000100: ab49 e53d 3b00 14bd e7f1 e0bc 679b 1b3e
00000110: 4d02 1f3d 5561 aabd 0095 91bd 27b6 28bd
00000120: c5d0 2e3d 5879 c43c 670c 1c3c 04f2 21bd
00000130: 0951 643d 9eb1 96bc 643b 99bd e4ab 8abd
00000140: 5ede 4cbd cac6 b8bd ceb0 babd 4abe 313d
00000150: a4ef f5bc 0a73 31bd 64b0 ea3d 81bc c33d
00000160: 5e98 b4bd c2df 8c3d 2259 93bb b3e0 c8bd
00000170: 88f9 ce3d f421 e3bc a0ad 4e3d 6e19 6abd
00000180: c4ad 583d 4688 35bd 86c7 1cbd f0dd c1bc
00000190: 6d4d 4f3d 5def 23bc 780a 8f3d 14b6 ffbc
000001a0: 393b 9dbd 95f1 543e e365 d4bd c3e9 8bbd
000001b0: a2bc 033c ec84 aebd 064e 393c f38f e4bd
000001c0: f5ef 133d 343a 873b b02a dfbd 41f3 36bb
000001d0: 1370 d2bd 86e4 103e d835 8e3d 12d0 6e3d
000001e0: 5e3b 98bd 3595 243b 241d abbd c644 743d
000001f0: 9507 4cbd e0ec 5f3e 548a 27bd dfe3 6e3d
00000200: 9b0b 2cbd 3f8e 91bd 31f9 9bbd d68d 623d
00000210: e998 54bd 8ac1 d13d 9b4b c0bd 5e12 363d
00000220: 9d9a cfbc c862 c5bd 7b9f e1b9 a2c5 c03d
00000230: 5d27 cdbc bb40 103c 23ff 013d 6d1a a93d
00000240: feaf c9bc a81e 42bd 953b e23d bda0 5dbc
00000250: c330 9b3c 4182 60bb e9a9 ab3c 8835 0f3d
00000260: 4e11 f7bc 9ef2 0cbc b6de c63c fd8f 713d
00000270: 15f1 9bbd f568 2cbd 1fdd 50bd 081a d13d
00000280: 618d 9bbc bd50 393d 541e b1bd 76ea 023d
00000290: f626 59bc b1fa bb3c 79df 183d 17a8 85bd
000002a0: 5c27 b73d 0fcc 3d3e 417f a5bd 1d0c f73d
000002b0: fa4a 123e 37b2 acbd ed32 3e3e e5c3 57bd
000002c0: 965a 533d 7e3a 7abd 5543 94bd a32b dcbd
000002d0: df1c dcbd 0b82 123e 5e15 3abc 14a6 053e
000002e0: 9e8e a43d bd20 373e fe3b 0ebd 1f14 b9bc
000002f0: a850 a43a 7d60 44bd 3b15 b8bd b9a8 683c
00000300: d3c4 50bd ad80 dfbd 0dfa 14bd 1613 9c3c
00000310: 3168 fd3b 5c24 44bc 7455 c6bd d3a5 263b
00000320: 0861 13bd ac16 8dbd 2396 cfbb d975 a2bd
00000330: ef5f 4bbd a553 463e a30f 78bd 2381 35bc
00000340: b2fa 7a3d 6581 aebd 26f8 913d 969f 87bd
00000350: b335 0f3d 81c6 b6bc e9fb b4bc a8b2 c7bd
00000360: eeff 39bd bcf0 54bd 8af6 87bd 46f1 59bc
00000370: 7b01 d1bc dc67 e83a 4ddf 253d 99ce e73d
00000380: f04b c63c a688 663e fb62 24bd 27ed aa3d
00000390: 51b0 b8bd 2859 e0bc 3d38 d4bc 1dc6 91bd
000003a0: f181 82bd ae57 79bd 08e1 b5bd 8077 683c
000003b0: f9ca c7bd b33e 66bd 7294 393c b674 02bd
000003c0: 88b6 81bc d6da 3b3d 7cbe 4c3d 8c34 bd3d
000003d0: cbb9 96bd 52da 1ebd 4276 bcbd d9fd 2c3d
000003e0: b837 40bc c60c 7ebd 7ce2 a3bd 4b07 473d
000003f0: f256 9dbd 4dd7 b93c fa91 c03c f606 103c
0.056871526 -0.049387522 0.0957801 -0.001320296 0.0149406 -0.042503312 0.0404717 -0.009356622
0.036145467 -0.09499023 0.101291366 -0.030062862 -0.032824673 0.018539619 0.03943712 0.085390426
-0.07164185 -0.09718588 -0.08527464 0.081561476 -0.032423683 -0.0053901044 -0.037569165 0.024125258
-0.024698634 -0.026519239 0.009838119 0.003494747 0.031820975 0.10963784 0.11333874 0.022233691
-0.041062027 0.08482872 -0.0380208 -0.017076463 -0.10818149 0.016758718 -0.006057077 -0.07695941
0.13218743 0.079643644 -0.011282088 -0.08003206 -0.02174138 -0.037222005 -0.019702641 0.07352894
-0.03341458 0.10152574 0.021095568 0.038609315 -0.03026812 -0.07358692 -0.030925022 -0.015765548
-0.068319276 -0.023866627 0.016855381 0.08436882 0.005359113 -0.0508449 -0.039252028 0.051750775
0.11195692 -0.036133032 -0.027459098 0.15196 0.038820554 -0.08319346 -0.071084976 -0.04118934
0.042679567 0.023983642 0.009524441 -0.039537445 0.055741344 -0.018395241 -0.07482031 -0.06771067
-0.050016753 -0.09022291 -0.09115754 0.043394364 -0.030021496 -0.0433226 0.11459425 0.09557439
-0.08818124 0.06878616 -0.0044967094 -0.09808483 0.10106188 -0.027726151 0.05045855 -0.057153158
0.05290009 -0.044319414 -0.038276218 -0.023665398 0.05061095 -0.010005799 0.06984419 -0.031214751
-0.076773115 0.20795281 -0.10370996 -0.06831696 0.008040579 -0.085214466 0.011310106 -0.11160269
0.036117513 0.0041268114 -0.10896814 -0.0027915987 -0.10275283 0.14149675 0.06943864 0.0583039
-0.074331984 0.0025113348 -0.083551675 0.0596359 -0.04981192 0.21867704 -0.040903404 0.058322784
-0.042003255 -0.071072094 -0.07615889 0.055311047 -0.05190364 0.10241993 -0.093894206 0.04445111
-0.02534228 -0.09637982 -0.00043034166 0.094126955 -0.025043184 0.008804495 0.031737458 0.082569934
-0.024620052 -0.047392517 0.110465206 -0.0135270925 0.01894415 -0.0034257325 0.020955043 0.03496316
-0.030159619 -0.008602766 0.024276119 0.05897521 -0.07614342 -0.042092282 -0.050992128 0.10210043
-0.018988313 0.045243014 -0.08648363 0.03196188 -0.013253918 0.022946687 0.037322495 -0.06526201
0.08943054 0.18534873 -0.080809124 0.12062857 0.14286414 -0.08432429 0.18574114 -0.052677054
0.05160006 -0.06109094 -0.07239405 -0.107505105 -0.10747694 0.1430742 -0.011357633 0.13051635
0.080350146 0.17883582 -0.03472518 -0.022592602 0.0012536244 -0.04794358 -0.089884244 0.014200383
-0.050968956 -0.10913215 -0.03637128 0.01905207 0.007733368 -0.011971559 -0.09684268 0.0025428429
-0.035981208 -0.0688909 -0.0063350364 -0.07932634 -0.049652036 0.19367845 -0.060561787 -0.011078152
0.061274238 -0.08520774 0.07127409 -0.066222355 0.03496332 -0.02231145 -0.022092776 -0.09750873
-0.04541009 -0.051987395 -0.066388205 -0.013302153 -0.025513401 0.0017731148 0.04049616 0.11318702
0.024206132 0.22513065 -0.040133458 0.083460145 -0.09018005 -0.027386263 -0.025905723 -0.07117865
-0.063724406 -0.060874633 -0.08880812 0.014188647 -0.09755511 -0.05621214 0.011326896 -0.031849585
-0.015834108 0.045862995 0.049986348 0.09238538 -0.07359656 -0.038782425 -0.092022434 0.042234275
-0.011732034 -0.0620239 -0.08002183 0.04859094 -0.07682599 0.022685671 0.023507107 0.008790722

hidden2.0.bias f4 [100]
00000000: 0c1d fabc 39c8 25be eab0 04be d42e e23c
00000010: 190f bebb 36df 14bd f6df 7ebd 9ca3 65bd
00000020: 5f6c b7bd c811 e2bc 638a 6cbd df02 aabd
00000030: 039f e23b c5b5 93be b6f9 60bd 977a 9bbe
00000040: 6195 adbd 3772 73bb 54a9 a0bd beb2 e6bd
00000050: f59f a6bc 3ed7 a9bd 8e2e 08bd 9a59 08bc
00000060: c100 85bd 110f 5abd 1b35 1fbd 8ce9 f1bd
00000070: 8902 88bd 3725 1ebe 0310 d03d 1ad9 a2bd
00000080: 622e 0abe c008 19bd 5dcf b3bd e217 babd
00000090: ef1b 37bd b9ad 173b bfd2 983c acff 90bd
000000a0: 2ae5 1ebd cca1 923d 10a8 abbd 3ca1 103d
000000b0: 66a3 47bd b372 adbd 73fd a3bd 54fc 0cbe
000000c0: fb1a d1bd a395 50bd d48e 403b 904d 5ebd
000000d0: 4b50 6cbd e0a3 dbbd ba95 a43b 55ba 0bbd
000000e0: 30e5 cebc fadb 18bc 5b69 c7bd a3ea b8bd
000000f0: 2e94 3e3d 1469 d8bd dcc2 85bd 001e 86bd
00000100: e3cc 0bbd 35fb 04be 6c09 a1bd 6269 5bbd
00000110: ce28 13be 2bb4 2abe db9b 35be 72d2 6fbd
00000120: 67d6 b4bc 1631 bbbd 481a 193c cce2 89bc
00000130: 8cf1 a4bc 702c 7bbd 641a 18be ee92 2bbc
00000140: 83db 0abe d090 2cba dc9a 9cbd f0c2 0abe
00000150: 7dbf 3abd 5e9c 8dbc 3e3f bbbd b9d3 b8bd
00000160: 0055 77bd 15a9 12be aab5 0cbe 898c 813c
00000170: 45b7 e8bd 6bb0 47bd 9074 25bb 73d2 92bd
00000180: 011e 31bc 50f0 a3bd 4885 49bb 92ef 04bd
-0.030531429 -0.1618966 -0.12958112 0.02761022 -0.0058001396 -0.036345683 -0.062225305 -0.056064233
-0.08956217 -0.02759637 -0.057749163 -0.08301329 0.0069159283 -0.28849617 -0.054925643 -0.30366966
-0.084757574 -0.0037146935 -0.07844797 -0.11264561 -0.020339945 -0.08293007 -0.033247523 -0.008322144
-0.064942844 -0.053237025 -0.038869005 -0.11812124 -0.066411085 -0.15443884 0.10159304 -0.07951565
-0.13494256 -0.03736186 -0.08779786 -0.090865865 -0.044704374 0.0023144318 0.018655179 -0.070800155
-0.038792767 0.071597666 -0.08381665 0.035310015 -0.048739813 -0.08469143 -0.08007326 -0.1376813
-0.10210224 -0.050923955 0.0029382007 -0.054273188 -0.05769376 -0.10724616 0.0050227316 -0.034113247
-0.02525577 -0.00932979 -0.09736892 -0.090291284 0.046528034 -0.10566917 -0.06531307 -0.06548691
-0.034130942 -0.12986453 -0.07863125 -0.053567298 -0.14371035 -0.16670291 -0.17735235 -0.058550306
-0.022074891 -0.09140222 0.009344645 -0.016831778 -0.02013471 -0.061321676 -0.14853817 -0.0104720425
-0.135603 -0.0006582858 -0.076467246 -0.13550925 -0.045592774 -0.017286476 -0.09142922 -0.09024758
-0.060383797 -0.14322312 -0.13741174 0.015814083 -0.11363081 -0.04875223 -0.0025246479 -0.07169046
-0.010810376 -0.0800482 -0.0030749608 -0.032455035

hidden3.0.weight f4 [100, 100]
00000000: 4fb1 bfbc 20c9 a5bc d903 80bd c035 c0bd
00000010: 4b8d e9bd a0a6 903c 3338 61bd 2fb9 efbc
00000020: 51e6 c9bd 2af5 b3bb 5221 66bc 02a2 c43c
00000030: 323c 9bbd aff4 1d3d bcb6 febd a115 36bc
00000040: f0a3 d4bc 6564 edbb d3cf 8d3d cf5a edbd
00000050: ec18 813c b643 0ebd 2e02 3cbd 2db5 5f3d
00000060: 491c 2cbd 6202 f0bd fc36 963d 084f 9b3d
00000070: 5841 f63d 52e3 a8bd d624 9bbd dae5 2f3d
00000080: 04be 2fbd ac59 7d3d 19e4 2b3c 44e2 d13d
00000090: d357 f83c 68a3 8bbd 48cc 7b3d 6ea2 763d
000000a0: fb42 c7bc c7a9 be3d 28c1 0b3d 3e38 a23d
000000b0: 0a73 a1bd a819 08bd f351 feba 4c04 a23d
000000c0: e1a2 39ba 17bf acbc 34ab 11be 3f11 0cbc
000000d0: f63c 37bd c5d6 9e3d 943c b33c 83d8 803c
000000e0: 628d 80bb 0f1a c63d 647a aa3d 0482 7f3d
000000f0: b985 8fbd fdd1 b03d f80a c2bd fead 19bd
00000100: d825 38bd 09d2 f63c c664 6b3d da44 62ba
00000110: 1f7d aebb caa0 373d 1fbe bebd 60d3 0abd
00000120: 3dee d53d 2a7a e3bd ab0f 403d aa09 643a
00000130: 3089 403d 0e29 a4bb aa46 e53b 116b 553c
00000140: bf07 f3bb 58c9 e13c 6188 84bd badc 3636
00000150: 1d71 b6bc 35e8 8f3d 4a82 893d a376 8b3c
00000160: 2af2 9e3d 8cab 853d 21dd 76bd f2c3 7f3d
00000170: 99dd f13b 72a6 b33d 375b 583d ceca 2bbd
00000180: a2bd 653d 064f 1c3c cd1a 96bb 59d6 d6bd
00000190: 94ff b0bc 0a1f 2d3c f1d7 68bd f723 8d3d
000001a0: eb9f 883c 94ed 803d f177 003d fd32 b1bd
000001b0: f64a acbb b4da 913d 182e 1e3c 1fcc b2bc
000001c0: f3e2 8fbc e649 103d 20e9 4bbd 25e8 6ebc
000001d0: 1a53 343d cbed 10bd e4ed db3c 1e75 1c3d
000001e0: c824 5d3d e862 c8bd 3999 b0bc 798d 1abd
000001f0: 1d03 e73b 1204 f03c adeb debc 38f9 65bd
00000200: 1382 89bd 4e47 c43d d1d6 903d 5d5d 103d
00000210: 5765 a8bd fe8e 953c 2836 91bd 8947 3fbd
00000220: 24a3 9c3d 74b9 adbd c25d 81bd 57a3 af3c
00000230: a13c d3bc eedc 9bbd d41e babd 639e c53b
00000240: c07b c4bb 5466 6bbd edfe f03c ff71 903d
00000250: 7443 16ba e725 a3bd c939 56bc 6844 00bd
00000260: 0eba 373d 3daa cabd 34bf 8cbd ac87 dcbd
00000270: ede4 c9bc 86a7 853d f57c d1bd 3143 a2bd
00000280: a598 ba3c 1f90 f5bc 1abf 96bd 3893 213d
00000290: cc09 03be 1588 82bd 74fb ce3c 18ab 8d3d
000002a0: 46e2 a5bc 741c 643d f747 963b 1edc 313d
000002b0: 090d 9dbd 0bd3 b73d 0108 26bd a19a 82bb
000002c0: 3334 42bd 3f7d fdbc aade c93d 9a37 53bd
000002d0: ead7 7abd eb71 f2bc 58a6 4f3d 30c9 92bd
000002e0: a4a3 e0bc d940 173d 2b71 84bd 37b7 9fbd
000002f0: 20f7 8f3d 5605 95bd b247 3fbc 4adf c33b
00000300: 7aa6 f6bc 7437 3cbd e232 163d 4405 5b3d
00000310: 9b5c a8bd a49e bcbd 0d41 793d 1dce 553d
00000320: b1b5 8cbd cc7c 953d 5ea7 adbc a4f3 9fbc
00000330: 596c e03d a743 81bb 7964 b13c db7b d33d
00000340: e4e9 80bc 7278 0dbd a449 a93d 9f6a d1bd
00000350: 6562 9b39 10fe 41bd ca4e 623c cdc8 a5bd
00000360: 7c67 e7bc 27c0 50bd 7979 e1bd a07b 813d
00000370: ccdb 193d e1fe 11be 6005 07be 4652 b0bd
00000380: 3026 28bd bf11 ea3d b4fa 03be c08f 043e
00000390: fa27 0d3c 738b 1d3d d1b4 32bc ece0 b6bd
000003a0: 3415 0bbe edba e03d ca49 e0bc 2648 93bd
000003b0: 9918 e0bc a627 8e3d 9dc4 293b 44f1 33bd
000003c0: 40c2 8bbc 6bd6 4f3c ea3d 82bd 4e7a 05be
000003d0: ddee 81bd 97e9 93bc 5559 c3bd 9fe4 dabb
000003e0: e662 0abd 96a0 abbc 7497 513d 303a 0d3d
000003f0: 43a5 b5bd 1d31 183d 2071 c13d fb5f aabc
-0.023399977 -0.020237505 -0.06250734 -0.09385252 -0.114039026 0.017657578 -0.054985236 -0.029263107
-0.098583825 -0.0054918723 -0.01404603 0.024003033 -0.07579841 0.038563427 -0.124371976 -0.011113555
-0.025957078 -0.007244634 0.06924405 -0.11589586 0.015758954 -0.034732543 -0.045900516 0.054616142
-0.042019162 -0.117192045 0.07334706 0.075834334 0.12024182 -0.08246483 -0.07575385 0.042943813
-0.042905822 0.061853096 0.010491394 0.10248235 0.030315315 -0.06818277 0.061474115 0.0602135
-0.024323931 0.09309726 0.034119755 0.079208836 -0.0788327 -0.033227593 -0.0019403085 0.07910976
-0.0007081461 -0.021087212 -0.14225465 -0.008549034 -0.04473587 0.07755808 0.021879472 0.01572824
-0.003923104 0.09672939 0.083241254 0.062379852 -0.070079274 0.08633802 -0.094747484 -0.037519448
-0.044957966 0.03012945 0.057469152 -0.00086314755 -0.005324974 0.044831075 -0.093136065 -0.03389299
0.10445831 -0.11107285 0.046889942 0.000869895 0.047005832 -0.005009777 0.006996949 0.013026015
-0.007416695 0.027561828 -0.06471325 2.7248593e-06 -0.022270733 0.07026712 0.06714304 0.017024344
0.07761033 0.065268606 -0.06026948 0.062442727 0.007381153 0.08771981 0.052821364 -0.041941456
0.05608905 0.009540325 -0.0045808316 -0.10490102 -0.021606244 0.010566482 -0.056846563 0.068916254
0.016677817 0.062953144 0.031364385 -0.08652303 -0.0052579595 0.071217924 0.009654544 -0.021825848
-0.017564273 0.035226725 -0.049782872 -0.014581715 0.044024564 -0.035383027 0.026846834 0.03819763
0.053990155 -0.0978449 -0.021557437 -0.037732575 0.0070499317 0.029298816 -0.027211988 -0.056145877
-0.06714263 0.09583913 0.07072223 0.03524529 -0.08222454 0.01825666 -0.070904076 -0.04669908
0.07648304 -0.08482638 -0.06316711 0.021440191 -0.025785746 -0.07610498 -0.09087911 0.006030844
-0.0059961975 -0.057470635 0.029418433 0.07052993 -0.0005732097 -0.07966214 -0.0130753005 -0.031315237
0.04485517 -0.098957516 -0.068724066 -0.10768065 -0.024645293 0.06526093 -0.10228912 -0.07922972
0.022777865 -0.029975949 -0.073606685 0.03944704 -0.12796706 -0.06373612 0.025266387 0.06917399
-0.020249497 0.055691198 0.0045862156 0.04342281 -0.07668502 0.089758 -0.040534977 -0.0039857184
-0.047413062 -0.030943511 0.09856923 -0.051566698 -0.061241068 -0.029595336 0.050695747 -0.0716728
-0.02742178 0.036927078 -0.064668976 -0.07798617 0.07029557 -0.072764084 -0.011674808 0.005977546
-0.03010868 -0.04595132 0.03666962 0.05347182 -0.08220788 -0.09209946 0.060853053 0.052198518
-0.068705924 0.07299194 -0.021197971 -0.019525357 0.10958166 -0.0039448324 0.021654354 0.10326358
-0.015736528 -0.034538694 0.08265999 -0.102254145 0.00029637213 -0.047361434 0.01381273 -0.0809494
-0.028247587 -0.0509645 -0.11009497 0.06322408 0.03756313 -0.14257385 -0.13185644 -0.086094424
-0.041052043 0.11429166 -0.12888604 0.12945461 0.008615488 0.038463067 -0.010907368 -0.08929619
-0.13582307 0.10973153 -0.027378935 -0.071914956 -0.02735548 0.06941156 0.0025904544 -0.04393126
-0.017060399 0.012685399 -0.063594654 -0.13034937 -0.06344388 -0.01805572 -0.09538523 -0.006680086
-0.033785723 -0.020950597 0.051169828 0.03447932 -0.08869412 0.037156213 0.09445405 -0.02079772

hidden3.0.bias f4 [100]
00000000: 06bb bd3d 28b3 503e 8341 283e 4b3f 6f3e
00000010: 0674 4fbd d7ae 31bc 2614 11bc d445 f83d
00000020: d6cf cc3d 7cb8 d23d fe0b 4bbd da12 0e3e
00000030: 262f ae3d d7de 54ba 2dc8 2bbe 0659 d1bc
00000040: c415 43bd 758d 0a3e 1a42 0abd b43a 483e
00000050: 2580 b73d 02ec acbd 09aa 66bd 52ab 083e
00000060: ee61 b6bc b6a0 90bd 89f9 1d3e 95bf b83d
00000070: 7bd0 173e cd3a a3bc ae7f 9d3d 280d 823e
00000080: 544b 423e 1e66 323d e968 75bd bfc4 a83d
00000090: 5091 06be 38dc c53d ce5e 463e 5632 463e
000000a0: 7d70 7bbe a18e e43d d399 d53d 8a4d 59be
000000b0: 547b 22be 6e2e 573e 8685 9f3d 9d8e 333e
000000c0: 7fb4 c2bd bf19 243c 0337 c23d 1227 373e
000000d0: 906a 303e fb39 903d 1107 053e e9b7 403e
000000e0: 8157 463d 2b80 303e a628 823e c9dc 273e
000000f0: 29f1 f93d 08e2 13be d7c2 de3c 2c97 2d3e
00000100: 92f7 fc3d 3071 4d3b 28f8 043e 2bb8 d83d
00000110: 37a4 2a3e de3f c8bc 50ea ec3d ae6c 0c3e
00000120: 2aaf 4c3e a7a9 b3bd ba5f 813e e07f 213e
00000130: a713 e33d 7746 923e 835a dbbd f608 883d
00000140: 204f 5c3e 3428 bf3d ef4d 643e b6f5 d13d
00000150: 21c6 cf3b a60e f83d f4a8 bc3d 049b 5fbc
00000160: 076d 19be 7e4a cc3d 3c9c 4f3e 6d55 a83d
00000170: c6b7 243e f2ba 643e e02f 003e 45ec 383e
00000180: 6ac7 263e 3c7e 873c b835 283e 56b4 223e
0.092641875 0.20380843 0.1643124 0.23363988 -0.050647758 -0.010844908 -0.008854901 0.12122694
0.10000579 0.10289094 -0.049571984 0.13874379 0.085050866 -0.0008120364 -0.1677558 -0.025555145
-0.04762818 0.13530524 -0.033754446 0.19553643 0.089599885 -0.084434524 -0.056314502 0.13346604
-0.022263493 -0.07061903 0.15427221 0.090209164 0.14825623 -0.0199255 0.076903686 0.25400662
0.18974048 0.043554418 -0.059914503 0.08240651 -0.1314137 0.09661144 0.19372103 0.19355139
-0.2455463 0.11160017 0.1042973 -0.21220985 -0.15867358 0.21013805 0.077891394 0.17534871
-0.09507083 0.010015904 0.09483149 0.17885998 0.1722815 0.07042309 0.12990977 0.18820156
0.048423294 0.17236392 0.25421637 0.16392817 0.12204201 -0.14441693 0.027192516 0.16952199
0.12351908 0.0031347983 0.12985289 0.10582002 0.16664205 -0.024444517 0.11568129 0.13713333
0.19988695 -0.08772593 0.25268346 0.15771437 0.11087733 0.28569385 -0.10710623 0.06642334
0.21514559 0.0933384 0.22295354 0.10251944 0.0063407575 0.12112169 0.09211913 -0.013647798
-0.14982997 0.09975146 0.20274442 0.08219419 0.16085729 0.22336939 0.12518263 0.1805888
0.16287008 0.016539685 0.16426742 0.15889105

output.0.weight f4 [10, 100]
00000000: 222e 9fbd 78a8 adbc 6d0f a83c f09c 003b
00000010: 3b3b 503c 3dd5 95bd bd37 17bd 6ffb 85bd
00000020: 1030 9abd 4abb 5abd f143 a4bd d45d 3ebd
00000030: 08d1 b3bd 586a 623d f5ed 403c 1462 cabd
00000040: fe33 a9bd 50d6 58bd b607 203d e114 f53c
00000050: ca2f 7ebd 2f72 703d 2a0a 9bbc d53e 23bd
00000060: 0f60 06bc a1e0 b13d c942 05bd 04e0 81bd
00000070: 1107 89bd f07d f93b 9417 503c d083 803b
00000080: 9d47 b5bd d2f8 c7bd 20c8 ddbc 1d0d ccbd
00000090: e7c7 753d 8a56 5cbd 7dbc 3e3b 2cee 30bd
000000a0: fe9e 1abf 38db cabd a6d8 17be f283 1a3d
000000b0: 59d2 74bc fc43 fdbc 1cae 64bd 570a 9c3c
000000c0: a0a2 03bd d8b9 64bc 97e2 67bd d380 c8bd
000000d0: e9e9 26bd 7540 b3bd 73e2 11be 4acc 623c
000000e0: 88a8 c43c d331 4dbe d6ee 93bd d984 e8bd
000000f0: c0f9 e6bc 1ec3 84bd 415d 8e3d cd03 70bd
00000100: 48f3 2abe bb0b 6abd 3c1b 86bd aa86 9abd
00000110: f0c9 ddbb faa1 6dbd 16b1 d93b 1e91 bfbd
00000120: f0f6 1cbd 185f b53c e43e 20bd b493 393c
00000130: 82a0 81bd 1552 ce3c 3ec9 553c 3a2c 223d
00000140: 3885 d7bd e6e6 d4bb 364e 04bd fbc2 78bd
00000150: 0442 733c cffa f1bd 4811 5fbd beff a0bd
00000160: cc19 80bc 6027 51be 11b5 7fbd 287c fdbc
00000170: 6fbf 463c a21c 62bd b239 e63c 4413 21bd
00000180: fc32 ebbb c038 67bc 889b 92bd 5cc3 a8bc
00000190: e57b 70bd ce4c 96bd 7a23 d3bc 1d13 99bd
000001a0: 4582 bbbd 885d b1bd e3f8 95bd c8f0 04bd
000001b0: feae 3d3d c653 423c 6a78 213d 9062 acbd
000001c0: 4387 0a3c 7d75 59bd c4fe 8d3d ddb3 1dbc
000001d0: 80ae 6a3d 53ef 293d 4290 a6bd 7187 4cbd
000001e0: aee3 fdbc c449 04bd 35eb 54bd c3fa 21bd
000001f0: 5275 873c bf67 c63d 2f87 b2bd 1f81 a03c
00000200: b3c4 ccbd 4681 45bd 49b0 b8bd 5163 ab3c
00000210: 10cd 893d 488f dbbc 8f34 a73d f111 9cbc
00000220: 5661 aa3d 3e32 09be bfc7 d8bd f606 eebd
00000230: 7221 42bc aa99 02bd 601e 80bd dcdb 5d3c
00000240: 8e61 743c 5ee6 963d c290 823c 339d a3bd
00000250: b4c3 083c 7f52 873d f1b4 a33c 1a24 3bbb
00000260: e0ec 20bd 6b55 abbc aaa9 08bd 3862 0ebd
00000270: 05ef 3e3d 8492 4cbd 0725 0e3d c188 11bc
00000280: 538a ffbc ccbe 363b e72c d0bd d4e4 ac3c
00000290: f276 80bd 8735 acbd 215b c7bc 81b6 9ebd
000002a0: 92f1 01bd 3267 1bbd 836f b83c 28f8 3dbd
000002b0: 17c2 ebbc 53a6 933d fd64 07bd fb9e 91bd
000002c0: 8e24 783c 1a23 0b3d 1e94 74bd e228 e8bd
000002d0: bf29 a1bd 683f 773c 10b4 6bbd c8bb 84bd
000002e0: d79c 9dbd d4ec 95bd 8e17 893c ee24 82bb
000002f0: fef7 8c3d b10b 88bd a809 d4bd 4d0a f8bc
00000300: 388a 85bd 13f4 df3b 52b8 083c 077d 243b
00000310: 8c70 fe3c c48c 3db9 f79d 3fbd 824f 7f3a
00000320: 49ee 14bf 4387 c7be 0b8a 33bc 989b e2bb
00000330: 16cd 91bd 4fec aabd 9ddc b4bd 7cb9 67bd
00000340: 21e1 3b3d f530 94bd da4b f43c 1d82 4cbb
00000350: 5cc1 20bc 2e3a fdbb 3a8b 963c c00b 293c
00000360: 68a1 d5bd 8e34 843c 2eaf c1bd 2ac3 723c
00000370: 7954 6c3d 7233 883c 46a5 81bc 9fb8 39be
00000380: 9651 24bd 671d 60bd 8278 febe 6713 fdbc
00000390: d331 73bc 75f7 78bc 20a3 4f3d d1a2 9abd
000003a0: bcba 47bd a4f2 05bd 8d0c 56bd 63e9 42bd
000003b0: 789b 8c3c 4b4b 24bd e067 c63c ebf4 a0bd
000003c0: a367 f7bd 3538 5cbe 7a20 fcbc 438b 58bd
000003d0: f769 98be 25bc a1bb 4b63 c5be e0d2 b1bd
000003e0: 4f01 b23a ca5d 8ebb b660 d2bc 1e73 95bd
000003f0: 7f38 ffbd 00ef 09be f372 fbbe 6c6c 9fbe
-0.07772471 -0.021198496 0.020515168 0.0019624792 0.012709434 -0.073160626 -0.03691839 -0.06542098
-0.075286984 -0.05340127 -0.08020771 -0.0464762 -0.08780104 0.0552772 0.011775483 -0.09881988
-0.0826187 -0.05293876 0.039069854 0.029917182 -0.062057294 0.058702644 -0.018925745 -0.039854843
-0.008201613 0.08685423 -0.032534394 -0.06341556 -0.06690801 0.00761389 0.012700934 0.0039219633
-0.0885155 -0.097642556 -0.027072966 -0.09963439 0.060005095 -0.053793468 0.0029104047 -0.04319589
-0.6039885 -0.09905094 -0.14828739 0.03772349 -0.014942729 -0.030916207 -0.055830106 0.0190479
-0.032137513 -0.013960324 -0.056612577 -0.09790196 -0.040750418 -0.087525286 -0.1424654 0.013842652
0.024006143 -0.20038538 -0.07223289 -0.11353464 -0.028195262 -0.06482528 0.069513805 -0.058597375
-0.16694367 -0.057140093 -0.06548163 -0.075452164 -0.0067684576 -0.0580158 0.0066434247 -0.09353851
-0.038321435 0.02214007 -0.039122477 0.011326719 -0.063294426 0.025185624 0.013048468 0.03959296
-0.10523456 -0.006497252 -0.03230115 -0.060732823 0.014847282 -0.11815416 -0.05445984 -0.07861279
-0.0156373 -0.20425177 -0.062428538 -0.030942991 0.012130602 -0.055203088 0.028103683 -0.039325014
-0.0071777087 -0.014112651 -0.071585715 -0.020600967 -0.058711905 -0.07338868 -0.025773752 -0.07474349
-0.09155706 -0.08660418 -0.07322862 -0.03245619 0.046309464 0.011860793 0.039421476 -0.08417237
0.0084551005 -0.05309056 0.06933358 -0.009625402 0.057295322 0.041488003 -0.08132984 -0.049933854
-0.030992355 -0.03229691 -0.051982123 -0.039545786 0.016535435 0.09687757 -0.087171905 0.01959282
-0.09998455 -0.048218988 -0.09017999 0.020921381 0.06728566 -0.02680172 0.08164322 -0.019051524
0.083193466 -0.13398072 -0.105849735 -0.116224214 -0.011848794 -0.031884827 -0.062557936 0.013541188
0.014915837 0.07368158 0.015938167 -0.07988968 0.0083474405 0.06607532 0.01998374 -0.0028555454
-0.0392884 -0.020914754 -0.03336493 -0.034761637 0.046614666 -0.049944416 0.03470328 -0.008882702
-0.031193888 0.002788472 -0.101648144 0.021105208 -0.06272687 -0.08408647 -0.024335446 -0.077496536
-0.03172452 -0.03794021 0.02251411 -0.04637924 -0.028779073 0.07209458 -0.033055294 -0.07110401
0.015145434 0.033969022 -0.059711568 -0.11335923 -0.078692906 0.015090801 -0.057544768 -0.06481129
-0.076959305 -0.07320562 0.016734865 -0.0039716875 0.06883238 -0.06642855 -0.10353404 -0.03027835
-0.06520504 0.006834516 0.008344727 0.0025098936 0.031059526 -0.00018076884 -0.046781506 0.00097393256
-0.58176094 -0.38970384 -0.010958205 -0.006915521 -0.07119195 -0.083458535 -0.08831141 -0.056573376
0.045868997 -0.072359 0.029821325 -0.0031205483 -0.0098117255 -0.007727883 0.018376935 0.010317743
-0.104311764 0.016138341 -0.09457241 0.014817039 0.057697747 0.016626094 -0.015825879 -0.18136834
-0.04011687 -0.05471554 -0.49701315 -0.03089304 -0.014843422 -0.015195717 0.050692677 -0.07550586
-0.04876207 -0.032702103 -0.052258063 -0.047585856 0.017163977 -0.040110867 0.024219453 -0.078592144
-0.12080314 -0.21505816 -0.030777205 -0.052867185 -0.29768345 -0.0049357587 -0.38552317 -0.08682799
0.0013580712 -0.0043446766 -0.025680881 -0.072973475 -0.12461948 -0.13470078 -0.49111137 -0.31137407

output.0.bias f4 [10]
00000000: bb9b bbbe b37c 9cbe d28a d5be 8ba7 f03e
00000010: 4b86 97be 220b b4be 10a1 ef3e cabe e23e
00000020: 2bd8 b43e e720 c2be
-0.3664225 -0.30563888 -0.41707474 0.47002825 -0.29594645 -0.35164744 0.46802568 0.44286186
0.35321173 -0.37915727

normised.weight f4 [10]
00000000: 5ae3 7c3f e8c8 753f 0ab3 7c3f a47b 933f
00000010: 9874 773f 554c 753f d9fe 823f 34b5 b63f
00000020: 78d5 783f 9482 793f
0.9878441 0.96009684 0.9871069 1.1522107 0.9666228 0.958196 1.0234023 1.4274049
0.9720073 0.9746487

normised.bias f4 [10]
00000000: 42ed ae3d 7655 5c3e 1ffa ba3d 1991 e7bd
00000010: e78c 923d 919f 6cbb 17f3 08be cc9e 00be
00000020: a273 35be 02e0 b73d
0.08541347 0.21516976 0.09129738 -0.11306972 0.07155781 -0.0036105851 -0.13373981 -0.12560576
-0.17719892 0.08978273

normised.running_mean f4 [10]
00000000: 0400 0000 0400 0000 0400 0000 6ec2 5c3d
00000010: 0400 0000 0400 0000 2809 573d d17b 4c3d
00000020: ef0f 353d 0400 0000
6e-45 6e-45 6e-45 0.05389636 6e-45 6e-45 0.052498966 0.049922768
0.04420465 6e-45

normised.running_var f4 [10]
00000000: 0400 0000 0400 0000 0400 0000 2dbe 933d
00000010: 0400 0000 0400 0000 2874 8b3d f901 583d
00000020: 070e 163d 0400 0000
6e-45 6e-45 6e-45 0.072140075 6e-45 6e-45 0.068092644 0.052736256
0.03663447 6e-45
