General/Code/Models/FCN_batchnorm2-MaSS-lr-0.005-acc-96.47 epochs-150.pth (torch, 404606 bytes, 12 tensors)

hidden1.0.weight f4 [100, 784]
0.030610431 -0.030590454 -0.033596184 0.027764853 -0.0076459385 0.023431253 0.01700091 -0.017624676
0.016244441 -0.030457107 0.008330524 -0.02941198 0.017932974 0.007974216 -0.020919733 0.033246536
-0.02329565 0.024399333 -0.012596166 0.030683223 0.015789751 -0.007617279 -0.014017684 0.00368148
0.022318061 0.02707364 -0.030102331 0.028999921 -0.02976625 -0.029953182 0.0025904216 0.02603313
0.029457785 -0.0005957814 -0.0036071946 0.0022021516 0.009244482 0.012751719 0.0012655122 -0.0067446944
0.03338008 0.0287415 0.023340836 -0.0057739327 -0.001079379 0.032117136 0.011918705 0.022686727
0.009341566 -0.009783454 0.0051889173 -0.009384242 -0.017870234 0.012941565 0.011945579 0.0034752674
0.01598075 0.033968184 0.005010116 -0.019166874 -0.020446345 -0.029915083 0.008968267 0.02797691
0.01435352 0.015707342 -0.009017483 0.0040055523 -0.017020334 -0.012937838 0.008582035 -0.0071397563
0.0041892896 0.025066204 -0.03269791 0.008370342 0.004743497 0.01195953 0.016759101 -0.027784891
-0.008064403 0.0014079361 -0.0049305493 0.016799618 -0.025743932 -0.013696261 -0.029412411 0.03049904
-0.010471438 0.037441995 0.03236726 0.018629935 0.01806233 0.009254484 0.061406076 0.003773983
-0.014998491 -0.010379076 0.052544773 0.0030851902 -0.023841111 -0.0036312994 -0.013560957 0.032056335
0.02832981 -0.007400697 0.041471284 0.009710113 0.027160605 -0.0016198944 -0.019561417 0.0045403466
0.015193101 -0.030785052 -0.0027285242 0.033284947 0.025597764 0.027357632 0.03268327 0.0035916804
-0.0064191897 0.036590535 0.024583792 -0.0712866 -0.030658027 -0.0074724867 -0.061229296 -0.05632903
-0.0014491894 -0.021302775 -0.041943386 -0.0074407053 0.060139462 0.039814513 0.042046636 0.07711686
0.026357759 -0.020781396 0.014392761 -0.03238853 -0.006932536 0.0024932814 -0.03180137 0.005489015
0.029131247 0.0031120784 -0.033221778 0.005511808 -0.0148220975 0.024344737 0.02012679 -0.07714956
-0.04402657 -0.06603475 -0.0042175655 -0.037807766 -0.020862294 -0.011313558 0.024677118 -0.027632564
-0.03606528 0.022330208 0.030268118 0.051826496 0.014880621 -0.007871766 0.0098289065 -0.018551862
0.015719462 0.02800377 0.020647671 0.012899876 -0.0035348306 0.033282448 -0.03301755 0.013151036
-0.011180085 0.0017925913 -0.07178428 -0.060872413 -0.110117175 -0.082167506 -0.0760169 -0.049283694
-0.06396417 -0.018678853 -0.059017327 -0.076557815 -0.072278164 -0.07433406 0.019511923 0.08772797
0.040290043 -0.012164778 -0.0049395403 0.0054857945 0.028339755 0.025490206 0.0018520051 0.007643942
0.022581918 -0.009625037 -0.0045353356 0.01140761 -0.0029091036 -0.0239974 -0.07719893 -0.026464267
-0.107742295 -0.06780939 -0.022165438 -0.05901065 -0.04120591 0.011712617 -0.06737952 -0.13235311
-0.09250758 -0.058099832 -0.02919605 0.052100513 0.0589636 -0.019467283 0.021139001 -0.012709669
0.03339228 0.02723747 0.0040514674 -0.02628254 -0.030915815 0.004201436 -0.03255354 -0.014163015
-0.0082753645 0.0052251485 -0.05282283 -0.04335751 -0.040262483 -0.061145402 -0.108408205 -0.0018275559
-0.07198521 -0.053835984 -0.09759296 -0.0771199 -0.045867097 -0.07774459 -0.050571065 -0.033952806
-0.032822587 0.004890603 0.0013261699 0.0017284025 0.00673569 -0.029549118 -0.0020119133 -0.026486842
00000000: bac2 fa3c d598 fabc 279c 09bd 1e73 e33c
00000010: c88a fabb e6f2 bf3c 7e45 8b3c a061 90bc
00000020: 1013 853c 2f81 f9bc c07c 083c 65f1 f0bc
00000030: 2ce8 923c 49a6 023c dc5f abbc 852d 083d
00000040: 85d6 bebc 1ce1 c73c 2660 4ebc 625b fb3c
00000050: 8259 813c 5e9a f9bb 6eaa 65bc fc44 713b
00000060: 5ed4 b63c 8ac9 dd3c 2a99 f6bc 3e91 ed3c
00000070: 5ad8 f3bc 6060 f5bc 10c4 293b 6e43 d53c
00000080: 7451 f13c 372e 1cba af66 6cbb f951 103b
00000090: 2b76 173c 96ec 503c 8bdf a53a 9902 ddbb
000000a0: 8db9 083d 4b73 eb3c 4835 bf3c 4233 bdbb
000000b0: f379 8dba 428d 033d ac46 433c 84d9 b93c
000000c0: 5e0d 193c c84a 20bc cb07 aa3b 5dc0 19bc
000000d0: 9964 92bc dc08 543c 64b7 433c 50c1 633b
000000e0: 10ea 823c 3922 0b3d e62b a43b d903 9dbc
000000f0: 187f a7bc 7a10 f5bc a3ef 123c d52f e53c
00000100: 072b 6b3c afac 803c 11be 13bc 0241 833b
00000110: 3a6e 8bbc 3af9 53bc aa9b 0c3c 9ef4 e9bb
00000120: 4f46 893b a457 cd3c 3eee 05bd c223 093c
00000130: 566f 9b3b e8f1 433c 624a 893c 249d e3bc
00000140: 8f20 04bc 7f8a b83a 7290 a1bb 5a9f 893c
00000150: f0e4 d2bc 4866 60bc 4cf2 f0bc 1fd9 f93c
00000160: 6590 2bbc c75c 193d 8893 043d ce9d 983c
00000170: 74f7 933c 1fa0 173c f084 7b3d ee54 773b
00000180: 3bbc 75bc 000d 2abc 3039 573d e730 4a3b
00000190: 6f4e c3bc 18fb 6dbb c72e 5ebc 814d 033d
000001a0: eb13 e83c 8c81 f2bb cbdd 293d 2a17 1f3c
000001b0: eb7f de3c a352 d4ba 443f a0bc 30c7 943b
000001c0: 7cec 783c ef30 fcbc 0ad1 32bb cc55 083d
000001d0: 67b2 d13c 1d1d e03c e4de 053d 6662 6b3b
000001e0: 1158 d2bb f5df 153d f363 c93c b5fe 91bd
000001f0: 8b26 fbbc c3db f4bb 92cb 7abd 45b9 66bd
00000200: baf2 bdba 2883 aebc d4cc 2bbd 29d1 f3bb
00000210: cc54 763d 8b14 233d 1839 2c3d 72ef 9d3d
00000220: 3aec d73c bf3d aabc 9dcf 6b3c d6a9 04bd
00000230: 542a e3bb 5266 233b 2742 02bd 32dd b33b
00000240: a7a4 ee3c 03f4 4b3b 8f13 08bd 669c b43b
00000250: 62d8 72bc 9d6e c73c f0e0 a43c 9700 9ebd
00000260: 3455 34bd 3a3d 87bd 8133 8abb 51dc 1abd
00000270: 67e7 aabc 805c 39bc ab27 ca3c b05d e2bc
00000280: 30b9 13bd d7ed b63c d8f4 f73c 0548 543d
00000290: d9cd 733c 94f8 00bc 6c09 213c 13fa 97bc
000002a0: 1ac6 803c 2a68 e53c 4e25 a93c 005a 533c
000002b0: 9ea8 67bb 2d53 083d 693d 07bd 7177 573c
000002c0: ad2c 37bc 62f5 ea3a a303 93bd 5a55 79bd
000002d0: 1d85 e1bd 7047 a8bd c0ae 9bbd b3dd 49bd
000002e0: a6ff 82bd 6504 99bc 27bc 71bd 58ca 9cbd
000002f0: 9306 94bd 753c 98bd 78d7 9f3c b9aa b33d
00000300: 2c07 253d c74e 47bc dedb a1bb 2ec2 b33b
00000310: c628 e83c d6d0 d03c fbbe f23a 087a fa3b
00000320: b7fd b83c 55b2 1dbc 279d 94bb fce6 3a3c
00000330: a9a6 3ebb 3296 c4bc 791a 9ebd 97cb d8bc
00000340: fea7 dcbd a6df 8abd 4b94 b5bc 27b5 71bd
00000350: 87c7 28bd 47e6 3f3c 46fe 89bd 9387 07be
00000360: 9d74 bdbd 17fa 6dbd 8e2c efbc 5967 553d
00000370: d183 713d da79 9fbc b32b ad3c 373c 50bc
00000380: 58c6 083d 1d21 df3c 2cc2 843b 7b4e d7bc
00000390: 2a43 fdbc 33ac 893b dc56 05bd fe0b 68bc
000003a0: 6595 07bc b937 ab3b c05c 58bd a597 31bd
000003b0: 46ea 24bd 9a73 7abd 1f05 debd 9a8a efba
000003c0: fb6c 93bd 1f83 5cbd d1de c7bd 0af1 9dbd
000003d0: 23df 3bbd 8e38 9fbd 9b23 4fbd 1912 0bbd
000003e0: fa70 06bd 5a41 a03b e1d2 ad3a 908b e23a
000003f0: 10b7 dc3b fe10 f2bc 4eda 03bb effa d8bc

hidden1.0.bias f4 [100]
0.024940545 -0.20333084 -0.15900017 -0.107203156 -0.25352326 -0.068430975 -0.06321588 -0.06104316
0.018373616 -0.13152716 -0.18511194 0.10414853 -0.09214792 0.2086622 -0.014136446 -0.13326754
0.06374153 -0.035798486 -0.022177534 -0.0246466 -0.09770589 -0.049828365 -0.1733242 0.07223303
0.06989932 0.0031460354 -0.23921295 -0.03043528 0.045375526 0.0611565 -0.4088793 -0.1762315
-0.012186922 0.09757581 -0.06576329 -0.18365201 -0.05843359 -0.07123376 0.0043524317 0.15194336
0.031496268 -0.045632605 -0.13743752 -0.32614666 0.09229842 -0.13726759 0.014753966 -0.028736753
0.05188771 -0.13270928 -0.035732895 -0.13923949 -0.040885426 -0.09227896 0.041260645 0.050153293
-0.08172264 -0.16300684 -0.09334881 -0.025382869 -0.047353666 -0.11891474 0.114748254 0.07443697
0.031836364 -0.046474725 -0.20305951 -0.12702057 -0.11284798 -0.22412339 -0.18064791 0.01033118
-0.01973778 0.1302426 0.075179465 0.09042563 -0.033405 0.26127037 0.08785886 -0.021316169
-0.04467862 0.056321755 0.0090939645 0.22196667 -0.057488296 0.062441163 -0.24566029 0.028129138
-0.1416011 -0.13675258 -0.067624524 -0.11937386 0.11896758 -0.381392 0.034620717 -0.13059811
0.03932286 -0.0499319 -0.012714295 0.2904536
00000000: 1d50 cc3c f635 50be f1d0 22be 548d dbbd
00000010: cdcd 81be 8a25 8cbd 5477 81bd 6408 7abd
00000020: 4484 963c 0eaf 06be fc8d 3dbe d34b d53d
00000030: 0cb8 bcbd 8bab 553e 8d9c 67bc 4977 08be
00000040: eb8a 823d 6fa1 12bd a9ad b5bc abe7 c9bc
00000050: 071a c8bd d418 4cbd e67b 31be e9ee 933d
00000060: 6027 8f3d b72d 4e3b 3df4 74be 6953 f9bc
00000070: b0db 393d 3d7f 7a3d a158 d1be 0876 34be
00000080: a8ab 47bc d4d5 c73d e7ae 86bd 460f 3cbe
00000090: 0f58 6fbd 01e3 91bd d89e 8e3b 0a97 1b3e
000000a0: 3b02 013d 41e9 3abd 6cbc 0cbe b2fc a6be
000000b0: f406 bd3d e08f 0cbe 9eba 713c 5769 ebbc
000000c0: 3588 543d f1e4 07be a85c 12bd cc94 0ebe
000000d0: 7a77 27bd c0fc bcbd ec00 293d 8a6d 4d3d
000000e0: 335e a7bd 44eb 26be a92d bfbd bcef cfbc
000000f0: ebf5 41bd 9289 f3bd 2201 eb3d 6972 983d
00000100: d966 023d 485c 3ebd d5ee 4fbe ae11 02be
00000110: d71c e7bd 9a80 65be c4fb 38be 1c44 293c
00000120: 20b1 a1bc 515e 053e b1f7 993d 1331 b93d
00000130: aed3 08bd 3bc5 853e 59ef b33d 3f9f aebc
00000140: ee00 37bd a4b1 663d dafe 143c 3b4b 633e
00000150: d978 6bbd 4ec2 7f3d 5f8e 7bbe 146f e63c
00000160: e1ff 10be de08 0cbe ba7e 8abd 487a f4bd
00000170: 46a5 f33d d045 c3be 74ce 0d3d 83bb 05be
00000180: 0211 213d 6485 4cbd 9e4f 50bc 56b6 943e

hidden2.0.weight f4 [100, 100]
-0.040591706 0.059427664 0.016740015 0.09482741 0.025187535 -0.037954953 0.0597534 -0.03433057
0.009699082 -0.02514377 -0.090542674 -0.076663025 -0.07347504 -0.0119568715 -0.07972555 0.012702488
-0.01156065 -0.021417568 -0.040148158 0.026670722 -0.052388307 0.05675389 -0.017022131 0.0009518038
-0.041118775 0.02706151 -0.078769155 0.027670009 -0.028181445 -0.08909638 -0.05626416 -0.0564322
-0.0019036744 -0.066422105 -0.07899731 0.08783431 -0.06180926 -0.012468396 -0.005983846 -0.048800524
-0.0021829435 -0.00090800534 -0.0879603 -0.08107775 0.025710316 -0.0074629164 0.058534272 0.0074508274
0.054274645 0.010802034 -0.017918833 -0.0913553 0.066441715 -0.010581588 0.05332346 0.06926506
-0.09927222 -0.09803562 -0.055116825 0.010726358 -0.05783297 -0.08825389 -0.09844532 0.009045813
0.018152285 -0.053500567 -0.06689837 0.0481479 0.04172938 -0.097795546 -0.07781093 0.019433536
-0.07713157 -0.021926386 0.021670047 0.040012117 -0.022885317 -0.047503654 0.062516265 0.028593644
-0.062170498 -0.09419032 -0.016012555 -0.06842026 -0.07228915 0.021412745 0.019635167 -0.08937599
0.020941503 -0.04483666 0.07686378 -0.07810991 -0.06581414 -0.025617367 -0.0119658075 0.045647603
-0.08406002 0.09265345 0.073550366 -0.0827315 0.016305003 -0.07819342 -0.09253456 -0.09958738
-0.03633084 0.01972738 -0.06518923 -0.009574288 0.12086776 -0.08025221 -0.017040083 0.104999214
0.03375051 0.11531985 -0.11309462 -0.07451348 0.16675974 0.08013517 -0.05469648 0.12538943
-0.019206626 -0.09432895 -0.07301708 -0.051893935 -0.06869906 -0.041357104 -0.083794825 -0.06284999
-0.086982645 -0.037449505 -0.05654204 -0.0007760397 0.04847187 0.03821484 -0.038577467 -0.03623102
-0.09073502 -0.03893174 -0.0924841 0.059069447 -0.038883246 -0.045291074 -0.058722284 -0.022511788
0.11465273 0.02010602 -0.0041868724 0.015414734 -0.07137688 0.037092682 0.015419265 0.06451872
0.16061851 -0.1246763 0.012231985 0.044357777 0.008483878 -0.0049126637 -0.043704282 -0.13035688
0.09404367 0.074996635 -0.092273824 -0.0736071 0.08971148 -0.06436789 -0.043767367 -0.077423766
0.018865746 -0.073131606 -0.07140098 -0.015520986 -0.0025586064 0.017599162 0.113628514 0.056883696
-0.05629989 0.15164341 -0.04759279 -0.0860471 0.01340445 -0.09233375 0.0028749863 0.05358791
-0.04570867 -0.023568138 -0.07054029 0.03369796 0.012919053 0.06087811 0.032004282 -0.115459174
-0.033079684 -0.027796801 -0.10585442 -0.085487716 -0.066094786 0.0611263 -0.04832462 0.07316675
0.013752645 -0.010550751 0.016332166 -0.05181907 0.01887638 0.14814179 0.09122864 -0.05920956
-0.0051049995 -0.0013699346 -0.0072837668 -0.06330566 -0.11864312 -0.07999941 0.003929544 -0.035568748
-0.045826964 -0.039287854 -0.033494014 0.016600497 0.1229425 0.14293966 -0.035347044 0.13428773
-0.00043373002 -0.10722592 0.015964866 0.018151473 -0.10075583 0.12545513 -0.002057999 -0.0028559319
0.09416373 0.14196864 0.14478788 -0.056528006 -0.07049201 0.06518646 0.006766184 -0.051996738
-0.060728025 -0.0025159891 -0.103911944 -0.012565437 -0.07161158 -0.051026512 0.0053089964 0.001344688
0.10016725 -0.11938162 -0.14773785 -0.05756704 0.034111958 0.047583915 0.05052963 -0.112099975
00000000: 7d43 26bd 6c6a 733d 5b22 893c e034 c23d
00000010: 1756 ce3c a776 1bbd fbbf 743d 369e 0cbd
00000020: e6e8 1e3c 4ffa cdbc 706e b9bd 8101 9dbd
00000030: 157a 96bd c1e6 43bc 2647 a3bd 191e 503c
00000040: e168 3dbc e573 afbc 6572 24bd 8f7c da3c
00000050: 1f95 56bd c476 683d ff71 8bbc 7982 793a
00000060: 296c 28bd 1ab0 dd3c b951 a1bd 37ac e23c
00000070: c6dc e6bc 2a78 b6bd 3f75 66bd 7325 67bd
00000080: b784 f9ba 5008 88bd 57c9 a1bd 7ae2 b33d
00000090: b52b 7dbd 3e48 4cbc 2314 c4bb 0fe3 47bd
000000a0: b70f 0fbb 3507 6eba 8824 b4bd 170c a6bd
000000b0: 719e d23c 7b8b f4bb a2c1 6f3d 1226 f43b
000000c0: 174f 5e3d 04fb 303c 84ca 92bc 7d18 bbbd
000000d0: 9812 883d 665e 2dbc b369 5a3d d7da 8d3d
000000e0: 3c4f cbbd e6c6 c8bd 2ec2 61bd 9bbd 2f3c
000000f0: 44e2 6cbd 75be b4bd b39d c9bd e434 143c
00000100: 1ab4 943c 6923 5bbd 0302 89bd bb36 453d
00000110: 6dec 2a3d 0849 c8bd 565b 9fbd 1433 9f3c
00000120: 28f7 9dbd f79e b3bc 6285 b13c bfe3 233d
00000130: fd79 bbbc 3193 42bd 8708 803d 383d ea3c
00000140: 7ea6 7ebd dbe6 c0bd c32c 83bc ec1f 8cbd
00000150: 550c 94bd c869 af3c eed9 a03c c20a b7bd
00000160: 848d ab3c a5a6 37bd c26a 9d3d 17f8 9fbd
00000170: 90c9 86bd 83db d1bc 3c0c 44bc fbf8 3a3d
00000180: a927 acbd 18c1 bd3d 93a1 963d 226f a9bd
00000190: 1292 853c df23 a0bd c282 bdbd 78f4 cbbd
000001a0: a6cf 14bd 509b a13c ee81 85bd 79dd 1cbc
000001b0: 8489 f73d 455b a4bd a597 8bbc d409 d73d
000001c0: fa3d 0a3d d02c ec3d 279e e7bd 869a 98bd
000001d0: 11c3 2a3e e81d a43d 6b09 60bd 1666 003e
000001e0: 3757 9dbc 892f c1bd fb89 95bd bc8e 54bd
000001f0: 18b2 8cbd 1166 29bd 9f9c abbd 7fb7 80bd
00000200: f523 b2bd a764 19bd a098 67bd 256f 4bba
00000210: 718a 463d 2a87 1c3d 6803 1ebd fa66 14bd
00000220: 48d3 b9bd e376 1fbd 4e68 bdbd cef2 713d
00000230: 0a44 1fbd 2283 39bd c786 70bd a46a b8bc
00000240: 0dcf ea3d 61b5 a43c 0832 89bb 158e 7c3c
00000250: 0b2e 92bd 7fee 173d 16a1 7c3c 6422 843d
00000260: 2e79 243e 4a56 ffbd aa68 483c 80b0 353d
00000270: f7ff 0a3c 69fa a0bb 4303 33bd 467c 05be
00000280: f899 c03d d697 993d 0ffa bcbd 52bf 96bd
00000290: a7ba b73d 50d3 83bd 6945 33bd 5a90 9ebd
000002a0: 568c 9a3c 06c6 95bd ad3a 92bd bc4b 7ebc
000002b0: 4bae 27bb 1e2c 903c 11b6 e83d e1fe 683d
000002c0: b79a 66bd 6948 1b3e a8f0 42bd 7639 b0bd
000002d0: 579e 5b3c 7a19 bdbd 446a 3c3b ff7e 5b3d
000002e0: 0439 3bbd f811 c1bc 6d77 90bd df06 0a3d
000002f0: 70aa 533c 535b 793d ec16 033d dc75 ecbd
00000300: 907e 07bd 1eb6 e3bc 34ca d8bd 2f14 afbd
00000310: b45c 87bd 925f 7a3d 09f0 45bd 73d8 953d
00000320: c652 613c 0fdd 2cbc 09cb 853c 3c40 54bd
00000330: a3a2 9a3c 7bb2 173e 15d6 ba3d b985 72bd
00000340: d747 a7bb 618f b3ba aaac eebb 66a6 81bd
00000350: 2afb f2bd bbd6 a3bd 67c3 803b 89b0 11bd
00000360: 0eb5 3bbd 4dec 20bd 0531 09bd c4fd 873c
00000370: 47c9 fb3d c65e 123e 10c8 10bd b982 093e
00000380: 4266 e3b9 4399 dbbd c0c8 823c 66b2 943c
00000390: 1359 cebd 4f77 003e 7edf 06bb 962a 3bbb
000003a0: ead8 c03d 3a60 113e 4643 143e e989 67bd
000003b0: 1d5e 90bd 7b80 853d ddb6 dd3b 88fa 54bd
000003c0: f3bd 78bd 4be3 24bb c9cf d4bd 43df 4dbc
000003d0: 18a9 92bd 2d01 51bd 17f7 ad3b 3e40 b03a
000003e0: 7d24 cd3d 5a7e f4bd 9748 17be 6bcb 6bbd
000003f0: fbb8 0b3d 5ae7 423d 28f8 4e3d ac94 e5bd

hidden2.0.bias f4 [100]
-0.008443476 0.00026174664 -0.0036215794 -0.030565094 0.000112989714 0.0035458112 0.0034744642 -0.00017483135
0.01004557 -0.0044505363 0.04474847 0.0019607022 0.0024266501 0.028071228 -0.00025701016 0.006923153
0.03993503 0.0007610837 0.034680694 0.0005299419 0.022199443 -0.00026428833 0.0009836118 0.0016837191
0.0006694085 0.0034902964 0.032192186 -0.028467076 0.03455505 -0.036392406 -0.12541755 -0.027723286
7.438167e-07 0.0027164642 0.0016144464 0.016874755 0.0002487506 0.0027786465 0.0034728267 0.00017142262
0.0008285244 -0.13106044 0.0019323888 0.0043566097 0.00028291938 0.03148046 0.0025117842 0.0005504361
-0.015270103 0.00872877 0.0008535343 -0.13281707 0.0028079974 0.004333819 -0.16266142 0.004464364
0.0019132049 -0.00781601 0.013848959 0.036188427 0.0012067382 0.00037219338 0.02830738 0.0012067088
-0.21591821 9.013479e-06 0.032019217 0.02700187 -9.58583e-05 -0.09416676 -2.1337755e-05 0.00015378738
0.00091798283 0.03684473 0.005041669 0.001020228 0.004955743 0.00018890428 -0.09278209 -0.15039526
-0.0004704815 0.001470627 -0.15980817 -0.13979565 0.002104316 0.0025907299 0.0010901518 -1.0367396e-05
0.0012247827 0.028198183 0.0075358218 0.0001029182 0.003782015 5.140168e-05 0.00013519243 -5.8249054e-05
6.170415e-05 0.0023567216 0.015453467 0.026656644
00000000: 8156 0abc 0a3b 8939 0558 6dbb a663 fabc
00000010: e4f4 ec38 d760 683b d6b3 633b ef52 37b9
00000020: 2d96 243c ced5 91bb 2c4a 373d 207f 003b
00000030: 6f08 1f3b a2f5 e53c 52bf 86b9 9edb e23b
00000040: ea92 233d 7683 473a 580d 0e3d cdeb 0a3a
00000050: 9bdb b53c 2e90 8ab9 89ec 803a 3db0 dc3a
00000060: 3e7b 2f3a 75bd 643b f4db 033d c933 e9bc
00000070: 9989 0d3d 3410 15bd 756d 00be f21b e3bc
00000080: b2aa 4735 b506 323b d59b d33a ed3c 8a3c
00000090: be6a 8239 f419 363b 5d98 633b e9bf 3339
000000a0: 5531 593a b534 06be 3548 fd3a e4c1 8e3b
000000b0: cc54 9439 a8f1 003d bf9c 243b 244b 103a
000000c0: 742f 7abc 1d03 0f3c b8bf 5f3a 3301 08be
000000d0: 6106 383b b502 8e3b b790 26be cd49 923b
000000e0: 81c4 fa3a b90e 00bc bee6 623c 513a 143d
000000f0: 6a2b 9e3a f322 c339 e1e4 e73c 6e2a 9e3a
00000100: aa19 5dbe 9938 1737 9526 033d 0733 dd3c
00000110: 8807 c9b8 81da c0bd 7bfe b2b7 fc41 2139
00000120: c9a4 703a 80ea 163d 9634 a53b 2cb9 853a
00000130: c963 a23b 9b14 4639 8904 bebd 3701 1abe
00000140: f5aa f6b9 0ec2 c03a c1a4 23be 9726 0fbe
00000150: 90e8 093b 3cc9 293b 6de3 8e3a a0ef 2db7
00000160: e388 a03a e0ff e63c 0eef f63b cad5 d738
00000170: afdb 773b 2298 5738 71c2 0d39 7250 74b8
00000180: 2a67 8138 3a73 1a3b 8a30 7d3c 095f da3c

hidden3.0.weight f4 [100, 100]
0.07940481 -0.015816988 0.06859523 0.06348724 0.08010847 -0.05787894 0.01264904 0.025526328
0.05938088 -0.014207499 -0.112213254 -0.031327948 0.07529472 -0.008935768 -0.0066563324 0.112515174
-0.037921593 0.074857615 -0.043711256 -0.0052990364 -0.016089644 0.1156424 0.010999352 0.004306862
0.070755646 -0.025030443 -0.011060765 -0.0651122 -0.15919158 0.08635684 -0.051373385 0.017456397
-0.018159427 -0.11181567 0.045034647 0.06374153 0.021086715 -0.060720045 -0.009667299 0.066600025
-0.06616863 -0.006311609 0.028585985 0.038931347 0.093582705 -0.053838223 0.024059808 -0.10307628
-0.10064126 0.061786618 0.07443482 -0.02386155 0.08534639 -0.05131126 0.026683051 -0.041348796
-0.046226736 0.06061581 0.09255128 -0.07580005 0.03844747 0.08416915 -0.008321358 0.039052647
0.058699183 -0.015032368 -0.00978746 0.03132127 0.0012906786 -0.0059185103 0.06861669 0.07913715
-0.001961014 -0.14302382 -0.011535984 -0.114512205 -0.07343919 -0.09174991 -0.035878662 -0.03796473
-0.11437857 0.06980924 -0.074900754 -0.031202035 -0.059784327 0.006243922 -0.02511181 0.042919386
0.028773256 -0.00064082036 -0.038071655 0.07890436 0.08203552 0.028741455 0.02383424 -0.06501882
-0.013973831 0.060675494 -0.044885334 -0.00913531 0.06791872 -0.069328584 0.1065716 0.13957448
0.04240497 0.04140348 0.020777268 0.11814263 -0.04536538 -0.062714875 -0.06312704 -0.06650419
-0.024710726 0.03591417 0.10471961 -0.037466142 -0.020617869 -0.0113478135 -0.034152396 0.049460713
-0.0070558353 0.067133315 -0.09844438 -0.12555712 0.0329688 -0.025532352 -0.011278946 0.01646782
-0.04562274 -0.06484208 -0.015750077 0.09966212 0.016650915 -0.017664885 -0.018715737 0.06909005
0.017756728 0.031838402 -0.022978492 0.062318817 0.05913086 0.07325151 0.090513326 0.027970284
-0.001504227 0.024568897 -0.013525203 0.009919688 -0.022401989 -0.072807334 0.06776555 0.04937192
-0.09830228 0.013269809 0.04409747 0.029410604 0.019291462 0.05736757 0.0032434398 -0.036724336
-0.033633567 0.010362721 -0.13409235 -0.092777625 -0.010068579 0.023094257 0.099403635 0.014036488
0.03419557 0.06973481 -0.08659923 0.03385412 -0.04525641 -0.08195921 0.07230956 0.07479389
-0.07165082 -0.0037180877 0.051972188 0.065694116 -0.05593656 -0.062285393 -0.04958885 -0.06935978
-0.0011630661 -0.012697528 -0.027488854 -0.020868402 0.008307402 0.053621083 0.049379017 0.13299622
-0.048327018 0.034972444 0.09321504 -0.01422818 -0.016370855 -0.016534593 -0.10018591 0.0015107781
-0.0075690397 0.052171655 -0.05978503 -0.0106769055 -0.040602244 -0.033366542 0.03651949 -0.06837292
0.05327231 0.026640236 -0.029668307 0.12407025 0.064182974 -0.008467843 0.03411019 0.011380458
-0.06783445 0.0075389305 -0.009622811 -0.0678733 0.011982094 -0.029882211 0.14215952 -0.06323196
0.030383017 0.07733588 -0.045369465 0.0035469062 -0.071600914 0.066250645 -0.021237757 -0.092308685
-0.07384674 -0.035894662 -0.015484211 -0.08838239 0.0236625 -0.08889878 0.031725593 -0.050964374
0.026012069 -0.090697624 -0.06338319 -0.028148837 -0.08878638 -0.10587032 0.022417432 0.014762313
-0.099028155 0.04683506 -0.0892072 -0.025375139 0.07788568 0.02259855 0.027835023 0.035637777
00000000: fd9e a23d a192 81bc a87b 8c3d 9905 823d
00000010: e90f a43d 7812 6dbd eb3d 4f3c 971c d13c
00000020: 5e39 733d 92c6 68bc 10d0 e5bd bc51 00bd
00000030: 1e34 9a3d 5467 12bc 5d1d dabb 5b6e e63d
00000040: ac53 1bbd f34e 993d 930a 33bd 8aa3 adbb
00000050: 6ece 83bc ecd5 ec3d a036 343c 9420 8d3b
00000060: 56e8 903d a50c cdbc 3638 35bc 8c59 85bd
00000070: 1e03 23be dbdb b03d e66c 52bd b800 8f3c
00000080: 14c3 94bc 9dff e4bd 4076 383d eb8a 823d
00000090: 0cbe ac3c 95b5 78bd 9763 1ebc 9865 883d
000000a0: 6b83 87bd 9dd1 cebb 282d ea3c 7a76 1f3d
000000b0: 4aa8 bf3d 7885 5cbd 1319 c53c a819 d3bd
000000c0: 011d cebd f713 7d3d 4871 983d 4c79 c3bc
000000d0: 17ca ae3d c12b 52bd 6a96 da3c 5b5d 29bd
000000e0: 3f58 3dbd 4948 783d 878b bd3d 0e3d 9bbd
000000f0: 187b 1d3d e060 ac3d 4e56 08bc abf5 1f3d
00000100: 8e6e 703d 524a 76bc 955b 20bc bb4a 003d
00000110: fd2b a93a 10f0 c1bb e886 8c3d a812 a23d
00000120: 5b84 00bb d674 12be 6d01 3dbc 6085 eabd
00000130: 4967 96bd 60e7 bbbd 81f5 12bd e880 1bbd
00000140: 503f eabd 26f8 8e3d 9165 99bd 699b ffbc
00000150: 69e0 74bd d099 cc3b 48b7 cdbc 3dcc 2f3d
00000160: e4b5 eb3c bafc 27ba 06f1 1bbd 9c98 a13d
00000170: 3d02 a83d 3373 eb3c 0640 c33c 9628 85bd
00000180: 7ff2 64bc de86 783d afd9 37bd 44ac 15bc
00000190: f818 8b3d 25fc 8dbd 3642 da3d 9dec 0e3e
000001a0: d5b0 2d3d b296 293d 1735 aa3c c3f4 f13d
000001b0: 0cd1 39bd a870 80bd c048 81bd 5933 88bd
000001c0: 266e cabc bd1a 133d 3c77 d63d 1976 19bd
000001d0: cee6 a8bc 2eec 39bc 62e3 0bbd 5197 4a3d
000001e0: a334 e7bb 317d 893d 359d c9bd 0c92 00be
000001f0: 4b0a 073d 3929 d1bc 54cb 38bc 86e7 863c
00000200: e9de 3abd edcb 84bd 4e06 81bc a71b cc3d
00000210: 8067 883c f3b5 90bc bf51 99bc 167f 8d3d
00000220: 8f76 913c fc68 023d 643d bcbc 0442 7f3d
00000230: 3333 723d e304 963d 0d5f b93d f021 e53c
00000240: 7c29 c5ba b644 c93c d098 5dbc 3086 223c
00000250: 6084 b7bc 031c 95bd aac8 8a3d 363a 4a3d
00000260: b552 c9bd 9d69 593c 8c9f 343d 82ee f03c
00000270: 2109 9e3c 42fa 6a3d e48f 543b 426c 16bd
00000280: 5ac3 09bd 67c8 293c 814f 09be 3202 bebd
00000290: aef6 24bc 2b30 bd3c 2294 cb3d 4cf9 653c
000002a0: a710 0c3d 20d1 8e3d f05a b1bd 9eaa 0a3d
000002b0: c95e 39bd 3bda a7bd 0917 943d 8a2d 993d
000002c0: aabd 92bd 29ab 73bb cae0 543d a38a 863d
000002d0: bc1d 65bd f81e 7fbd ae1d 4bbd 800c 8ebd
000002e0: 0672 98ba 4b09 50bc 4e30 e1bc 36f4 aabc
000002f0: c51b 083c c8a1 5b3d a741 4a3d 2930 083e
00000300: 8df2 45bd 443f 0f3d 87e7 be3d 501d 69bc
00000310: 2c1c 86bc 8e73 87bc 452e cdbd 4d05 c63a
00000320: b505 f8bb f2b1 553d 26e1 74bd 30ee 2ebc
00000330: 8a4e 26bd 5bab 08bd 7695 153d 1a07 8cbd
00000340: 1134 5a3d a03c da3c f30a f3bc 8b18 fe3d
00000350: 5d72 833d b5bc 0abc 20b7 0b3d 1a75 3a3c
00000360: caec 8abd 2209 f73b ffa8 1dbc 2801 8bbd
00000370: 8b50 443c 8acb f4bc 4492 113e c27f 81bd
00000380: cee5 f83c 4662 9e3d 55d5 39bd 3673 683b
00000390: 80a3 92bd 6bae 873d cefa adbc 560c bdbd
000003a0: f63c 97bd 4806 13bd 7db1 7dbc d401 b5bd
000003b0: dcd7 c13c 9010 b6bd b2f2 013d 05c0 50bd
000003c0: 4317 d53c adbf b9bd 0ccf 81bd 6498 e6bc
000003d0: a2d5 b5bd 8ad2 d8bd c3a4 b73c a1dd 713c
000003e0: 46cf cabd 1fd6 3f3d 44b2 b6bd 86df cfbc
000003f0: 8782 9f3d 9820 b93c 4606 e43c ebf8 113d

hidden3.0.bias f4 [100]
0.02643244 0.023583468 0.0154840145 0.02222324 0.022732466 -0.16955918 0.023018988 0.028457057
0.028595934 0.011376931 0.019043772 0.030357854 0.026065813 0.020915639 0.026039895 0.021289969
0.03768015 0.028374827 0.02541027 0.025333757 -0.032148346 0.019373342 0.024317604 0.042488277
0.029661408 0.04081034 -0.17534766 0.023475943 0.020312337 0.03346691 0.012834303 0.0022564414
-0.2024302 0.026513753 0.026619185 0.038851023 0.021047747 0.025579674 0.038509414 0.006592155
-0.05479596 0.027767764 0.027125107 0.02779002 0.034873564 0.032133307 0.028062861 0.0090338895
0.020205116 0.010694709 0.026186302 0.038562987 0.026409391 0.046633843 0.012512468 0.036541875
0.07004558 0.024771009 0.016935358 0.026343897 0.032395817 0.026607107 0.039841972 -0.04690861
0.026907675 0.034608364 0.0072227614 -0.20545024 0.018319242 0.03194385 0.013459397 0.022010755
0.016504787 0.020227904 0.022711534 0.024535611 0.034706775 0.013215969 0.037276987 0.018021615
0.019670492 0.008287044 0.026340155 0.036031574 0.015863689 0.043132734 0.036639772 0.022899697
0.020428676 0.029384889 0.02932866 0.03857798 0.018146208 0.017966373 0.014225789 0.026697712
-0.19545095 0.0110601885 0.010230756 0.044091545
00000000: d888 d83c 1e32 c13c aab0 7d3c 830d b63c
00000010: 7039 ba3c eca0 2dbe 5192 bc3c c61e e93c
00000020: 0542 ea3c 4f66 3a3c af01 9c3c 09b1 f83c
00000030: f987 d53c 4657 ab3c 9e51 d53c 4d68 ae3c
00000040: 8056 1a3d 5372 e83c 3329 d03c bd88 cf3c
00000050: fcad 03bd d8b4 9e3c b635 c73c 3008 2e3d
00000060: 7bfc f23c be28 273d 568e 33be 9f50 c03c
00000070: 0f66 a63c 9914 093d f846 523c cee0 133b
00000080: dd49 4fbe 5f33 d93c 7a10 da3c 4022 1f3d
00000090: 536c ac3c 778c d13c 0cbc 1d3d 0103 d83b
000000a0: bb71 60bd 3979 e33c 7935 de3c e5a7 e33c
000000b0: 95d7 0e3d 379e 033d 16e4 e53c e102 143c
000000c0: 3385 a53c dc38 2f3c a884 d63c 39f4 1d3d
000000d0: 8258 d83c 2103 3f3d 1801 4d3c efac 153d
000000e0: 0f74 8f3d 92ec ca3c 05bc 8a3c 28cf d73c
000000f0: 7ab1 043d 26f7 d93c 5631 233d 3e23 40bd
00000100: 7c6d dc3c 80c1 0d3d eaac ec3b 8c61 52be
00000110: 3c12 963c 8ed7 023d cd84 5c3c e64f b43c
00000120: 0c35 873c fdb4 a53c 8a0d ba3c e8fe c83c
00000130: b128 0e3d cb87 583c c1af 183d 11a2 933c
00000140: 0324 a13c 62c6 073c 4fc7 d73c d895 133d
00000150: 91f4 813c f3ab 303d 9613 163d 2598 bb3c
00000160: 0a5a a73c 94b8 f03c a842 f03c f203 1e3d
00000170: 5ba7 943c 372e 933c 4913 693c 29b5 da3c
00000180: 4b24 48be cb35 353c e79e 273c 5699 343d

normised.weight f4 [100]
1.0895132 1.1023777 1.0049984 1.060319 1.0622822 0.9900922 1.0950662 1.0632116
1.0963881 1.080347 1.0677084 1.1065905 1.087245 1.1018358 1.0762008 1.1007123
1.1003754 1.0926021 1.0945914 1.0703923 1.0162678 1.0570252 1.0798998 1.0761069
1.0979555 1.0968776 0.99392366 1.090373 1.0619491 1.0839299 1.0949166 1.092925
0.9786292 1.078857 1.0713468 1.0911521 1.0659703 1.0739849 1.1022487 1.0203463
0.98642224 1.1143849 1.0620457 1.0898774 1.0783962 1.1024756 1.0752858 1.0830433
1.0311565 1.1084121 1.0765483 1.0580337 1.1139652 1.086624 1.0334661 1.0735422
1.0773487 1.0887258 1.0945811 1.0709077 1.0869771 1.0944672 1.0870413 1.0488365
1.0768509 1.0727508 1.0222567 0.987637 1.0529642 1.0884749 1.0701792 1.076874
1.0795865 1.0825154 1.0382159 1.1000879 1.059181 1.0217102 1.1040869 1.0828285
1.0650637 1.0775442 1.1035533 1.0972811 1.0578187 1.0989796 1.0994586 1.084234
1.070175 1.1001999 1.0793982 1.1096313 1.0295228 1.095337 1.0535902 1.0727379
0.98903203 1.0532992 1.064793 1.095129
00000000: 2b75 8b3f b61a 8d3f caa3 803f 88b8 873f
00000010: ddf8 873f af76 7d3f 212b 8c3f 5117 883f
00000020: 7256 8c3f cf48 8a3f abaa 883f c2a4 8d3f
00000030: d82a 8b3f f508 8d3f f3c0 893f 24e4 8c3f
00000040: 1ad9 8c3f 63da 8b3f 921b 8c3f 9d02 893f
00000050: 1015 823f 9a4c 873f 283a 8a3f dfbd 893f
00000060: ce89 8c3f 7c66 8c3f c871 7e3f 5891 8b3f
00000070: f3ed 873f 37be 8a3f 3a26 8c3f f7e4 8b3f
00000080: 7187 7a3f fc17 8a3f e421 893f dfaa 8b3f
00000090: b771 883f 5678 893f 7c16 8d3f b59a 823f
000000a0: 2b86 7c3f 2aa4 8e3f 1df1 873f 1a81 8b3f
000000b0: e308 8a3f ec1d 8d3f f7a2 893f 2aa1 8a3f
000000c0: f0fc 833f 73e0 8d3f 56cc 893f a66d 873f
000000d0: 6996 8e3f 7f16 8b3f 9e48 843f d569 893f
000000e0: 90e6 893f 5e5b 8b3f 3c1b 8c3f 8113 893f
000000f0: 1122 8b3f 8017 8c3f 2b24 8b3f 4640 863f
00000100: 40d6 893f e64f 893f 4fd9 823f c7d5 7c3f
00000110: 88c7 863f 2553 8b3f a2fb 883f 02d7 893f
00000120: e42f 8a3f dd8f 8a3f 42e4 843f aecf 8c3f
00000130: 3e93 873f 66c7 823f b852 8d3f 209a 8a3f
00000140: 0254 883f f8ec 893f 3c41 8d3f b573 8c3f
00000150: 9a66 873f 5dab 8c3f 0fbb 8c3f 2ec8 8a3f
00000160: 7ffb 883f 5ad3 8c3f b829 8a3f 6608 8e3f
00000170: 67c7 833f 0134 8c3f 0bdc 863f 7a4f 893f
00000180: 3431 7d3f 82d2 863f 234b 883f 302d 8c3f

normised.bias f4 [100]
0.1503907 0.2470337 0.070639096 0.18593596 0.13957985 -0.087387 0.23460907 0.1826542
0.18750432 0.18753988 0.2346318 0.38759422 0.16204473 0.24042964 0.28403237 0.21657152
0.22510739 0.2501402 0.120865285 0.15018204 0.17297214 0.15884534 0.19591583 0.18170312
0.3026759 0.18463095 -0.046013165 0.18729933 0.20896623 0.18648778 0.27229017 0.2751694
0.2225021 0.271976 0.23618607 0.2126428 0.24197982 0.11172127 0.19244865 0.12802085
0.1966696 0.24835515 0.17858899 0.12680651 0.09070482 0.18557289 0.29929197 0.18209538
0.2717725 0.31191325 0.19245581 0.1829714 0.1430832 0.10489472 0.32580385 0.14238128
0.10900433 0.21552014 0.22828966 0.106892385 0.21846402 0.20269099 0.21407276 0.13596408
0.3465181 0.16386887 0.24326667 -0.10280293 0.21177056 0.22314718 0.20309022 0.2712848
0.1816309 0.16364107 0.27425376 0.24795394 0.10242712 0.13325818 0.19649017 0.13813461
0.32797933 0.21964163 0.26011094 0.21374021 0.22150245 0.19209595 0.23292713 0.14839728
0.2643964 0.14216582 0.13814342 0.28739038 0.25458214 0.22982508 0.16224456 0.1486719
0.0067713466 0.27849466 0.22262616 0.1633483
00000000: 0500 1a3e 67f6 7c3e 3bab 903d ff65 3e3e
00000010: 05ee 0e3e f5f7 b2bd 5c3d 703e b409 3b3e
00000020: 2201 403e 740a 403e 5243 703e c072 c63e
00000030: 0eef 253e 3033 763e b16c 913e edc4 5d3e
00000040: 8d82 663e 6012 803e 3888 f73d 52c9 193e
00000050: 9c1f 313e 5aa8 223e 299e 483e 6210 3a3e
00000060: 56f8 9a3e e50f 3d3e 4d78 3cbd 65cb 3f3e
00000070: 3efb 553e a7f6 3e3e 9e69 8b3e 01e3 8c3e
00000080: 97d7 633e 7040 8b3e c3da 713e 09bf 593e
00000090: 8fc9 773e 1fce e43d 4211 453e e617 033e
000000a0: c163 493e d050 7e3e 08e0 363e 91d9 013e
000000b0: 73c3 b93d d206 3e3e cc3c 993e 3677 3a3e
000000c0: c425 8b3e 18b3 9f3e 2313 453e db5c 3b3e
000000d0: 6784 123e 0bd3 d63d c3cf a63e 66cc 113e
000000e0: aa3d df3d 50b1 5c3e c4c4 693e 65ea da3d
000000f0: 08b5 5f3e 3a8e 4f3e e435 5b3e 2b3a 0b3e
00000100: d26a b13e 3ecd 273e e61a 793e 588a d2bd
00000110: 62da 583e b280 643e e2f6 4f3e d7e5 8a3e
00000120: 73fd 393e 8691 273e fd6a 8c3e a3e7 7d3e
00000130: 4fc5 d13d d574 083e b834 493e 2973 0d3e
00000140: e8ec a73e bce9 603e 432d 853e b7de 5a3e
00000150: 8ad1 623e cdb4 443e 7384 6e3e 75f5 173e
00000160: f75e 873e eb93 113e 7875 0d3e d524 933e
00000170: 9758 823e 4457 6b3e 7023 263e 723d 183e
00000180: 2ce2 dd3b da96 8e3e 1df8 633e c744 273e

normised.running_mean f4 [100]
0.14266245 0.16050151 0.03286733 0.06604504 0.059885543 3.581763e-05 0.05599421 0.053245638
0.05358148 0.09734667 0.00962642 0.038702957 0.16037846 0.07761713 0.01785034 0.070392616
0.03666903 0.027741348 0.00677352 0.0430346 9.20257e-09 0.004623332 0.039611246 0.06972969
0.017830934 0.06618616 3.6120153e-05 0.061234575 0.004413932 0.030886794 0.15705788 0.1814546
0.00028527572 0.09992743 0.006846249 0.03469559 0.0062398394 0.13961112 0.020010231 0.08151653
0.011537236 0.03376434 0.08928488 0.007695453 0.04669454 0.049982414 0.07946846 0.13745584
0.0033900028 0.13084115 0.029703889 0.037543237 0.051010426 0.07059775 0.067618996 0.03456423
0.0785704 0.008572811 0.08342521 0.008929482 0.015032537 0.088394225 0.03189153 4.4416886e-18
0.01639485 0.045378827 0.01354325 5.2836845e-06 0.0025091663 0.079731934 0.055229176 0.0634297
0.10723484 0.033305593 0.0054805693 0.020517051 0.03509963 0.07192137 0.05425137 0.03963048
0.009211838 0.06859577 0.074093044 0.046659816 0.011462834 0.0763183 0.037161887 0.09415706
0.09662215 0.08623396 0.014391572 0.034104805 0.109778985 0.11995727 0.002022192 0.036227394
0.00023769886 0.07785609 0.10537451 0.039943095
00000000: 1b16 123e 825a 243e e59f 063d 9f42 873d
00000010: 8b4a 753d e33a 1638 2f5a 653d 1918 5a3d
00000020: 4178 5b3d b15d c73d 22b8 1d3c fe86 1e3d
00000030: 403a 243e bbf5 9e3d e03a 923c 012a 903d
00000040: 4432 163d d341 e33c 67f4 dd3b 0c45 303d
00000050: 5519 1e32 527f 973b 673f 223d 71ce 8e3d
00000060: 2e12 923c 9c8c 873d b87f 1738 1bd1 7a3d
00000070: bfa2 903b 4d06 fd3c c8d3 203e 3ccf 393e
00000080: 0f91 9539 c1a6 cc3d 8056 e03b f71c 0e3d
00000090: 9177 cc3b 38f6 0e3e 7fec a33c 23f2 a63d
000000a0: ad06 3d3c 7a4c 0a3d feda b63d 232a fc3b
000000b0: c642 3f3d 5cba 4c3d 5cc0 a23d 39c1 0c3e
000000c0: cf2a 5e3b 39fb 053e 9255 f33c f0c6 193d
000000d0: 4ff0 503d 8e95 903d d47b 8a3d 3993 0d3d
000000e0: 85e9 a03d fa74 0c3c d6da aa3d f64c 123c
000000f0: 084b 763c 0808 b53d b1a0 023d 90de a322
00000100: 7e4e 863c 26df 393d 82e4 5d3c 814a b136
00000110: d370 243b 7f4a a33d fd37 623d 6ee7 813d
00000120: f19d db3d 726b 083d 5996 b33b 6013 a83c
00000130: a1c4 0f3d 834b 933d af36 5e3d 9253 223d
00000140: 40ed 163c f07b 8c3d 18be 973d 5d1e 3f3d
00000150: 9cce 3b3c c54c 9c3d 1037 183d 6bd5 c03d
00000160: d5e1 c53d 6e9b b03d a1ca 6b3c 7bb1 0b3d
00000170: ced3 e03d 28ac f53d c186 043b 2d63 143d
00000180: cd3e 7939 0473 9f3d 97ce d73d 5f9b 233d

normised.running_var f4 [100]
0.105117954 0.14796384 0.01668041 0.04165269 0.032072417 2.3561042e-06 0.019792393 0.021095337
0.023181831 0.07190751 0.001003671 0.012428091 0.14483422 0.05822297 0.002362568 0.03567711
0.00920348 0.0052577094 0.00028787495 0.02282579 5.7520955e-10 0.00021875656 0.017277293 0.03976301
0.0026224274 0.023399588 4.1633857e-06 0.023356963 0.0002452379 0.006616898 0.18242437 0.20067327
5.750102e-05 0.06067862 0.00030066338 0.0075421333 0.00042334668 0.096813865 0.0022265897 0.06924919
0.006591586 0.009454996 0.048330624 0.00043772816 0.01784042 0.015347242 0.045509707 0.12635452
0.00014070797 0.13304469 0.010307733 0.009367702 0.017795958 0.026289292 0.05069399 0.0062173
0.028562643 0.0005055159 0.051167335 0.0005931136 0.0017129882 0.048140634 0.0054838024 2.894774e-19
0.0019914869 0.01957762 0.0040001883 3.7172566e-07 6.2689025e-05 0.04033258 0.035707347 0.029755907
0.089604735 0.011023316 0.00060129655 0.0046068258 0.0069139707 0.057418834 0.021551382 0.012298173
0.0011545466 0.060732648 0.044853155 0.015039335 0.0015448987 0.039157808 0.0070298756 0.06419072
0.06510559 0.052246388 0.0013228343 0.00748816 0.08184296 0.119700626 5.2336265e-05 0.012093038
4.1966163e-05 0.052513715 0.10310667 0.009426443
00000000: 1548 d73d d583 173e 5ba5 883c 039c 2a3d
00000010: 5e5e 033d 901d 1e36 a823 a23c 21d0 ac3c
00000020: d3e7 bd3c 3f44 933d 9c8d 833a 319f 4b3c
00000030: 6c4f 143e 367b 6e3d 50d5 1a3b 2922 123d
00000040: 31ca 163c dd48 ac3b eced 9639 27fd ba3c
00000050: c61c 1e30 0462 6539 1c89 8d3c 8ade 223d
00000060: 08dd 2b3b 7eb0 bf3c 36b3 8b36 1a57 bf3c
00000070: 4693 8039 90d2 d83b 74cd 3a3e 4b7d 4d3e
00000080: 402d 7138 258a 783d 5ba2 9d39 0024 f73b
00000090: a1f4 dd39 5946 c63d faeb 113b 85d2 8d3d
000000a0: 3bfe d73b 21e9 1a3c 55f6 453d e17e e539
000000b0: 1326 923c 0073 7b3c 6368 3a3d 1463 013e
000000c0: 028b 1339 de3c 083e c4e1 283c fd7a 193c
000000d0: d4c8 913c a45c d73c 80a4 4f3d 7eba cb3b
000000e0: 34fc e93c 9984 043a d794 513d 2e7b 1b3a
000000f0: 5986 e03a 1d2f 453d 78b1 b33b 96e0 aa20
00000100: 9b83 023b 3f61 a03c 0314 833b 9691 c734
00000110: ea77 8338 c733 253d de41 123d a9c2 f33c
00000120: b082 b73d 239b 343c 54a0 1d3a dbf4 963b
00000130: 978e e23b 0330 6b3d 868c b03c 477e 493c
00000140: 2854 973a ccc2 783d f1b7 373d 8b67 763c
00000150: 337e ca3a f063 203d df5a e63b 6d76 833d
00000160: 1456 853d 4f00 563d f462 ad3a 3d5f f53b
00000170: 489d a73d 9a25 f53d a383 5b38 e121 463c
00000180: d304 3038 9f18 573d 9729 d33d 5e71 1a3c

output.0.weight f4 [10, 100]
-0.19420186 0.06882873 -0.0646043 -0.2116159 -0.11998864 -0.03381538 0.061233386 0.12112369
-0.2297159 0.095021255 0.15767677 -0.23566626 0.03886555 -0.19273138 0.11241846 0.115976594
-0.25516632 -0.14262736 -0.17855847 0.17094573 -0.12162736 0.1416127 -0.13705157 -0.12422817
-0.20997877 0.08666744 0.0533779 -0.0016286796 -0.16299409 -0.19344343 0.015577482 -0.28567305
0.028202739 -0.095325954 -0.20170219 -0.2575792 -0.16714267 -0.066828735 -0.22220756 0.013556876
0.054206416 -0.22320946 -0.11801239 -0.20871398 0.13384856 -0.17011929 0.029670717 -0.2101947
-0.16555381 -0.24028993 -0.16663024 0.0766778 0.08846724 0.09035305 0.09524622 0.012274057
0.08051741 -0.1890912 -0.1261389 0.123865396 0.12604393 -0.01725984 0.09879486 -0.18003857
-0.02374542 -0.16594228 -0.12313174 0.06856714 -0.15555601 -0.21288095 -0.15419456 0.13158594
0.043224018 -0.20835117 -0.12071575 -0.18635494 -0.026737886 -0.13173446 -0.17475659 -0.15513775
-0.10787197 -0.10464645 -0.23103312 -0.2645979 0.13360369 -0.20557867 -0.24291901 0.1025224
0.066066466 -0.22154236 0.14658642 -0.26203838 0.12101588 0.102577865 -0.19683243 -0.122449785
-0.02142597 -0.11840275 -0.007030569 -0.23711799 -0.09326735 -0.11378099 -0.06502254 0.11558026
-0.16303897 -0.03127138 -0.22246072 -0.052741546 -0.22415349 -0.18071905 -0.14593372 -0.20011006
-0.24217044 -0.16077752 -0.14239958 0.13541293 -0.14851949 -0.22385828 0.14900643 0.2025872
-0.0967426 -0.15472038 -0.18472172 0.00646751 -0.16622534 -0.19699769 0.012744342 -0.21403533
-0.06202623 -0.18794301 -0.03360073 -0.17812838 -0.0745844 0.026682444 -0.18730171 -0.18957035
0.18335144 0.01914759 -0.14594203 -0.13300821 -0.09941666 -0.19884476 0.026658395 -0.18508773
-0.0601901 0.11019914 -0.09534873 -0.2173222 -0.13178247 -0.10103231 0.15173882 -0.14158782
-0.18314548 -0.20217645 -0.14992858 0.07898132 0.07295597 0.12011059 0.098064646 -0.16614898
-0.21319425 0.06137787 -0.18509649 -0.1577918 -0.21824601 0.14363037 0.17169428 -0.058355838
0.14457679 0.111097276 0.14930469 -0.055241156 -0.10475694 -0.17549531 -0.18385352 -0.18462352
0.1220481 -0.099311225 0.12739637 0.16138998 -0.17001654 -0.19342512 0.054252572 -0.021709293
-0.15112618 -0.15390089 0.10483143 0.11467941 -0.20261161 -0.17719325 0.15676004 -0.24601392
-0.10420847 -0.20958945 -0.15509318 0.18167895 -0.025182882 0.017255146 -0.17938651 -0.18606332
0.042888846 0.067742944 -0.07552183 -0.049370047 -0.17229582 0.08409426 -0.24492116 -0.1702594
0.03610715 -0.18869811 -0.12920752 0.082004115 -0.11485298 0.06646526 -0.058988534 -0.16691019
-0.23331551 -0.21143198 -0.17386383 -0.14409335 -0.08000756 -0.1025247 -0.11137815 -0.2123329
-0.16055031 0.08798987 0.023964312 -0.2568637 -0.19236149 -0.17765291 0.06331845 0.007889818
-0.028660981 -0.24996528 -0.16334449 -0.1753721 -0.15171291 0.02413466 0.11481528 -0.0721969
-0.015664998 0.1078498 0.06397098 -0.17944166 -0.20623203 -0.21470878 -0.22437605 0.055970374
-0.15336327 -0.21557541 -0.16145319 -0.21315148 0.10021063 -0.19971544 -0.16414903 -0.21548016
00000000: dadc 46be 14f6 8c3d 424f 84bd d7b1 58be
00000010: 9bbc f5bd ff81 0abd dccf 7a3d b20f f83d
00000020: a53a 6bbe 819a c23d 0576 213e 7f52 71be
00000030: 7c31 1f3d 605b 45be a63b e63d 2385 ed3d
00000040: 29a5 82be e80c 12be 08d8 36be 660c 2f3e
00000050: c417 f9bd eb02 113e 3f57 0cbe 576b febd
00000060: ad04 57be b37e b13d c9a2 5a3d 6b79 d5ba
00000070: ece7 26be 0916 46be b238 7f3c bd43 92be
00000080: 6e09 e73c 413a c3bd 058b 4ebe 6ce1 83be
00000090: 7327 2bbe 81dd 88bd 618a 63be a91d 5e3c
000000a0: 8c07 5e3d 0591 64be 7bb0 f1bd 1eb9 55be
000000b0: 990f 093e c033 2ebe 0110 f33c 483d 57be
000000c0: f086 29be 900e 76be 1ea1 2abe 4009 9d3d
000000d0: 502e b53d 050b b93d 7310 c33d 2019 493c
000000e0: 50e6 a43d 20a1 41be 8e2a 01be 24ad fd3d
000000f0: a911 013e 8264 8dbc f654 ca3d 085c 38be
00000100: c185 c2bc c6ec 29be 7e2c fcbd ee6c 8c3d
00000110: 134a 1fbe 77fd 59be 2ee5 1dbe 77be 063e
00000120: ab0b 313d 025a 55be d239 f7bd d4d3 3ebe
00000130: 6909 dbbc 66e5 06be 64f3 32be 6edc 1ebe
00000140: fbeb dcbd e150 d6bd f293 6cbe 6079 87be
00000150: 68cf 083e 3783 52be c3bf 78be 44f7 d13d
00000160: db4d 873d 00dc 62be c01a 163e e529 86be
00000170: 2cd7 f73d 5814 d23d 718e 49be f4c6 fabd
00000180: 8485 afbc 247d f2bd b060 e6bb 0fcf 72be
00000190: f402 bfbd 0206 e9bd 8a2a 85bd 58b5 ec3d
000001a0: b0f3 26be 6b16 00bd becc 63be 8507 58bd
000001b0: 7e88 65be 6a0e 39be a66f 15be a7e9 4cbe
000001c0: 87fb 77be dda2 24be 32d1 11be b0a9 0a3e
000001d0: 7e15 18be 1b3b 65be 2495 183e 0573 4f3e
000001e0: fc20 c6bd 056f 1ebe b127 3dbe 68ed d33b
000001f0: fa36 2abe c3b9 49be a5cd 503c 142c 5bbe
00000200: 370f 7ebd 2274 40be eba0 09bd 4967 36be
00000210: b5bf 98bd 2495 da3c 05cc 3fbe bb1e 42be
00000220: 7bc0 3b3e 68db 9c3c d471 15be 4e33 08be
00000230: f69a cbbd f69d 4bbe b562 da3c a387 3dbe
00000240: e589 76bd 16b0 e13d 3246 c3bd b689 5ebe
00000250: fcf1 06be 07ea cebd 6c61 1b3e 66fc 10be
00000260: 7d8a 3bbe 5807 4fbe e186 19be f5c0 a13d
00000270: f169 953d 8afc f53d 1ed6 c83d f522 2abe
00000280: 984f 5abe 5d67 7b3d ef89 3dbe 2c94 21be
00000290: e27b 5fbe d713 133e a0d0 2f3e 8806 6fbd
000002a0: f00b 143e f886 e33d 54e3 183e 8d44 62bd
000002b0: ce8a d6bd 0bb5 33be 1944 3cbe f30d 3dbe
000002c0: 5bf4 f93d af63 cbbd 3274 023e 6a43 253e
000002d0: d118 2ebe 3c11 46be f237 5e3d b0d7 b1bc
000002e0: d2c0 1abe 3298 1dbe dcb1 d63d 0add ea3d
000002f0: 6b79 4fbe 2672 35be b485 203e 13eb 7bbe
00000300: 406b d5bd 9e9e 56be bfd0 1ebe 0c0a 3a3e
00000310: 554c cebc aa5a 8d3c 19b1 37be 6287 3ebe
00000320: 37ac 2f3d d0bc 8a3d 30ab 9abd 3f38 4abd
00000330: 516e 30be 9d39 ac3d 9dcc 7abe 7b58 2ebe
00000340: 17e5 133d 143a 41be fa4e 04be c6f1 a73d
00000350: 0a38 ebbd f01e 883d f69d 71bd 81ea 2abe
00000360: 43ea 6ebe a081 58be 5c09 32be 358d 13be
00000370: 01db a3bd 78f8 d1bd 3a1a e4bd cc6d 59be
00000380: 4d67 24be 0834 b43d ce50 c43c a483 83be
00000390: 69fa 44be a5ea 35be 1aad 813d 4c44 013c
000003a0: 6fca eabc e6f6 7fbe c743 27be be94 33be
000003b0: a15a 1bbe 0db6 c53c 4624 eb3d f8db 93bd
000003c0: e253 80bc 5be0 dc3d 3803 833d 8ebf 37be
000003d0: 7d2e 53be 9edc 5bbe d6c2 65be 3141 653d
000003e0: 430b 1dbe cdbf 5cbe fc53 25be 6244 5abe
000003f0: 3b3b cd3d 3482 4cbe af16 28be d5a6 5cbe

output.0.bias f4 [10]
-0.64848125 -0.53514624 -0.6077679 -0.52754605 -0.64251286 -0.6132632 -0.6308878 -0.5353971
-0.7598831 -0.6492847
00000000: de02 26bf 58ff 08bf ad96 1bbf 420d 07bf
00000010: b97b 24bf d1fe 1cbf dd81 21bf c90f 09bf
00000020: b387 42bf 8637 26bf
