General/Code/Models/FCN_batchnorm2-Adam-lr-0.01-acc-49.45 epochs-50.pth (torch, 404606 bytes, 12 tensors)

hidden1.0.weight f4 [100, 784]
-0.00995338 0.012959573 -0.029664317 -0.0147462655 -0.017837126 -0.01073665 -0.018618543 0.029595796
0.026161287 -0.004172869 0.021523021 -0.005522877 2.0426242 1.8035219 -0.44165346 -0.12977077
0.017213501 -0.024385551 -0.0015243664 0.02548793 0.02360671 0.015380647 -0.029634813 0.0103699565
0.0246871 0.02205262 0.014971934 -0.025713257 -0.032340724 0.023427803 0.01557048 -0.022865076
-0.6131207 -0.85337013 1.2638569 1.5962038 1.3310162 3.437716 1.7289023 3.9988897
3.4439375 1.6733094 -1.2793545 0.96068245 1.1590717 -0.12434535 1.1638278 0.83586574
2.757603 0.6572368 -1.5198205 -1.2301267 -0.022117257 0.028733823 0.03168923 0.015844133
-0.004502412 -0.007497754 1.2135892 2.7346926 -1.9804945 -4.242386 0.01242767 0.7859252
1.3548996 4.127513 4.347033 5.8090253 7.0103245 3.8328211 2.4272022 1.707736
2.4538968 0.61024076 -2.2129807 -1.0011034 2.7697093 3.1931381 0.098571554 0.8204657
-0.2227961 0.22804046 0.013420679 -0.017327987 0.0076243356 -0.033841003 0.013077252 2.3744955
2.0732145 -1.3025496 -0.7742877 2.5079885 2.654586 4.0300493 4.8819203 3.6506827
4.410715 1.2265412 -0.033091586 0.5970833 1.8170733 3.1436129 4.033426 1.8684653
2.2513752 2.1361978 0.7493002 0.76697767 -0.7726043 1.3424532 1.5807426 -0.026550967
-0.02608718 -0.22838335 -0.96968263 -3.193857 0.49682292 -1.1794572 -0.38038558 1.0340345
0.79235995 1.8444653 2.6252072 1.2292204 -0.23763217 -0.8403804 -0.55732644 -0.5763707
-0.36198086 0.099124156 -0.62775695 -4.7539167 -4.179617 -2.7253962 -3.4056668 -1.5652786
1.8036144 2.8513691 -0.073890984 0.27862048 -0.022294726 -0.012441145 1.6445643 0.74914706
0.09063377 0.49685836 -1.1198292 -1.4035484 -0.33090052 -0.47491026 0.30259115 1.2331126
1.0211543 0.2713613 -1.85412 -2.0852606 0.10791759 -0.33519638 -1.8776363 -3.092386
-1.1480144 -2.058593 -1.1403586 -0.90746737 0.20370267 1.6522597 3.0254607 2.8942852
-0.03247732 0.64894 -0.84389895 0.3055269 -0.16894948 1.9071308 1.080666 -0.18085895
-0.81895053 -0.4486413 -0.5057024 -0.49230364 -0.15912174 -0.22785848 -0.78287137 -0.0008467633
-0.60955685 -0.67479956 -0.65138644 0.62953216 0.8855353 -0.10724537 2.3680317 1.2760262
2.8459117 2.3969688 2.7666886 1.3239946 0.21132994 1.4807355 -1.0059803 -2.4154787
1.1268579 3.1073506 2.3382127 0.3383531 0.35738778 1.215665 0.31117764 0.7867819
0.9085194 0.8403645 -0.25609076 0.46050802 0.51836234 -0.494182 0.32218307 1.0025027
-1.2885157 -1.086666 0.83855814 2.164797 3.2397492 3.2633817 0.5181496 1.7633383
0.2596553 0.6828967 -2.3960307 -1.469128 2.1134503 2.3506508 1.6334933 0.015661767
0.121407405 2.1633923 1.6287556 1.2656622 0.8083843 0.4680714 0.1418022 0.57390016
1.3421041 -0.22654064 0.041994646 0.41961673 -0.336064 -1.9966649 -0.70724535 -1.107164
1.8527743 3.7114768 3.056934 -0.6628824 0.22222628 -0.22526765 -1.4578916 -1.8262795
00000000: 8013 23bc 6454 543c 9502 f3bc 529a 71bc
00000010: 2a1f 92bc c6e8 2fbc ea85 98bc e272 f23c
00000020: 3250 d63c 90bc 88bb 0c51 b03c 40f9 b4bb
00000030: 5bba 0240 ced9 e63f 6720 e2be a1e2 04be
00000040: 5403 8d3c 35c4 c7bc 40cd c7ba 10cc d03c
00000050: dc62 c13c 1cff 7b3c b5c4 f2bc c0e6 293c
00000060: 9a3c ca3c b2a7 b43c d84c 753c 9ca4 d2bc
00000070: b577 04bd aaeb bf3c 541b 7f3c 8a4f bbbc
00000080: 7af5 1cbf 7776 5abf 10c6 a13f 6850 cc3f
00000090: bd5e aa3f 8a03 5c40 ac4c dd3f cfed 7f40
000000a0: 7969 5c40 012f d63f e3c1 a3bf 49ef 753f
000000b0: 765c 943f c6a8 febd 4ff8 943f 4cfb 553f
000000c0: 917c 3040 ac40 283f 7a89 c2bf cb74 9dbf
000000d0: 402f b5bc 3263 eb3c 91cc 013d 8ecb 813c
000000e0: f888 93bb b8af f5bb e456 9b3f 3405 2f40
000000f0: d880 fdbf a0c1 87c0 6d9d 4b3c 6532 493f
00000100: 5a6d ad3f 9614 8440 e51a 8b40 89e3 b940
00000110: 9454 e040 f14c 7540 4857 1b40 1897 da3f
00000120: a50c 1d40 bd38 1c3f 7aa1 0dc0 2824 80bf
00000130: eb42 3140 605c 4c40 e2df c93d 0a0a 523f
00000140: a924 64be 7083 693e 68e2 5b3c 6cf3 8dbc
00000150: 90d5 f93b dd9c 0abd f841 563c bcf7 1740
00000160: 8caf 0440 f2b9 a6bf b837 46bf e282 2040
00000170: bde4 2940 2af6 8040 b138 9c40 c9a4 6940
00000180: 9424 8d40 4dff 9c3f 0b8b 07bd 73da 183f
00000190: dc95 e83f f430 4940 d311 8140 df29 ef3f
000001a0: 8816 1040 77b7 0840 23d2 3f3f a658 443f
000001b0: 65c9 45bf 82d5 ab3f c655 ca3f 6a81 d9bc
000001c0: c8b4 d5bc 53dd 69be 1f3d 78bf 2768 4cc0
000001d0: 935f fe3e 74f8 96bf e6c1 c2be 3e5b 843f
000001e0: 1ad8 4a3f 7017 ec3f 6503 2840 1857 9d3f
000001f0: d955 73be 2b23 57bf f2ac 0ebf 088d 13bf
00000200: 8e55 b9be 9b01 cb3d aeb4 20bf 1620 98c0
00000210: 6cbf 85c0 e46c 2ec0 72f6 59c0 0d5b c8bf
00000220: d6dc e63f d57c 3640 2854 97bd 58a7 8e3e
00000230: 6ea3 b6bc f2d5 4bbc 1581 d23f 1ac8 3f3f
00000240: 339e b93d 3864 fe3e 9056 8fbf 79a7 b3bf
00000250: cb6b a9be 7027 f3be 3aed 9a3e a2d6 9d3f
00000260: 2fb5 823f deef 8a3e ce53 edbf e974 05c0
00000270: e603 dd3d dc9e abbe 6356 f0bf a7e9 45c0
00000280: 23f2 92bf fdbf 03c0 45f7 91bf c84f 68bf
00000290: 6f97 503e 3f7d d33f 26a1 4140 f83b 3940
000002a0: f006 05bd ef20 263f c309 58bf 066e 9c3e
000002b0: 1801 2dbe dd1c f43f 4353 8a3f 1733 39be
000002c0: bea6 51bf 50b4 e5be b675 01bf 390f fcbe
000002d0: cff0 22be bc53 69be 426a 48bf 53f9 5dba
000002e0: eb0b 1cbf aabf 2cbf 43c1 26bf 0529 213f
000002f0: 71b2 623f 76a3 dbbd d58d 1740 d454 a33f
00000300: 6b23 3640 f067 1940 6d11 3140 a878 a93f
00000310: e066 583e be88 bd3f f6c3 80bf 3497 1ac0
00000320: e13c 903f d5de 4640 47a5 1540 9e3c ad3e
00000330: 88fb b63e e99a 9b3f ad52 9f3e 8a6a 493f
00000340: ba94 683f 2122 573f 541e 83be b5c7 eb3e
00000350: 65b3 043f 6c05 fdbe 2ef5 a43e 0252 803f
00000360: 15ee a4bf df17 8bbf bfab 563f 098c 0a40
00000370: 0d58 4f40 3fdb 5040 74a5 043f 12b5 e13f
00000380: 8af1 843e 51d2 2e3f 9158 19c0 630c bcbf
00000390: c542 0740 1071 1640 4f16 d13f 1b4d 803c
000003a0: 72a4 f83d 0575 0a40 107b d03f 3801 a23f
000003b0: 46f2 4e3f 0ea7 ef3e 9934 113e 1feb 123f
000003c0: 11ca ab3f 45fa 67be 9402 2c3d 01d8 d63e
000003d0: 9510 acbe b792 ffbf 080e 35bf 8db7 8dbf
000003e0: b527 ed3f d688 6d40 cfa4 4340 a9b2 29bf
000003f0: 498f 633e 90ac 66be 319c babf 87c3 e9bf

hidden1.0.bias f4 [100]
2.170316 1.3016003 -0.8271112 -1.873691 -6.305146 -0.03831989 -2.9967027 -1.3700342
-1.931209 -0.34544984 -4.1369486 -4.27083 1.031538 0.1600218 -0.056001257 -2.3790383
-0.08054938 -4.4677253 1.0873744 -1.0684491 -0.031558767 -0.09081941 -3.384244 -2.4376717
-0.90750754 -1.6823794 3.6745267 -6.9329762 -0.0862405 -6.158435 -4.4913635 -0.026888855
-1.8406464 -0.06398486 -0.063080914 -3.0508964 -2.5125792 0.60997236 2.7794719 -0.025767239
-1.1236045 -3.229877 0.7249338 1.6982871 -0.90222865 -0.09181592 -0.047296938 -0.17811471
-2.3468273 -1.6118008 -0.06910087 -1.3699553 -1.3285987 -3.8951414 2.5861795 0.009208153
-1.441499 -2.4578252 -1.3164145 -3.6245265 -0.045318842 -0.032721043 -0.19412957 -1.2702335
-0.037251107 -0.91966224 -1.7441337 -1.6829561 1.2310413 -0.06833433 -1.937127 -0.08805899
1.534548 -0.17504254 -0.8754133 -1.7878826 -0.03866204 -0.29454485 -0.05636099 -0.15435298
-0.1269017 -1.746796 -4.790414 -5.1234684 0.5267051 -1.6922153 -0.032766495 -0.15008336
-5.053334 0.23061424 -0.077973455 -0.29698372 -7.6347213 -2.5579093 -1.2976928 -0.28496608
0.01298132 -6.3676515 -1.6452655 -2.8188066
00000000: 75e6 0a40 d79a a63f 8fbd 53bf 1bd5 efbf
00000010: c2c3 c9c0 51f5 1cbd fac9 3fc0 485d afbf
00000020: db31 f7bf cdde b0be e261 84c0 a4aa 88c0
00000030: 7009 843f c1dc 233e 9361 65bd 2a42 18c0
00000040: 13f7 a4bd 9bf7 8ec0 162f 8b3f f1c2 88bf
00000050: c443 01bd 87ff b9bd 7497 58c0 d002 1cc0
00000060: 6a52 68bf 3558 d7bf 722b 6b40 f1da ddc0
00000070: dc9e b0bd e611 c5c0 40b9 8fc0 0446 dcbc
00000080: 4d9a ebbf 7f0a 83bd 9130 81bd e341 43c0
00000090: 19ce 20c0 2627 1c3f dee2 3140 d115 d3bc
000000a0: 46d2 8fbf 4eb6 4ec0 4395 393f 7961 d93f
000000b0: 75f8 66bf fc09 bcbd 6fba 41bd b463 36be
000000c0: 6b32 16c0 7d4f cebf c284 8dbd b25a afbf
000000d0: 860f aabf ff49 79c0 f783 2540 cbdd 163c
000000e0: 0a83 b8bf 024d 1dc0 4580 a8bf 3ef8 67c0
000000f0: 40a0 39bd 8006 06bd e7c9 46be 0397 a2bf
00000100: 9e94 18bd fc6e 6bbf c63f dfbf 1b6b d7bf
00000110: c392 9d3f dff2 8bbd c7f3 f7bf 4658 b4bd
00000120: 126c c43f 5a3e 33be 161b 60bf 56d9 e4bf
00000130: 165c 1ebd 95ce 96be c8da 66bd b50e 1ebe
00000140: 85f2 01be 0397 dfbf 124b 99c0 74f3 a3c0
00000150: 25d6 063f 839a d8bf 2936 06bd 74af 19be
00000160: eab4 a1c0 2426 6c3e 8cb0 9fbd 400e 98be
00000170: a34f f4c0 c9b4 23c0 cc1a a6bf 13e7 91be
00000180: 9aaf 543c cdc3 cbc0 0f98 d2bf 5467 34c0

hidden2.0.weight f4 [100, 100]
-0.8718946 -2.6807566 -0.423155 -0.5644446 1.5833391 -0.040055975 0.39604732 -0.3174801
-1.7525138 0.019933628 1.0882204 3.00459 -3.000306 0.16990177 0.014154474 -2.3342953
-0.06405511 0.8628708 -3.8837667 -2.646196 0.08578145 -0.10804688 -2.5767787 -0.54626024
-2.4175427 -2.19762 -3.133686 2.4865775 -0.034667574 2.4243731 3.0832212 0.003371956
-0.0623185 -0.009512927 -0.10444327 -4.8487186 -1.2734058 0.46296015 -5.143215 -0.033976734
-3.0040114 -4.4526353 -3.6653423 -0.79473656 -2.5100927 0.09332475 0.123574205 -0.12054501
-4.8785686 -2.3610294 0.07659986 -0.44474494 -1.0973451 -2.511819 -4.483514 0.059610754
-4.848352 -5.701795 -2.6680973 3.0817254 0.09718878 0.051729035 0.10064492 -0.15481749
-0.016361093 1.5018538 -1.4664251 -0.562998 -7.0554223 0.010382836 -1.1681228 0.067725755
-3.787915 -0.058189385 -1.8080752 -1.7631804 -0.10141769 0.4662062 -0.005573105 0.053910572
-0.120083354 -0.239742 2.16226 2.3676457 -4.57701 -1.5916691 -0.11167944 0.17996027
0.029057654 -2.2972655 -0.03785787 -0.5459326 2.4746945 -0.7805645 -0.70940924 -2.5187685
-0.85994756 1.6135551 -3.8007655 3.883776 1.4966965 -2.2271812 -2.6038494 0.8013019
1.3719131 -0.025537655 0.59296286 -1.9523405 -2.2859356 -0.0039284728 -1.7866557 1.0392433
1.7286321 -2.7122495 -0.14854202 -2.2413917 0.031424824 -2.0326164 1.844444 -0.09227096
-0.009935098 -0.059859324 -0.12579957 -0.09009079 1.2702649 0.32460567 -0.16436973 0.48223108
0.07297198 -4.2255898 -0.6666051 -0.025191419 -4.5060663 -0.06784295 0.06493639 -0.5308249
-1.0590701 0.17264643 0.50567913 -0.038429428 2.5444114 0.8602984 -0.2644112 3.7869675
-1.8957242 0.015080847 0.009935439 -0.14398356 1.2254989 1.2102344 0.060778357 2.165905
-1.3435141 -1.5136167 0.37243405 -0.10391057 0.5858088 -0.48399583 0.36297962 -0.20955752
-0.28590375 -0.012900472 -0.08011776 1.161262 0.02441609 -1.175897 0.03577096 2.136015
0.2695825 -0.028092735 -2.418908 0.008450886 -0.8370471 -0.085384145 0.5652068 -1.6017781
0.14906473 1.2944834 -0.033015404 0.120472446 -0.048238494 -1.4234571 0.19975014 -0.019370757
-3.9773726 2.1498175 -0.062077027 1.503489 -0.84119546 -0.5502472 -0.121486686 1.1345836
-0.082600065 -0.6134651 0.8541409 -1.9173176 1.5972208 -0.20315552 0.2555281 -0.23709619
-1.2470189 -0.61806726 -2.649552 -1.5290676 -0.64885813 -0.1404336 -2.5743856 1.7164595
-3.9739952 -0.04433617 -0.9096955 -0.5441617 -0.33705565 -2.2725034 0.033405468 -0.3423393
0.11512663 -2.2634752 -1.8739171 2.7617507 -0.08395179 0.10298063 0.022693422 -0.88233435
-0.32469866 1.719335 -0.30727318 -0.16232343 -0.017552465 -0.2665766 -0.1183153 -0.062429093
-0.80799454 0.054523613 -0.0569838 0.18427253 -0.9527474 -0.857203 -1.045934 -0.09532789
4.282169 -0.28384018 -1.4815979 -1.6789227 2.3810148 -0.06512402 0.039847467 -0.12415475
0.030551441 1.5030628 0.01626256 -3.123849 -1.9808972 3.2385235 -1.4623373 -0.049925804
00000000: 7c34 5fbf 8491 2bc0 c6a7 d8be 717f 10bf
00000010: dbaa ca3f bc11 24bd b7c6 ca3e c08c a2be
00000020: 5f52 e0bf d94b a33c ce4a 8b3f 344b 4040
00000030: 0305 40c0 bbfa 2d3e 2be8 673c 1865 15c0
00000040: 532f 83bd 1ae5 5c3f a28f 78c0 465b 29c0
00000050: 2fae af3d af47 ddbd f1e9 24c0 b6d7 0bbf
00000060: 05b9 1ac0 cea5 0cc0 508e 48c0 1624 1f40
00000070: 96ff 0dbd ee28 1b40 7f53 4540 09fc 5c3b
00000080: af41 7fbd 1cdc 1bbc 5ae6 d5bd b428 9bc0
00000090: f6fe a2bf 1d09 ed3e 3895 a4c0 302b 0bbd
000000a0: b941 40c0 fd7b 8ec0 f894 6ac0 db73 4bbf
000000b0: 5ca5 20c0 0c21 bf3d 7914 fd3d 4de0 f6bd
000000c0: 3c1d 9cc0 1b1b 17c0 63e0 9c3d 9cb5 e3be
000000d0: ce75 8cbf a4c1 20c0 f278 8fc0 682a 743d
000000e0: b325 9bc0 1b75 b6c0 1bc2 2ac0 fd3a 4540
000000f0: e90a c73d d3e1 533d ec1e ce3d 7a88 1ebe
00000100: b307 86bc bf3c c03f d1b3 bbbf a320 10bf
00000110: 05c6 e1c0 c51c 2a3c 0c85 95bf cdb3 8a3d
00000120: 336d 72c0 fe57 6ebd 026f e7bf e5af e1bf
00000130: 14b4 cfbd 94b2 ee3e 989e b6bb 55d1 5c3d
00000140: 43ee f5bd ed7e 75be 7862 0a40 8287 1740
00000150: de76 92c0 d0bb cbbf 31b8 e4bd 8147 383e
00000160: 510a ee3c 6606 13c0 db10 1bbd 3dc2 0bbf
00000170: 6561 1e40 13d3 47bf d89b 35bf 8133 21c0
00000180: 8625 5cbf f988 ce3f be3f 73c0 c98f 7840
00000190: c093 bf3f 238a 0ec0 78a5 26c0 1f22 4d3f
000001a0: d99a af3f 5834 d1bc 6acc 173f 4be6 f9bf
000001b0: c54c 12c0 6bba 80bb 22b1 e4bf ed05 853f
000001c0: d143 dd3f 7f95 2dc0 661b 18be f672 0fc0
000001d0: 51b7 003d 6316 02c0 be16 ec3f 8ff8 bcbd
000001e0: d2c6 22bc 0d2f 75bd 9ad1 00be 8581 b8bd
000001f0: 0a98 a23f b732 a63e 8a50 28be fee6 f63e
00000200: 5572 953d 0838 87c0 a2a6 2abf 3c5e cebc
00000210: b231 90c0 3ff1 8abd 5ffd 843d 24e4 07bf
00000220: 9c8f 87bf 3aca 303e 3074 013f 2d68 1dbd
00000230: a3d7 2240 843c 5c3f e860 87be ad5d 7240
00000240: 17a7 f2bf a815 773c 40c8 223c 6d70 13be
00000250: 26dd 9c3f f6e8 9a3f baf2 783d 309e 0a40
00000260: 45f8 abbf 31be c1bf adaf be3e 11cf d4bd
00000270: 91f7 153f 4dce f7be 77d8 b93e 3f96 56be
00000280: fa61 92be 805c 53bc c814 a4bd 3ca4 943f
00000290: 4104 c83c cb83 96bf 9284 123d 78b4 0840
000002a0: b806 8a3e bc22 e6bc 64cf 1ac0 9675 0a3c
000002b0: b848 56bf e2dd aebd 65b1 103f 1107 cdbf
000002c0: 6da4 183e a2b1 a53f 293b 07bd 42ba f63d
000002d0: ba95 45bd d833 b6bf 4d8b 4c3e 6caf 9ebc
000002e0: 468d 7ec0 9c96 0940 7b44 7ebd 5472 c03f
000002f0: 9658 57bf 00dd 0cbf 03ce f8bd 093a 913f
00000300: 392a a9bd 0c0c 1dbf faa8 5a3f aa6a f5bf
00000310: bb71 cc3f 0008 50be 94d4 823e 58c9 72be
00000320: 519e 9fbf a839 1ebf 4392 29c0 7db8 c3bf
00000330: 911b 26bf d3cd 0fbe bcc2 24c0 f2b4 db3f
00000340: f055 7ec0 d899 35bd cee1 68bf 2e4e 0bbf
00000350: 8f92 acbe b270 11c0 2cd4 083d 1947 afbe
00000360: 83c7 eb3d c7dc 10c0 84dc efbf 86c0 3040
00000370: ebee abbd 82e7 d23d 8ee7 b93c aae0 61bf
00000380: e73e a6be 2b13 dc3f e952 9dbe 1d38 26be
00000390: 30ca 8fbc ba7c 88be 4b4f f2bd a6b5 7fbd
000003a0: bbd8 4ebf 2754 5f3d d867 69bd f0b1 3c3e
000003b0: 41e7 73bf a871 5bbf 2ae1 85bf 453b c3bd
000003c0: 8707 8940 8053 91be 00a5 bdbf f0e6 d6bf
000003d0: 8c62 1840 be5f 85bd 1937 233d d844 febd
000003e0: 0447 fa3c 5d64 c03f 0f39 853c 24ed 47c0
000003f0: 0a8e fdbf f843 4f40 de2d bbbf 007f 4cbd

hidden2.0.bias f4 [100]
-5.923017 18.6811 1.0303994 22.44355 16.306553 -0.09006374 8.403786 -4.1528325
2.1577408 9.726388 22.24189 13.982521 9.651977 7.0294538 -0.63685775 15.120323
3.5465775 -5.0982547 -3.787533 1.7645829 21.04986 -0.29974806 -4.5533195 4.463152
-0.22760902 0.25238496 0.2140976 -0.20134526 17.59001 -0.14458282 -6.3540335 -0.76074106
7.0307364 7.7503977 -7.016209 -5.676625 0.20798331 20.76523 -0.039778676 -1.2314886
11.5838 20.04216 0.7176338 -1.4521431 7.7964664 -6.5868373 -7.0900354 14.480663
1.8376269 6.234644 18.925783 7.1706705 -8.266351 2.8287756 23.58019 -6.0630875
25.74313 -7.4378858 7.390833 16.436357 18.126207 13.886481 23.460207 22.098148
5.7918386 -7.6362104 12.83363 5.540924 18.891834 14.760312 -4.4617414 -1.7518017
-6.782871 5.5673976 20.339645 -0.012767117 -0.47891396 -0.47912294 19.090387 -4.0499363
24.074669 -5.2183747 19.626892 -0.49751547 0.09190192 7.8126345 0.75004405 -2.3925793
-6.551385 1.6225511 -5.4187756 -6.025459 8.420224 17.182081 7.228329 8.084101
18.302834 18.108326 9.422046 -0.121542394
00000000: 5b89 bdc0 e572 9541 21e4 833f 648c b341
00000010: d273 8241 5773 b8bd e875 0641 01e4 84c0
00000020: 6d18 0a40 499f 1b41 64ef b141 68b8 5f41
00000030: 7f6e 1a41 49f1 e040 1c09 23bf d8ec 7141
00000040: 20fb 6240 e724 a3c0 f166 72c0 dadd e13f
00000050: 1d66 a841 9478 99be cbb4 91c0 24d2 8e40
00000060: 5712 69be 9a38 813e 673c 5b3e 742d 4ebe
00000070: 57b8 8c41 850d 14be 3e54 cbc0 edbf 42bf
00000080: cbfb e040 4203 f840 c984 e0c0 e9a6 b5c0
00000090: 94f9 543e 311f a641 f7ee 22bd 6ba1 9dbf
000000a0: 3f57 3941 5856 a041 d9b6 373f d3df b9bf
000000b0: a77c f940 5fc7 d2c0 92e1 e2c0 ccb0 6741
000000c0: 5c37 eb3f 3482 c740 0168 9741 2276 e540
000000d0: f942 04c1 a90a 3540 3ba4 bc41 d004 c2c0
000000e0: eef1 cd41 2903 eec0 b481 ec40 a97d 8341
000000f0: 7902 9141 072f 5e41 81ae bb41 02c9 b041
00000100: be56 b940 d65b f4c0 8c56 4d41 404f b140
00000110: 7a22 9741 3d2a 6c41 96c6 8ec0 0a3b e0bf
00000120: 470d d9c0 1f28 b240 98b7 a241 2b2d 51bc
00000130: 3634 f5be 9a4f f5be 1db9 9841 1499 81c0
00000140: ec98 c041 edfc a6c0 e003 9d41 59ba febe
00000150: 1337 bc3d 1a01 fa40 e302 403f 0520 19c0
00000160: f2a4 d1c0 c1af cf3f 9c66 adc0 8fd0 c0c0
00000170: 3db9 0641 e774 8941 794e e740 7a58 0141
00000180: 346c 9241 dadd 9041 b3c0 1641 38eb f8bd

hidden3.0.weight f4 [100, 100]
1.0850241 -0.105405584 -3.3273392 2.0809805 0.25568035 0.34740838 -2.321613 -4.3832917
-1.2094163 2.059953 3.2775133 1.5263928 2.3587408 1.3994895 -4.838384 2.6442432
-2.1448276 -1.4629896 -2.94897 -2.1826248 2.038833 -2.1900952 -2.3793616 -5.0630836
-0.43154752 -1.4624523 -2.497723 0.3709896 0.9446376 -4.6223454 -1.8353611 -2.9577162
-2.7388287 -4.682945 -1.2450082 0.120840386 -0.83921814 1.9561745 -4.4975305 1.2869556
-0.05127865 2.249159 0.22457613 -3.3370783 -3.7017741 -0.23880717 0.35800973 2.2551131
-3.0747428 -2.129391 1.7453356 -3.450095 -0.60381943 -3.574751 -0.1071612 1.7642479
2.9663935 -0.9579602 -3.1547263 0.9445046 0.30162075 1.2349737 1.3886467 3.4135053
-2.8257124 -0.67056435 4.357904 1.0132115 3.2214212 -0.4286149 0.19290574 -2.9460597
1.2936572 -3.9949427 2.6199098 -7.0955877 -3.4271927 -2.0754194 1.5746986 -2.1698513
1.7679719 0.3725048 2.342462 -4.6180882 -2.3806105 -1.5878999 -3.4469302 -3.883923
-2.6364772 -5.051186 -1.8522844 -1.3229897 -0.77770615 3.483178 -4.235218 -4.5403714
1.7971902 0.88075155 1.5530394 1.502204 -4.9448485 -2.925243 -4.5083427 2.5413594
1.1230592 -3.5737672 -3.6959348 1.1079571 0.9182152 0.48812565 0.3266195 2.378345
1.4814457 -4.4919887 0.08737308 2.330364 0.9331899 2.6692338 1.4588162 0.94657874
-1.0279762 1.6182966 2.9682996 0.36608523 1.6620739 1.270595 0.8843511 -0.1623771
1.2154249 -1.294029 -0.34391862 -0.8384769 -6.5770087 -6.916201 1.810341 -3.5810835
3.6521873 0.17266333 1.7140667 0.31906456 1.5298074 4.0394945 -4.326033 1.3342918
0.74667287 0.527047 -0.5735785 2.5668252 -2.2491975 -4.9250917 0.7429343 1.7099695
1.0232906 0.4749441 2.261432 -2.1620073 0.6611812 -2.7786965 -5.6353536 1.8493407
3.1089602 1.874934 1.7704808 1.147804 -5.238361 -2.947797 1.6917583 2.4912798
2.7293625 0.68938726 -2.0106628 1.1716521 -0.867714 0.7330386 2.3586624 -0.7018514
1.8157632 -0.1561346 1.5868256 0.2991311 1.329727 -1.547655 3.2689774 2.624818
2.531976 -5.1997023 2.1025743 0.61789227 -0.40770194 -4.3658886 -2.4024744 -4.1560483
-4.7800994 2.261446 -5.99341 -8.767105 1.6691062 -0.22774835 -3.221653 -2.5217297
-3.566357 -0.13615224 -2.5639799 0.24046972 1.4926233 -5.4000697 -5.081424 0.7718248
-5.631859 0.95030665 2.098715 1.1195338 1.3191289 -3.2042801 -1.626389 0.8689935
0.46972 0.6916996 1.0651716 -5.2445526 0.9174833 -2.9325154 1.0883864 0.86207837
-2.142865 -3.3696418 -2.5633278 -0.09441931 1.4195995 -0.267354 2.9282966 0.8526705
-3.5936642 -4.407623 1.4071263 -3.6408122 -3.1703272 0.7266648 -1.382301 -3.4312866
0.40106085 2.446322 -1.629472 -3.2514217 1.4346102 1.8271532 1.9120407 3.3894956
-3.9944353 -3.2402081 2.9572153 1.3242823 0.6677994 -3.9252834 1.761283 -2.5106702
00000000: 12e2 8a3f e2de d7bd 20f3 54c0 c92e 0540
00000010: 89e8 823e 83df b13e 4f95 14c0 ed43 8cc0
00000020: 27ce 9abf 45d6 0340 c7c2 5140 d760 c33f
00000030: 9cf5 1640 7922 b33f 0bd4 9ac0 483b 2940
00000040: db44 09c0 3e43 bbbf edbb 3cc0 20b0 0bc0
00000050: 3d7c 0240 852a 0cc0 7647 18c0 c804 a2c0
00000060: ccf3 dcbe a331 bbbf b2da 1fc0 59f2 bd3e
00000070: c5d3 713f 41ea 93c0 1ded eabf 394b 3dc0
00000080: f848 2fc0 afda 95c0 6e5c 9fbf 2a7b f73d
00000090: 00d7 56bf ed63 fa3f c5eb 8fc0 f6ba a43f
000000a0: 9009 52bd 39f2 0f40 49f7 653e b192 55c0
000000b0: dee9 6cc0 de89 74be 0d4d b73e c653 1040
000000c0: 96c8 44c0 f147 08c0 2867 df3f 5bce 5cc0
000000d0: e993 1abf b8c8 64c0 5577 dbbd e0d2 e13f
000000e0: 64d9 3d40 e13c 75bf 09e7 49c0 0ecb 713f
000000f0: 096e 9a3e 9e13 9e3f 2dbf b13f df76 5a40
00000100: 79d8 34c0 1baa 2bbf f373 8b40 eab0 813f
00000110: c42b 4e40 6a73 dbbe 1589 453e 3e8c 3cc0
00000120: 8f96 a53f 24ad 7fc0 9aac 2740 0e0f e3c0
00000130: 2057 5bc0 acd3 04c0 b98f c93f d8de 0ac0
00000140: e74c e23f f3b8 be3e e6ea 1540 61c7 93c0
00000150: ec5b 18c0 4e40 cbbf 819a 5cc0 3292 78c0
00000160: 0bbc 28c0 51a3 a1c0 a817 edbf ba57 a9bf
00000170: c017 47bf 63ec 5e40 e886 87c0 b94a 91c0
00000180: 540a e63f ef78 613f ffc9 c63f 3848 c03f
00000190: 333c 9ec0 2e37 3bc0 5844 90c0 a2a5 2240
000001a0: 67c0 8f3f 9ab8 64c0 328a 6cc0 8ad1 8d3f
000001b0: 2710 6b3f 9beb f93e ac3a a73e ce36 1840
000001c0: 03a0 bd3f 5fbe 8fc0 a8f0 b23d af24 1540
000001d0: 89e5 6e3f bad4 2a40 7dba ba3f fc52 723f
000001e0: b994 83bf 5824 cf3f 9ff8 3d40 866f bb3e
000001f0: d6be d43f dba2 a23f d564 623f 2f46 26be
00000200: 0b93 9b3f bea2 a5bf 1a16 b0be 6ca6 56bf
00000210: db76 d2c0 8551 ddc0 41b9 e73f 7930 65c0
00000220: 70bd 6940 a8ce 303e 8a66 db3f 6e5c a33e
00000230: bbd0 c33f 8a43 8140 dd6e 8ac0 13ca aa3f
00000240: f425 3f3f 8dec 063f 0ad6 12bf dd46 2440
00000250: daf2 0fc0 5a9a 9dc0 f130 3e3f 48e0 da3f
00000260: 30fb 823f e02b f33e 4dbb 1040 545e 0ac0
00000270: 2c43 293f 2ad6 31c0 d154 b4c0 32b7 ec3f
00000280: 34f9 4640 d6fd ef3f 1d9f e23f 3eeb 923f
00000290: a7a0 a7c0 b5a8 3cc0 898b d83f 2171 1f40
000002a0: e0ad 2e40 af7b 303f b3ae 00c0 b2f8 953f
000002b0: 8122 5ebf 6ba8 3b3f 53f4 1640 89ac 33bf
000002c0: ee6a e83f c0e1 1fbe 1a1d cb3f b627 993e
000002d0: 7f34 aa3f 8f19 c6bf ed36 5140 05fd 2740
000002e0: e50b 2240 f663 a6c0 9490 0640 302e 1e3f
000002f0: 4fbe d0be 5cb5 8bc0 24c2 19c0 59fe 84c0
00000300: 93f6 98c0 88bb 1040 04ca bfc0 1046 0cc1
00000310: 46a5 d53f dd36 69be 902f 4ec0 0564 21c0
00000320: 313f 64c0 7e6b 0bbe 3f18 24c0 b23d 763e
00000330: 480e bf3f 5fcd acc0 079b a2c0 4f96 453f
00000340: 3038 b4c0 4c47 733f 5951 0640 e24c 8f3f
00000350: 37d9 a83f ed12 4dc0 842d d0bf 5c76 5e3f
00000360: 247f f03e 3a13 313f 8b57 883f 60d3 a7c0
00000370: 30e0 6a3f 55ae 3bc0 3f50 8b3f 2bb1 5c3f
00000380: b324 09c0 36a8 57c0 900d 24c0 e95e c1bd
00000390: 70b5 b53f a0e2 88be 3669 3b40 9d48 5a3f
000003a0: 98fe 65c0 3f0b 8dc0 b71c b43f 1103 69c0
000003b0: a4e6 4ac0 b406 3a3f 3def b0bf 339a 5bc0
000003c0: d957 cd3e 8a90 1c40 8a92 d0bf 4b17 50c0
000003d0: 4fa1 b73f 28e0 e93f c0bd f43f 7fed 5840
000003e0: d4a4 7fc0 925f 4fc0 0443 3d40 1582 a93f
000003f0: e7f4 2a3f d837 7bc0 b971 e13f d2ae 20c0

hidden3.0.bias f4 [100]
26.10344 19.295872 23.170725 24.994154 16.371252 28.154905 20.85496 20.408947
17.373056 17.911924 12.646846 18.800797 13.772151 20.177217 16.374039 21.475445
19.061571 14.302634 17.021921 24.932327 21.826653 13.733342 25.491236 22.995668
25.258554 24.516085 18.084589 14.964989 12.003518 11.751429 17.2219 12.381624
13.800878 22.351469 19.571302 19.30949 18.48435 18.72618 19.15817 28.631067
14.376058 24.258198 22.701712 13.742277 22.123322 14.336763 11.638308 22.121614
17.328571 17.627937 23.019287 17.887253 20.614124 19.65253 21.075409 16.98308
20.97632 20.231232 21.23081 23.839378 11.550306 25.03166 17.067936 18.941666
16.23214 20.250828 23.899097 27.746305 22.849522 18.913929 17.36771 21.273783
18.47002 25.909346 23.83688 26.322203 18.726746 20.191454 20.480822 23.4174
22.113525 23.871298 23.091597 18.696085 19.395924 21.236938 21.741201 21.660759
18.65531 17.50327 23.92094 16.20714 18.679049 27.34152 19.212086 12.200381
18.902542 19.875381 11.489218 16.082607
00000000: d8d3 d041 f25d 9a41 a55d b941 07f4 c741
00000010: 53f8 8241 3f3d e141 f5d6 a641 8645 a341
00000020: 05fc 8a41 9f4b 8f41 7b59 4a41 0868 9641
00000030: bb5a 5c41 f16a a141 08fe 8241 b6cd ab41
00000040: 197e 9841 97d7 6441 e52c 8841 6875 c741
00000050: fc9c ae41 c5bb 5b41 0dee cb41 21f7 b741
00000060: 8511 ca41 f120 c441 3dad 9041 9870 6f41
00000070: 690e 4041 da05 3c41 74c6 8941 221b 4641
00000080: 65d0 5c41 cfcf b241 0792 9c41 d679 9a41
00000090: f3df 9341 37cf 9541 ef43 9941 6d0c e541
000000a0: 5504 6641 ca10 c241 1b9d b541 5ee0 5b41
000000b0: 90fc b041 6263 6541 8236 3a41 11f9 b041
000000c0: eaa0 8a41 0406 8d41 8027 b841 1819 8f41
000000d0: bae9 a441 6238 9d41 709a a841 59dd 8741
000000e0: 81cf a741 90d9 a141 b3d8 a941 0cb7 be41
000000f0: 0ece 3841 d740 c841 228b 8841 8888 9741
00000100: 6cdb 8141 b201 a241 5a31 bf41 6ff8 dd41
00000110: d2cb b641 ba4f 9741 12f1 8a41 b530 aa41
00000120: 9ac2 9341 5746 cf41 eeb1 be41 df93 d241
00000130: 60d0 9541 1988 a141 b9d8 a341 d656 bb41
00000140: 80e8 b041 6bf8 be41 97bb b841 9591 9541
00000150: da2a 9b41 40e5 a941 fbed ad41 3c49 ad41
00000160: 133e 9541 b206 8c41 165e bf41 39a8 8141
00000170: b16e 9541 6fbb da41 5ab2 9941 c334 4341
00000180: 6838 9741 c800 9f41 d6d3 3741 2ea9 8041

normised.weight f4 [100]
0.80190855 0.82827806 0.70300066 0.5840931 0.49128044 0.86755747 0.73497045 0.57415414
0.6872047 0.3764857 0.5654009 0.5142289 0.7443428 0.9571166 1.0175561 0.64273995
0.7149611 0.49249026 0.48238593 1.0369881 0.775465 0.2887672 0.6423805 0.83686846
0.7924176 0.9840033 0.5515438 0.577492 0.6477243 0.56278247 0.6788364 0.37977198
0.5778136 0.70697653 0.8468834 0.31401014 0.767501 0.7755316 0.539637 0.72333485
0.4127016 0.5987859 0.6047022 0.5732271 0.9042626 0.4055059 0.72502965 0.77749974
0.6880563 0.4256948 0.8029886 0.6095672 0.8710955 0.46663016 0.6931172 0.6202345
0.6983299 0.6278218 0.7634277 0.77056456 0.39534348 0.49479204 0.7688767 0.510667
0.5750428 0.6624426 0.76384246 0.81152993 0.5318255 0.43252003 0.51951915 0.681539
0.5655738 0.50495833 0.7762538 0.8355925 0.44553414 0.75930905 0.542979 0.7292946
0.74379003 0.57686025 0.61618155 0.7224045 0.6484212 0.66171885 0.71431607 0.79714733
0.6216869 0.9613972 0.8412975 0.71997845 0.3847768 0.95893437 0.7132678 0.636779
0.63011605 0.6975407 0.40146607 0.73040783
00000000: e149 4d3f 080a 543f daf7 333f 2087 153f
00000010: 1c89 fb3e 3f18 5e3f 0627 3c3f c4fb 123f
00000020: a6ec 2f3f bcc2 c03e 1dbe 103f 81a4 033f
00000030: 408d 3e3f 9805 753f 473f 823f 9b8a 243f
00000040: b107 373f af27 fc3e 4afb f63e 07bc 843f
00000050: e084 463f 4bd9 933e 0c73 243f 033d 563f
00000060: e1db 4a3f a4e7 7b3f f931 0d3f 84d6 133f
00000070: 42d1 253f 8312 103f 39c8 2d3f 7971 c23e
00000080: 98eb 133f 6afc 343f 5acd 583f f0c5 a03e
00000090: f27a 443f 3d89 463f a725 0a3f 792c 393f
000000a0: a04d d33e 084a 193f c3cd 1a3f 03bf 123f
000000b0: c17d 673f 789e cf3e 8b9b 393f 390a 473f
000000c0: 7524 303f abf4 d93e a990 4d3f 990c 1c3f
000000d0: 1d00 5f3f 26ea ee3e 2170 313f b0c7 1e3f
000000e0: c0c5 323f eeb8 203f ff6f 433f b843 453f
000000f0: 766a ca3e 6255 fd3e 1ad5 443f 13bb 023f
00000100: 0136 133f d795 293f 2e8b 433f 6dc0 4f3f
00000110: b725 083f 4473 dd3e 35ff 043f 5779 2e3f
00000120: 72c9 103f f344 013f 92b8 463f 64e9 553f
00000130: 0d1d e43e 1462 423f ac00 0b3f 0db3 3a3f
00000140: 0669 3e3f 1dad 133f 13be 1d3f 80ef 383f
00000150: effe 253f 6866 293f 6bdd 363f d911 4c3f
00000160: df26 1f3f 201e 763f 465f 573f 8250 383f
00000170: 7701 c53e b97c 753f b898 363f f303 233f
00000180: 494f 213f 0792 323f f68c cd3e 02fc 3a3f

normised.bias f4 [100]
0.3064659 0.35424384 0.23053713 0.21434009 0.23047559 0.29597223 0.23160592 0.2699538
0.2865504 0.17983079 0.20576905 0.22935009 0.34146443 0.41491926 0.30304113 0.1884762
0.23013377 0.2612959 0.26303005 0.32467484 0.40310636 0.11714961 0.5007947 0.29339367
0.33510086 0.41533858 0.12341354 0.32704306 0.25260124 0.29596356 0.33297127 0.29227164
0.22279039 0.2495783 0.2731095 0.23506278 0.20163459 0.3987891 0.24756931 0.3669492
0.313096 0.36999297 0.2723672 0.20392846 0.26207402 0.12599832 0.3354109 0.35777938
0.35635763 0.3565134 0.34695905 0.22382161 0.31831908 0.15682942 0.50056285 0.38549894
0.3137757 0.4225736 0.34264225 0.3550716 0.35417032 0.40744543 0.14920606 0.2662697
0.32404298 0.40229663 0.26460674 0.40674862 0.2838972 0.34246978 0.16775161 0.2781337
0.16933031 0.38346943 0.253448 0.20716083 0.41531968 0.34365228 0.27012786 0.23801552
0.26963285 0.35315743 0.3194119 0.20271653 0.2557476 0.25270414 0.2004902 0.34408215
0.40433505 0.33559978 0.40643072 0.34103885 0.080699794 0.3723627 0.30687213 0.24784367
0.23062092 0.27710837 0.26897654 0.2894542
00000000: 19e9 9c3e 735f b53e ed11 6c3e f87b 5b3e
00000010: cb01 6c3e ac89 973e 1a2a 6d3e 6237 8a3e
00000020: bcb6 923e 9025 383e 1fb5 523e c0da 6a3e
00000030: 6dd4 ae3e 4c70 d43e 3528 9b3e e8ff 403e
00000040: 30a8 6b3e 94c8 853e e0ab 863e c83b a63e
00000050: f563 ce3e 22ec ef3d 1534 003f b237 963e
00000060: 5792 ab3e 42a7 d43e 3dc0 fc3d 3072 a73e
00000070: f354 813e 8988 973e 367b aa3e a1a4 953e
00000080: 2a23 643e 7491 7f3e 02d5 8b3e 4cb4 703e
00000090: 4c79 4e3e 162e cc3e cf82 7d3e c4e0 bb3e
000000a0: 1e4e a03e b86f bd3e b773 8b3e 9fd2 503e
000000b0: 912e 863e b405 013e faba ab3e dc2e b73e
000000c0: 8274 b63e ed88 b63e 9ea4 b13e 7e31 653e
000000d0: b8fa a23e e497 203e e324 003f 1e60 c53e
000000e0: 35a7 a03e 915b d83e ce6e af3e f2cb b53e
000000f0: d055 b53e b09c d03e 79c9 183e 8154 883e
00000100: f6e8 a53e d3f9 cd3e 897a 873e 5b41 d03e
00000110: f95a 913e 3358 af3e 14c7 2b3e 8a67 8e3e
00000120: ed64 2d3e 1b56 c43e f0c3 813e f821 543e
00000130: c8a4 d43e 31f3 af3e 334e 8a3e 57ba 733e
00000140: 510d 8a3e 0dd1 b43e f589 a33e ec94 4f3e
00000150: 59f1 823e 7062 813e 4e4d 4d3e 892b b03e
00000160: 0105 cf3e bcd3 ab3e b017 d03e a59c ae3e
00000170: ef45 a53d 53a6 be3e 581e 9d3e bbca 7d3e
00000180: e427 6c3e 26e1 8d3e 4bb7 893e 5733 943e

normised.running_mean f4 [100]
3146.1377 4651.3467 2741.3706 5467.233 5606.37 491.0403 4244.0103 6072.9526
3755.7366 2958.8767 3695.1328 1251.6584 4693.229 2347.5217 2986.6758 3699.6123
2944.8523 2873.4524 932.99255 2840.045 982.9117 3941.7925 3050.2808 2992.839
1882.7246 2218.9705 3164.2168 2860.912 4584.525 2518.527 4060.406 5090.3784
3389.516 3426.255 5084.0625 2326.0781 5424.599 2359.6304 1963.3401 3626.0298
3345.6973 2681.582 2421.398 3809.5059 1277.7074 4433.863 4184.0967 1676.5497
5605.769 1297.8387 2557.3018 4019.0981 5814.1484 2434.552 2568.9336 2013.7418
5177.581 2340.228 4443.0493 2301.2078 1832.7155 1807.5378 2521.907 3445.9473
4591.0786 2211.1426 4916.277 2228.5298 1364.7638 1030.0109 4454.045 1439.1282
5235.1787 2669.169 2105.43 975.5409 3668.361 3219.616 1844.9309 3088.589
3812.1472 3363.9753 3405.206 3535.8352 1931.3024 930.0872 5664.2266 1868.0087
1915.3723 3198.038 3094.3232 4925.4224 2183.7466 2761.5408 1715.0568 2985.5083
5726.9023 4436.1367 5554.752 2927.6028
00000000: 34a2 4445 c65a 9145 ee55 2b45 ddd9 aa45
00000010: f632 af45 2985 f543 15a0 8445 9fc7 bd45
00000020: c9bb 6a45 07ee 3845 20f2 6645 1275 9c44
00000030: d5a9 9245 59b8 1245 d0aa 3a45 cc39 6745
00000040: a30d 3845 3d97 3345 863f 6944 b880 3145
00000050: 59ba 7544 ae5c 7645 7ea4 3e45 6d0d 3b45
00000060: 3057 eb44 87af 0a45 78c3 4545 98ce 3245
00000070: 3344 8f45 6f68 1d45 7fc6 7d45 0713 9f45
00000080: 42d8 5345 1424 5645 80e0 9e45 4061 1145
00000090: cb84 a945 167a 1345 e26a f544 7aa0 6245
000000a0: 281b 5145 5099 2745 5e56 1745 1818 6e45
000000b0: a3b6 9f44 e78e 8a45 c6c0 8245 9791 d144
000000c0: 272e af45 d73a a244 d4d4 1f45 9231 7b45
000000d0: 30b1 b545 d528 1845 f08e 2045 bdb7 fb44
000000e0: a6cc a145 a643 1245 65d8 8a45 53d3 0f45
000000f0: e516 e544 36f1 e144 839e 1d45 285f 5745
00000100: a178 8f45 4832 0a45 37a2 9945 7a48 0b45
00000110: 7198 aa44 59c0 8044 5c30 8b45 1ae4 b344
00000120: 6e99 a345 b4d2 2645 e196 0345 9ee2 7344
00000130: c745 6545 db39 4945 ca9d e644 6d09 4145
00000140: 5b42 6e45 9b3f 5245 4cd3 5445 5dfd 5c45
00000150: ad69 f144 9585 6844 d001 b145 4780 e944
00000160: ea6b ef44 9ce0 4745 2c65 4145 61eb 9945
00000170: f27b 0845 a798 2c45 d161 d644 2298 3a45
00000180: 38f7 b245 18a1 8a45 0496 ad45 a5f9 3645

normised.running_var f4 [100]
4.037288e+07 1.0024429e+08 5.5629184e+07 1.6937171e+08 1.2728789e+08 2.306996e+06 1.2303772e+08 1.4864853e+08
9.222531e+07 3.9530344e+07 1.1451171e+08 7.2650555e+06 8.6530984e+07 2.127109e+07 5.500364e+07 6.6064556e+07
3.420261e+07 3.756871e+07 4.853457e+06 3.1112528e+07 5.2136835e+06 1.3250939e+08 4.5743316e+07 3.7189124e+07
1.4432405e+07 1.860205e+07 5.486936e+07 3.2263702e+07 1.3148463e+08 3.1610308e+07 8.402129e+07 1.3046307e+08
5.818943e+07 4.9801136e+07 1.4128522e+08 2.5411262e+07 1.5293274e+08 2.2216602e+07 1.6563602e+07 5.2244036e+07
4.396742e+07 3.2214304e+07 2.9930574e+07 8.227693e+07 1.0162696e+07 8.686146e+07 8.6683144e+07 1.2118792e+07
1.6093856e+08 7.772609e+06 2.6693634e+07 7.95632e+07 1.8015099e+08 2.8239938e+07 2.6010924e+07 2.081317e+07
2.2533662e+08 2.1706062e+07 7.8692344e+07 2.2483524e+07 1.645544e+07 1.4481904e+07 3.0153718e+07 6.5938308e+07
1.3319161e+08 2.0489486e+07 1.720409e+08 1.9763994e+07 8.230366e+06 6.9909055e+06 1.1033844e+08 9.319997e+06
1.9941858e+08 3.9037656e+07 1.8237438e+07 5.184489e+06 1.1936863e+08 8.381522e+07 1.3513252e+07 4.419187e+07
5.8737376e+07 4.3109908e+07 5.6467396e+07 6.494219e+07 1.8426338e+07 4.654947e+06 2.1009384e+08 1.4294788e+07
1.4954005e+07 1.0879075e+08 3.756432e+07 1.1231318e+08 1.917947e+07 3.0661918e+07 1.1594835e+07 7.319801e+07
1.8669182e+08 1.453373e+08 1.4925622e+08 4.680467e+07
00000000: a402 1a4c 6833 bf4c 6035 544c 8486 214d
00000010: 4ac8 f24c d0ce 0c4a 03ad ea4c 25c3 0d4d
00000020: e4e7 af4c dacb 164c ec69 da4c 3fb6 dd4a
00000030: 750b a54c 1949 a24b 7ed2 514c 2b04 7c4c
00000040: fc78 024c 3250 0f4c a21d 944a a85e ed4b
00000050: e71b 9f4a dabd fc4c 357f 2e4c 81dd 0d4c
00000060: 9538 5c4b 21ec 8d4b 5c4f 514c 0b27 f64b
00000070: 7bc9 fa4c e22a f14b 0542 a04c acd6 f84c
00000080: 9ef9 5d4c ecf9 3d4c 76bd 064d 5fdf c14b
00000090: 18d9 114d cd7f a94b 92bd 7c4b 914b 474c
000000a0: efb8 274c 90c6 f54b 275a e44b 48ee 9c4c
000000b0: 0812 1b4b d2ac a54c c155 a54c 08eb 384b
000000c0: a47b 194d 8233 ed4a 01a8 cb4b 38c1 974c
000000d0: 2dce 2b4d 2174 d74b 9672 c64b b9ca 9e4b
000000e0: d3e5 564d a79a a54b ff17 964c 2289 ab4b
000000f0: 1017 7b4b f0f9 5c4b fb0d e64b e188 7b4c
00000100: f70a fe4c 8752 9c4b 2c12 244d 8dc9 964b
00000110: bc2b fb4a 7358 d54a 3174 d24c 3d36 0e4b
00000120: 2d2e 3e4d b6ea 144c ff23 8b4b d237 9e4a
00000130: 77ad e34c 66dd 9f4c 2432 4e4b 2094 284c
00000140: b810 604c 8573 244c f167 574c 1cbc 774c
00000150: f194 8c4b c60e 8e4a 715c 484d 041f 5a4b
00000160: 152e 644b 7c80 cf4c e84b 0f4c 6c38 d64c
00000170: e753 924b 8fee e94b 53ec 304b 379d 8b4c
00000180: 0f0b 324d bd9a 0a4d 8257 0e4d b08b 324c

output.0.weight f4 [10, 100]
0.26109114 -0.50661904 -0.5005036 0.38992345 -0.37096643 0.055397023 0.38012236 0.20618533
0.3710425 -0.4048108 -0.45087186 -0.47259066 -0.76137704 -0.22579786 -0.4915062 0.053726763
-0.25910652 0.068844676 -0.22864664 -0.53190726 -0.29968664 -0.45539707 0.19938622 0.19917813
-0.40862602 -0.5844468 -0.1972887 -0.24328358 0.3078385 0.07127577 0.1286735 -0.44238964
0.4042139 -0.019036124 0.3658822 -0.4937613 0.286695 -0.4356017 0.097195745 0.34774032
-0.2668503 0.05984765 -0.22896157 0.36724144 -0.49453428 0.22537844 -0.29778153 -0.25749815
-0.8266075 -0.14308469 -0.26765153 -0.6379504 0.19371547 -0.4415776 -0.36088142 -0.15998025
0.39219946 -0.43843496 -0.31926787 -0.18488143 -0.3079529 -0.20306616 -0.23829496 0.37921554
0.3222342 -0.0009792926 0.057273045 -0.30606577 -0.4215856 -0.20973347 -0.3729359 -0.22087894
0.12357543 0.21492061 0.023794081 -0.27030092 0.33005765 -0.3810849 -0.4007489 0.13011105
0.23048934 -0.09031275 -0.003751495 -0.6284913 -0.3644286 0.07793801 0.047087878 -0.35643858
-0.24048041 -0.57413244 -0.21560825 -0.47811213 -0.44318417 0.41816697 -0.72774774 -0.080825575
-0.17866528 0.3833588 -0.1657099 -0.35969183 -0.08160864 0.7281252 -0.33275625 0.044741366
0.17920005 0.01678008 0.16332026 -0.57525676 -0.54391575 -0.42082694 -0.79406995 -0.35172215
-0.26459682 0.2745367 0.67966306 -0.34652093 -0.29211792 -0.31100398 -0.14144145 -0.12890269
-0.01728188 0.15115625 -0.23946713 -0.13153407 -0.3096458 0.22516142 0.23356225 0.11135581
-0.56257087 -0.21672884 -0.37907562 -0.43774933 -0.46905792 0.1634406 -0.6102948 -0.4627365
0.17558481 -0.46358678 -0.4342668 -0.5963638 -0.46503523 -0.27832884 0.28672186 -0.34755877
-0.4693967 -0.21405768 -0.3540416 -0.6493236 0.023712555 -0.24529412 0.23143436 0.31317776
0.43240935 -0.25221667 -0.52612585 -0.44445512 -0.53097034 -0.52254176 0.11940176 -0.33397028
-0.5797711 0.15917352 -0.3101834 -0.2277484 -0.27723384 0.33107153 0.3979233 0.02806093
0.10983983 -0.58761543 0.40097725 -0.23121427 -0.6558905 -0.02727806 -0.44120234 -0.1379016
-0.64894325 0.30685726 -0.40516734 -0.14226185 -0.26435754 -0.3601213 -0.5301265 0.634057
-0.18400097 -0.2785969 0.49721146 -0.46068272 -0.3089133 0.09377531 -0.6343072 0.5025292
-0.4000122 -0.36885265 -0.15161702 -0.42391655 -0.051168278 -0.6307668 -0.4093066 0.29986948
0.06918016 -0.15162481 0.8149471 -0.032637075 -0.07179204 -0.10204804 -0.15910734 -0.18744043
-0.042932417 0.2442941 0.1944168 0.53597414 -0.3380627 0.08636418 -0.7696527 -0.14851183
0.5451207 -0.49760887 -0.51659155 1.2880017 -0.8041644 -0.027922122 -1.7799051 0.41571522
-0.100331016 -0.18937951 0.34187678 -0.31715047 0.020935077 -0.40824515 -0.39329877 -0.5766621
0.16955355 -0.28360796 0.26535246 -0.4573811 0.1733451 -0.23031893 0.2429539 -0.16377683
-0.88174343 -0.8166436 -0.26433828 0.13566414 0.58211166 -0.09265134 -0.050896645 -0.0043053674
-0.33492258 -0.9398078 0.019486513 -0.14847006 -0.39040673 0.5540753 -0.7329645 -0.41842508
00000000: bdad 853e c9b1 01bf 0121 00bf 0ca4 c73e
00000010: 50ef bdbe fde7 623d 669f c23e 3f22 533e
00000020: 48f9 bd3e 5c43 cfbe add8 e6be 67f7 f1be
00000030: 9be9 42bf 8e37 67be b3a6 fbbe 9810 5c3d
00000040: 9ca9 84be 70fe 8c3d 5822 6abe 132b 08bf
00000050: 8770 99be ce29 e9be e72b 4c3e 5af5 4b3e
00000060: 6e37 d1be 4e9e 15bf 0d06 4abe 551f 79be
00000070: 029d 9d3e 08f9 913d fcc2 033e e580 e2be
00000080: 20f5 ce3e a5f1 9bbc e954 bb3e 48ce fcbe
00000090: b0c9 923e 3007 dfbe 900e c73d 050b b23e
000000a0: 9aa0 88be cf22 753d e774 6abe 1207 bc3e
000000b0: 9933 fdbe 9bc9 663e d276 98be ccd6 83be
000000c0: 8d9c 53bf cb84 12be 9f09 89be b850 23bf
000000d0: 595d 463e 7616 e2be 73c5 b8be ddd1 23be
000000e0: 5ece c83e 8c7a e0be 1477 a3be 8f51 3dbe
000000f0: 01ac 9dbe 93f0 4fbe 9803 74be 8a28 c23e
00000100: e2fb a43e 9b5b 80ba 2497 6a3d a7b4 9cbe
00000110: 11da d7be 5fc4 56be 74f1 bebe 172e 62be
00000120: 1d15 fd3d 2614 5c3e ceeb c23c e264 8abe
00000130: 51fd a83e 8f1d c3be f62e cdbe d53b 053e
00000140: 6605 6c3e e4f5 b8bd a4db 75bb cee4 20bf
00000150: 6396 babe f79d 9f3d 38df 403d 1e7f b6be
00000160: 7f40 76be 58fa 12bf 69c8 5cbe 1dcb f4be
00000170: 09e9 e2be fb19 d63e ad4d 3abf e187 a5bd
00000180: 08f4 36be 9b47 c43e dbaf 29be 8729 b8be
00000190: 6e22 a7bd 6a66 3a3f 075f aabe b942 373d
000001a0: 3880 373e 6176 893c 6d3d 273e 0744 13bf
000001b0: 103e 0bbf a176 d7be 2b48 4bbf ed14 b4be
000001c0: 3c79 87be 1390 8c3e 66fe 2d3f 316b b1be
000001d0: 7b90 95be ea3b 9fbe 07d6 10be 11ff 03be
000001e0: bb92 8dbc b4c8 1a3e df36 75be deb0 06be
000001f0: e589 9ebe b790 663e f12a 6f3e 840e e43d
00000200: a504 10bf 2aee 5dbe 3316 c2be ae20 e0be
00000210: 5c28 f0be f95c 273e 483c 1cbf cceb ecbe
00000220: 81cc 333e 3f5b edbe 3858 debe 4cab 18bf
00000230: 1919 eebe 1e81 8ebe 35cd 923e 39f3 b1be
00000240: c454 f0be f031 5bbe f144 b5be 123a 26bf
00000250: d540 c23c 622e 7bbe 21fd 6c3e d658 a03e
00000260: c264 dd3e 8b22 81be 2fb0 06bf 9f8f e3be
00000270: aced 07bf 4cc5 05bf e988 f43d 27fe aabe
00000280: e16b 14bf 62fe 223e 5cd0 9ebe e036 69be
00000290: 98f1 8dbe 3582 a93e 9abc cb3e 09e0 e53c
000002a0: b4f3 e03d f76d 16bf e44c cd3e 6fc3 6cbe
000002b0: 71e8 27bf 3d76 dfbc 46e5 e1be 1436 0dbe
000002c0: 2521 26bf 651c 9d3e 1872 cfbe 17ad 11be
000002d0: df59 87be d261 b8be 5fb6 07bf 8f51 223f
000002e0: c06a 3cbe 41a4 8ebe 8092 fe3e 9bde ebbe
000002f0: e229 9ebe 450d c03d f561 22bf c1a5 003f
00000300: 66ce ccbe 41da bcbe 7e41 1bbe 970b d9be
00000310: d495 51bd ef79 21bf a290 d1be 7e88 993e
00000320: 54ae 8d3d 8943 1bbe 60a0 503f 74ae 05bd
00000330: b407 93bd 90fe d0bd 09ed 22be 62f0 3fbe
00000340: e7d9 2fbd 3c28 7a3e 3315 473e 9a35 093f
00000350: 8e16 adbe b4df b03d f607 45bf 7c13 18be
00000360: 088d 0b3f 97c6 febe 583f 04bf 3ddd a43f
00000370: b8dd 4dbf efbc e4bc eed3 e3bf a0d8 d43e
00000380: 597a cdbd b4ec 41be 790a af3e 8c61 a2be
00000390: 0a80 ab3c 8205 d1be 755e c9be 21a0 13bf
000003a0: 729f 2d3e 1035 91be 47dc 873e db2d eabe
000003b0: 6181 313e bad8 6bbe e8c8 783e 1db5 27be
000003c0: f0b9 61bf 8e0f 51bf 5957 87be 8aeb 0a3e
000003d0: 4505 153f fcbf bdbd 0079 50bd 0a14 8dbb
000003e0: f97a abbe 3e97 70bf 2ea2 9f3c 8908 18be
000003f0: 64e3 c7be e1d7 0d3f 90a3 3bbf d03b d6be

output.0.bias f4 [10]
-0.46779826 -0.657184 -5.6171203 -0.5478227 -0.0075460286 -3.2403505 -3.197979 0.00013752758
-3.9618278 0.37557203
00000000: 4183 efbe 363d 28bf 73bf b3c0 1c3e 0cbf
00000010: ad44 f7bb e761 4fc0 b0ab 4cc0 4735 1039
00000020: 968e 7dc0 fa4a c03e
