General/Code/Models/FCN_batchnorm2-SGD-lr-0.01-acc-96.2 epochs-50.pth (torch, 404606 bytes, 12 tensors)

hidden1.0.weight f4 [100, 784]
000000 00 13 b5 bc 43 93 c9 bc ec e8 b2 3c b0 90 5a 3b
       -0.022103786 -0.024606353 0.021839581 0.00333504
000010 47 a7 9a bc de bd a1 bc f6 73 fe 3c 43 c2 b4 bc
       -0.018878592 -0.019743856 0.031061154 -0.022065287
000020 be 28 f9 bc 0e 01 bf bc 1e f4 f7 3c dc 39 92 3c
       -0.030414935 -0.023315933 0.030267771 0.017849855
000030 96 01 d0 3c 71 7b b0 3c d7 f5 a1 bc ee e4 b8 3c
       0.025391381 0.021543236 -0.019770546 0.0225701
000040 b0 56 11 3b 0e 62 ad 3c fd 72 06 bd d4 dc 7e 3c
       0.0022176914 0.02116492 -0.032824505 0.015555579
000050 be b7 8a bc ed 3e 0a bd fc c8 12 3c 6c ed c6 bc
       -0.016933318 -0.033751417 0.008959051 -0.024283133
000060 d8 f7 cc 3c 60 36 38 bc 20 5f ed ba 58 17 c9 bc
       0.025020525 -0.011243433 -0.0018110014 -0.024547264
000070 c3 9d 0d 3d f8 08 d6 3b 70 84 cc 3b 38 9e c4 bb
       0.03457428 0.006531831 0.0062413737 -0.0060003065
000080 a0 cd 07 3b cc 2d d4 3c 3a 1e 12 bd 4f ea 08 3d
       0.0020721927 0.025900744 -0.035673358 0.03342658
000090 30 c8 6a 3b d8 85 b1 bc 1c 9a 57 3c 3f 05 11 bd
       0.0035824887 -0.021670267 0.013159301 -0.035405394
0000a0 c7 45 7d 3c 67 36 d0 3c 53 ea ed 3c 00 f7 d9 3c
       0.015458531 0.025416566 0.029042399 0.026607037
0000b0 8d 34 f1 bc 52 08 d5 bc ca 1a a7 3c 4a 09 a7 3c
       -0.029444003 -0.026004944 0.020398516 0.020390172
0000c0 ec 8a 98 bc e4 8b 5c 3c 18 b2 1b bc d0 e8 b6 bc
       -0.01862093 0.013461087 -0.00950291 -0.02232781
0000d0 10 09 28 3c ce 17 d6 bc 90 26 7f bb 7c 48 b3 3c
       0.010256067 -0.026134398 -0.0038932897 0.02188515
0000e0 20 de a3 bc 00 45 e2 ba 32 f2 37 bc d6 e1 10 bd
       -0.020003378 -0.0017262995 -0.011227177 -0.035371624
0000f0 68 d7 15 3c 9b f1 10 bd 1c e7 41 3c 41 54 0c 3d
       0.009145595 -0.035386663 0.011834886 0.03426004
000100 70 97 5c bb c9 57 31 bc 02 c1 ad bc bf 41 eb 3c
       -0.00336596 -0.010824152 -0.021210197 0.028717874
000110 93 27 8f ba 91 4d b8 3c 46 28 f9 3c 1d 52 ad 3c
       -0.0010921828 0.022497924 0.030414712 0.021157319
000120 91 a6 e1 bc 0b 26 7a bc ab 49 13 3c 7e 0e 02 3d
       -0.027545245 -0.015267859 0.008989732 0.031752102
000130 f6 97 90 3b 00 b4 37 b8 9c 10 1c 3c d6 49 f0 3c
       0.0044126464 -4.3798238e-05 0.009525444 0.029332083
000140 40 d2 56 bc ba 5a cc bc 12 58 ed 3c 9f b0 0f bd
       -0.013111651 -0.024945606 0.02897266 -0.03508055
000150 70 f9 4b 3c b4 46 79 bc 92 03 cd 3c ea 1f f0 3c
       0.012449607 -0.015214611 0.025026117 0.029312093
000160 e0 bd 4f 3c fa 82 d6 3c a8 10 25 ba ee 64 5c bc
       0.012679547 0.026185501 -0.00062967325 -0.013451798
000170 2c b3 5d 3c 0f 0e 90 3c 2c c2 02 bd 5d 16 e8 3c
       0.013531487 0.017584829 -0.031923458 0.028330976
000180 41 fe 6f bc 62 f8 81 bb 28 d1 a1 3b 93 4c 93 bc
       -0.014648021 -0.003966377 0.0049382634 -0.01798085
000190 73 8c 16 3c 98 c6 92 3c 8b 52 ea bc 8e ed 5f b9
       0.009188759 0.017916963 -0.028603813 -0.00021355433
0001a0 11 55 f4 bb 7e 73 1d b9 ad 6d b9 bc 73 bc 17 bc
       -0.00745643 -0.00015015711 -0.022635305 -0.009261238
0001b0 d0 79 29 bb 20 b6 ae 3c 7c 2c 6d bc fc 6d 08 bc
       -0.002585996 0.021327078 -0.014475938 -0.008327004
0001c0 42 14 c6 3c 7c bf 0b bd 81 f3 f2 bc 35 66 b9 bc
       0.024179582 -0.03411816 -0.029657127 -0.022631744
0001d0 c2 95 af 3c 36 ab 09 3c 31 a3 82 bc b7 dc d8 bc
       0.021433715 0.008402636 -0.015946956 -0.026472433
0001e0 e2 d5 27 bc 16 14 81 3c e6 fd 5e 3c 08 93 0a bd
       -0.010243865 0.015756648 0.013610339 -0.033831626
0001f0 9a dd c8 3a 35 c7 0b 3c 77 57 21 bc 56 c7 b8 bc
       0.0015324831 0.008531381 -0.009847513 -0.022555988
000200 6b 8b 8f bc 29 56 e9 3c de bc 85 3c be 0e e8 bc
       -0.017522534 0.028483467 0.01632541 -0.028327342
000210 a4 c5 b0 bc c5 20 8c 3c 7c 28 f0 3c 85 51 40 bc
       -0.021578617 0.01710547 0.02931618 -0.011738186
000220 5e da a6 bc d2 32 e9 3c c0 a0 19 bc b8 6d 5e 3c
       -0.020367797 0.028466616 -0.009376705 0.013575964
000230 a2 31 d9 3c 4a 3e 79 bc ae 86 bd bc 80 05 9e 3c
       0.026512925 -0.015212605 -0.02313551 0.019289732
000240 8c eb d7 3c bc f3 d0 3c cc 41 0f 3d cf e9 09 bd
       0.026357435 0.025506847 0.03497486 -0.033670243
000250 78 47 c2 3c 55 6d 89 bb 50 c2 13 3b 68 c1 c2 bc
       0.02371572 -0.0041939416 0.002254624 -0.023773864
000260 80 38 29 bc da 61 84 3c 4d 40 bc b8 e7 44 9e bb
       -0.010328412 0.01615994 -8.9765155e-05 -0.004829991
000270 03 44 a2 bb 76 c9 95 3c d7 ee 21 3c fb 4f 28 3c
       -0.0049519553 0.01828454 0.009883604 0.010272975
000280 1a ab 22 bd 66 42 08 3d 8b 33 cd 3b 45 43 39 bc
       -0.039713956 0.033266447 0.006262248 -0.011307542
000290 56 c5 1b 3c f9 2a 1e 3a e3 21 f8 bc 9e 23 80 bc
       0.009507498 0.0006033625 -0.030289596 -0.015641984
0002a0 a5 67 b8 bc 01 86 09 3d 56 3d 00 bd d7 a7 02 3d
       -0.022510359 0.03357506 -0.031308495 0.031898346
0002b0 a0 7b eb bb fc 1c 39 bc 3f 55 71 bc 51 33 8c bc
       -0.007186368 -0.011298414 -0.014729797 -0.017114313
0002c0 15 f8 21 bc c1 a8 c9 3a 8c 04 ff 3c d4 e2 be bc
       -0.0098858075 0.0015385376 0.031130098 -0.02330152
0002d0 13 bf eb bc 77 cc cc bc af 2a 20 3c 5c 91 21 bc
       -0.028777635 -0.02499984 0.009775802 -0.0098613165
0002e0 c4 a2 28 bd 98 f0 8d bc 90 77 86 3b ba 0b 44 3c
       -0.04117085 -0.017326638 0.0041036084 0.011965686
0002f0 24 4b bf ba cc b3 43 3b 81 8a 85 3c 5a c2 71 3c
       -0.0014594537 0.0029861806 0.016301395 0.01475581
000300 b1 61 f3 bc d5 ad 97 bc 08 ec d1 bc 84 77 40 3c
       -0.029709669 -0.018515507 -0.025625244 0.011747245
000310 0f 1a 07 bd dc 4a b0 3c d0 4c 0f 3d 45 e1 03 3d
       -0.032983836 0.02152007 0.034985363 0.032197256
000320 c7 8d c7 bb cd ea 8e 3c 5f 4f a2 3b ec af 36 bb
       -0.006089899 0.017445946 0.0049533094 -0.0027875854
000330 e9 6a be bc 57 7d 15 3d 0f bc ed bc 37 00 12 bd
       -0.023244338 0.036496487 -0.029020337 -0.035644736
000340 7a 26 0d bd b7 49 6d bc 67 74 00 bc b4 df 7e 3c
       -0.034460522 -0.014482907 -0.0078402525 0.015556265
000350 a0 42 87 bb ac 8d 99 bc 39 51 5e 3c e9 1e 09 bd
       -0.0041278154 -0.018744312 0.01356917 -0.033476744
000360 01 63 54 3c 78 05 dd bb 89 67 d0 ba 70 c7 19 3d
       0.0129630575 -0.0067450367 -0.0015899997 0.037543714
000370 40 12 84 3c bd 4f ee bc ad 72 0f bd 13 d4 0f bd
       0.016121984 -0.029090757 -0.035021473 -0.03511436
000380 b6 93 e5 3c cd db 4f bc 85 63 b8 3c ed 26 91 bb
       0.028024536 -0.012686682 0.022508392 -0.004429689
000390 69 16 bd bb 80 3d b0 bb dc 87 57 bc ec 6a 02 bc
       -0.0057704938 -0.005378425 -0.01315495 -0.0079600625
0003a0 47 67 03 3d 05 d6 1f 3d 71 dc 8d 3c 21 5b 06 3b
       0.032080915 0.039022464 0.017317029 0.0020501094
0003b0 a6 cd cc bc 38 4b 17 bd 31 0c 01 bd a9 f1 0c bd
       -0.025000405 -0.03693697 -0.031505767 -0.034410153
0003c0 af f0 35 bd b9 e2 a7 3c 5d 6e 8b bb 34 15 84 bc
       -0.044418987 0.020493852 -0.0042550997 -0.016123392
0003d0 6e a6 01 3d cd a4 c1 bc d4 56 e7 3c 88 c6 a5 3c
       0.03165286 -0.023638153 0.028239645 0.020236269
0003e0 09 ef fc bb d4 b8 ed 3c 0a 5c 53 bc 35 79 0c 3d
       -0.007718925 0.029018797 -0.012900362 0.03429528
0003f0 60 00 9f ba 73 16 7d 3c ac 0b d0 3c 93 c6 35 bc
       -0.0012130849 0.015447247 0.02539619 -0.011094707

hidden1.0.bias f4 [100]
000000 58 69 c3 bc 27 66 89 3d d3 01 fc bd a9 6b 55 3e
       -0.023853943 0.06708937 -0.123050354 0.2084185
000010 86 7f cf 3e 54 b2 a7 be f4 73 a4 bd cd 3a a4 bd
       0.4052698 -0.3275324 -0.08029929 -0.08019028
000020 a4 78 be bc 74 d0 5b bd a8 9e 6c bd 70 9b 89 bc
       -0.023250885 -0.053665593 -0.057768494 -0.016797751
000030 fb 95 3e 3d a8 04 f8 bd d1 3f 15 3c 22 e7 85 bd
       0.04652975 -0.12110263 0.009109453 -0.06538226
000040 52 aa e3 be 56 40 37 be c0 b8 9f 3e 4c ad 01 3d
       -0.44465882 -0.17895636 0.3119564 0.03165941
000050 7a d4 97 3b 9b 4c 06 bc 22 bd ae be bc e5 43 bd
       0.0046334835 -0.008196975 -0.34128672 -0.047826514
000060 be af 2d 3d da 4f 81 bd a9 a3 09 bf 08 e8 8d be
       0.04240393 -0.063140586 -0.5376535 -0.27716088
000070 7c 7d 2d bb d1 65 07 3f d7 9e 16 bf a6 d9 2b be
       -0.00264725 0.52889735 -0.5883612 -0.16782245
000080 70 d4 e0 bc 40 83 57 be 02 15 87 3c c5 cf 49 3e
       -0.027445048 -0.21046162 0.01648951 0.19708164
000090 82 8b 96 3b d8 2f 37 3d 80 09 0b bd 91 f5 a3 bd
       0.0045942673 0.04472336 -0.033944607 -0.080058224
0000a0 b5 19 7b be 39 e8 a4 3d 94 df 65 3c f6 8f d2 3e
       -0.24521525 0.080521055 0.014030356 0.41125458
0000b0 b7 53 80 be c5 c4 c2 3e 25 10 dc 3e 72 42 3e be
       -0.2506387 0.38040748 0.42981067 -0.18580034
0000c0 ba 96 0e bf b5 98 2b be df a5 dc 3d 65 8c 02 bf
       -0.5569874 -0.16757472 0.10773825 -0.50995475
0000d0 35 b6 83 bb 65 18 d3 3e 47 aa 92 be 34 42 82 3e
       -0.0040195235 0.4122955 -0.28645536 0.25441134
0000e0 66 1b 30 3f af 2b 2b 3d 91 22 4e bd c3 11 b8 3e
       0.68791807 0.041789707 -0.050325934 0.3595105
0000f0 34 ab 23 bf ca 05 47 bd 37 14 8f bd 0a bb c5 3e
       -0.6393311 -0.048589505 -0.069862776 0.38619262
000100 48 5d 32 bc 58 3b 7e be 12 fa 11 bd 2d a0 91 be
       -0.010886498 -0.24827325 -0.035638876 -0.28442517
000110 be 3d ea be b0 70 73 be cb 8d 9c 3c a4 66 2f bf
       -0.4575023 -0.23773456 0.01911058 -0.6851599
000120 a6 9a 56 be da 01 8c bc 08 ff c4 bc 26 7a 0f bd
       -0.20957431 -0.017090727 -0.02404739 -0.0350286
000130 70 67 0a 3b 4f ff cd 3b 70 23 2b 3e 74 78 76 3e
       0.0021118782 0.0062865387 0.16712737 0.24069387
000140 1c e0 1e be 61 f9 cf 3c 73 ff 0b 3e 0d cd 0e 3f
       -0.15515178 0.025387468 0.13671665 0.5578163
000150 f5 08 52 3e f1 fb 9b bd e6 f8 94 3d e1 d9 8b 3c
       0.2051123 -0.076164134 0.07274036 0.017071666
000160 b8 2d fb 3a 5c 35 a3 3e 9a cf 8a bd b1 5e ce be
       0.0019163406 0.31876647 -0.06777878 -0.4030662
000170 9e be 9a bd 91 c0 52 3b d5 6c fc bc 52 0f 16 3f
       -0.075558886 0.0032158236 -0.030813614 0.58617127
000180 93 c7 80 be 08 0e 07 bd d3 ec 16 3d 5a e0 1e 3c
       -0.25152263 -0.032972366 0.036846947 0.009697044

hidden2.0.weight f4 [100, 100]
000000 96 30 59 3b 82 19 36 3d 4e 98 72 bd 10 fe e2 bd
       0.0033140532 0.04445792 -0.05922728 -0.11083615
000010 9d d7 7b be 03 1a 22 bb b3 0f a3 bd 22 cf 42 be
       -0.24593969 -0.0024734742 -0.07961979 -0.19024327
000020 54 ff 99 bb 74 6c 82 3c 9a d2 b3 3c 1c 91 96 bd
       -0.004699627 0.015920855 0.021951009 -0.07351896
000030 84 e2 12 bd 72 aa 12 be 84 48 f4 bd 59 df 29 be
       -0.035860553 -0.14322832 -0.11927894 -0.16589107
000040 51 92 68 bd 63 00 c6 bd b1 6d f3 bd 1c 94 b7 3b
       -0.056780163 -0.096680425 -0.11886156 0.005602373
000050 18 c3 57 bc 16 bb b0 bc 13 10 79 bd 9c 11 87 bb
       -0.013169073 -0.021573585 -0.060806345 -0.0041219722
000060 4c cc 20 be ca 54 85 bd e5 32 06 be a7 ad d0 bd
       -0.15702933 -0.06510313 -0.13105352 -0.101893716
000070 9a ec 92 bd c7 2a c7 bd 6e 02 44 be e4 4f 01 bd
       -0.071740344 -0.09724956 -0.19141552 -0.03157033
000080 f5 59 4c bb ba 8f 04 3e 9d 94 63 bd 4d 0f d5 bd
       -0.0031181548 0.12945452 -0.05556165 -0.10403309
000090 57 ea 1c 3d 98 79 3a be 56 6b a0 bd e7 d9 95 bd
       0.03830942 -0.18210447 -0.07832973 -0.07316952
0000a0 bc 76 c3 bd 90 f6 c9 b9 bb 62 94 bd 39 16 6c 3c
       -0.09544131 -0.0003852141 -0.07245394 0.014409595
0000b0 9e 9b 50 3e ff 56 29 be 37 78 58 be 82 f8 f1 bd
       0.20371863 -0.16537093 -0.21139608 -0.11814977
0000c0 7a 69 f7 bc a0 c5 43 be fc e4 35 bd f8 a0 76 bd
       -0.030201662 -0.19118357 -0.04440783 -0.060212106
0000d0 5e 97 9d bc 60 9b f0 3c 05 b4 5d 3e 4f d0 15 bd
       -0.019237217 0.029370964 0.21650703 -0.03657561
0000e0 0e 29 19 3d 16 a0 48 3d 33 92 07 bc 4c 4c 4e be
       0.03739267 0.048980795 -0.008274603 -0.20146292
0000f0 90 e6 aa 3e ed cf 1a be 2f 4f 42 be c0 39 33 bd
       0.3337903 -0.1511838 -0.18975519 -0.043756247
000100 9e 9e bb bd 59 58 cf bd 85 31 cb 3d 76 6d 26 bd
       -0.09161113 -0.10124273 0.099215545 -0.040631734
000110 fd 38 f2 bc 52 5a 54 3e 17 97 f9 bd 84 48 3a bd
       -0.02956819 0.2073758 -0.12187021 -0.045479313
000120 36 cf 1f be fe e9 2d bd e2 0f 79 bd 77 ca 2c bd
       -0.15606388 -0.04245948 -0.060806163 -0.042185273
000130 75 6c b4 bd 2a 4a a1 bc 66 57 f8 3d d5 5e f2 bd
       -0.08809749 -0.019688684 0.12126045 -0.11834494
000140 5e c2 02 3d 2c 46 b1 bd 4c 6c d7 bc 9c 47 9f bd
       0.031923644 -0.08655962 -0.026296757 -0.0777733
000150 00 59 9a bd 9f 1e d7 3d b4 b5 11 3d 7d d0 a7 3c
       -0.07536507 0.105038874 0.035573676 0.020485157
000160 59 2c 0f bd 4d b5 e0 bd 1c 6b 40 3d 0e 05 ac 3e
       -0.034954403 -0.109720804 0.046977147 0.33597606
000170 b7 40 21 bd e5 94 10 be 14 62 a7 3d 3f 7e 73 bd
       -0.039368358 -0.14119299 0.08173004 -0.05944657
000180 8d 59 80 bd 11 73 f5 3b 92 c8 a1 bd bf 1a 51 3d
       -0.062670805 0.0074905236 -0.07899584 0.051050898
000190 d6 a1 e9 3c 5d 9f 08 3d a0 16 60 bd ea 45 9f bc
       0.028519552 0.033355106 -0.054709077 -0.019442517
0001a0 f5 49 ee 3d 96 d6 6c bd 6c cf 6e bd 83 ce 3a 3e
       0.116352 -0.057821833 -0.05830328 0.1824284
0001b0 79 28 f9 bc de 38 63 3c 88 24 17 3c 33 a0 c7 bc
       -0.030414807 0.013868539 0.009225018 -0.024368381
0001c0 15 d5 a9 bd 9c d9 54 3e 4b c5 dd 3d 26 56 b0 3c
       -0.08292595 0.20786136 0.10828646 0.021525454
0001d0 15 b7 c4 3c 45 4d 89 bd 9a 05 05 be 4a 3c 11 bd
       0.024013082 -0.06704191 -0.12990418 -0.035457887
0001e0 f1 f7 66 bd 94 d8 51 3d 36 79 b6 bd a0 2c 91 be
       -0.0563888 0.051231936 -0.08909838 -0.2835436
0001f0 b5 40 a2 bc ba a1 ac bd 91 3d 43 3c a6 a0 c4 bd
       -0.019806245 -0.084292844 0.011916534 -0.09600954
000200 0b ba 69 bd 2a 0a 17 bd 87 51 f0 bd 57 a2 3c bd
       -0.05706219 -0.036874928 -0.117343 -0.046053257
000210 22 8f 66 bd a6 93 01 bc e8 6f a3 3d 3f 50 f2 3d
       -0.056288846 -0.007908737 0.07980329 0.11831712
000220 6e 8f 02 3c ec 9a 4e 3e a2 97 be 3d 55 99 81 3e
       0.007968767 0.20176286 0.093062654 0.25312296
000230 53 36 14 be 4b 61 26 be 0f 84 5f 3c 6f ad 9f bd
       -0.14473848 -0.16248052 0.013642325 -0.07796752
000240 af 04 86 bd f5 cb db bd ce 97 db 3c d2 8f 59 bd
       -0.06543862 -0.10732261 0.026805785 -0.053115673
000250 49 1f 8f bd 6e 37 2e bd 5c 43 63 be 86 ae 8c bd
       -0.06988389 -0.04253333 -0.22193664 -0.06869225
000260 c0 e9 23 3e 1e 76 1b be 6c 3b 1b bd d2 52 83 3c
       0.16007137 -0.15181777 -0.037898466 0.016030703
000270 02 2b ef bd 3a 6b 9f 3d 5b 79 d0 3b 6e e1 30 3e
       -0.11678125 0.07784124 0.006362123 0.17273495
000280 c3 60 0b 3c 86 78 ea 3d 04 db 04 3e ad 9b 2e bb
       0.0085069565 0.11448769 0.12974173 -0.0026643083
000290 95 1d d1 bd 17 7b b6 bd 7e ec f7 3b 27 c9 3c bd
       -0.102107204 -0.08910196 0.007566034 -0.04609027
0002a0 f2 a8 8f bc fa e2 5c 3c e3 91 c0 3d f5 1a bc bd
       -0.017536614 0.01348185 0.09402826 -0.09184829
0002b0 ed 2b 50 bd e3 a2 f0 bc 7f 58 94 bd 74 77 05 bd
       -0.05082314 -0.029374545 -0.07243442 -0.032584623
0002c0 fb 79 65 3d c8 c4 49 3d 79 ff 18 bc fd f5 0f bd
       0.056024533 0.04925993 -0.009338253 -0.035146702
0002d0 d8 52 8d bb 68 50 8f 3d 54 5e 3d be 87 a3 12 be
       -0.0043128543 0.06997758 -0.18493015 -0.14320193
0002e0 74 60 cd 3c 6d 7b 58 3d f0 a6 1e bd bf f8 36 bd
       0.025070406 0.052852083 -0.038733423 -0.044670817
0002f0 fa f8 59 be 00 3c d1 bd b3 a1 6a 3d cd 27 8f bd
       -0.21286383 -0.10216522 0.057283115 -0.06990013
000300 8c 5c 37 be 91 8a 04 3a df 0f 96 3d d0 b9 16 be
       -0.17906398 0.00050560484 0.07327246 -0.1471932
000310 f5 bb 07 bd 71 fa b9 3c 4f cb bc bc bf 02 c4 bc
       -0.033138234 0.022702428 -0.023046164 -0.02392709
000320 db 38 26 3d 08 b2 a8 bc f8 74 af bd 6f 30 33 be
       0.040581565 -0.020592704 -0.08567232 -0.17498945
000330 ba bc d8 3d df 06 bd 3d ca ad 52 bd 6d 55 bb bc
       0.10582872 0.09229826 -0.05143527 -0.022867883
000340 35 57 be bc e6 39 86 bd 75 03 b5 3c 4e 03 c7 3d
       -0.023234943 -0.06554012 0.022096375 0.09717427
000350 b2 26 b9 bb 4d 10 51 be f5 50 8a be 54 03 88 be
       -0.005650365 -0.20416375 -0.2701489 -0.2656504
000360 33 e7 84 bd 53 ef 49 be 4f 7b 1f be 5b 98 77 3b
       -0.0648941 -0.19720201 -0.15574382 0.003778002
000370 a1 ca 77 bd 8b 53 a3 bd 1a ef 36 bd 1e 93 fe 3d
       -0.060495976 -0.07974919 -0.04466162 0.12430404
000380 6b 8d 89 3c f4 4d fd bd 1f fb fb 3d 64 bc d0 bd
       0.016791066 -0.12368384 0.12303757 -0.10192183
000390 c8 b3 4e 3d 9f e3 2f be 27 5f e4 3d 20 83 95 bd
       0.05046442 -0.17176674 0.11150961 -0.07300401
0003a0 8c a1 bd ba e2 d4 69 3e 3f e4 af bc 07 4a 87 be
       -0.00144677 0.22835115 -0.02147114 -0.26423666
0003b0 b3 09 8d bd 4a 77 70 be 02 9f 86 bd ad 43 87 3d
       -0.068866156 -0.23483005 -0.06573297 0.06604705
0003c0 85 5c 8d be d4 b8 96 be f9 a1 b6 bc 80 0a a6 bd
       -0.2760965 -0.29437888 -0.022294031 -0.081074715
0003d0 9d 85 ec 3d ac 38 0d be 15 04 08 be 0d ad 09 be
       0.11548922 -0.1379115 -0.13282807 -0.1344492
0003e0 9a eb ba bd c9 23 85 3d 96 e3 6d be 48 da c6 bd
       -0.09126969 0.06500966 -0.23231348 -0.097096026
0003f0 84 66 e8 3d 57 eb 8b be a4 de 3b 3e f5 5d 10 bc
       0.11347678 -0.27327988 0.1834665 -0.008811464

hidden2.0.bias f4 [100]
000000 a4 46 33 bc 16 b1 38 bc 9b 42 eb 3b ad 28 af ba
       -0.010942135 -0.011272689 0.007179571 -0.0013363563
000010 c1 c1 04 bd ad 34 c3 bc 80 88 bb bb 1e e2 72 b8
       -0.03241134 -0.023828829 -0.005723059 -5.7907884e-05
000020 09 ae 79 be f3 c7 58 3e 79 7c 54 bd c2 80 6f 3b
       -0.24382795 0.21170025 -0.05187652 0.0036545251
000030 40 43 c8 3a 44 79 29 bc 29 a7 f5 bc 5e e0 01 bb
       0.0015278831 -0.010343853 -0.029986935 -0.001981757
000040 fc 9d 86 3a 77 53 69 3e a7 ff 93 bc 84 b7 05 bd
       0.0010270472 0.22785746 -0.01806624 -0.032645717
000050 01 0d be bc e1 f4 93 bb 84 bc 7e 3e 5b f8 79 bd
       -0.02319956 -0.004515276 0.248766 -0.061027866
000060 04 d9 55 be 1e d7 64 be 12 88 86 3e b9 f1 a3 bd
       -0.20883566 -0.22347686 0.26275688 -0.08005089
000070 b9 ee 8f bb db 7b db bc c7 b6 33 ba 90 b6 ee be
       -0.0043924716 -0.026792457 -0.0006855544 -0.4662366
000080 e0 ea 34 3c 0c 32 84 3e 85 3d 12 bd 57 3a c2 bb
       0.011042327 0.25819433 -0.0357032 -0.005927365
000090 34 12 13 bc 7d 3a 8a 3e 79 24 57 3e ad 5f 1b bd
       -0.008976508 0.26997748 0.21010007 -0.03793304
0000a0 07 11 2f bd 50 d9 03 3c 29 59 8d bd 63 f8 da 3c
       -0.042740848 0.008047417 -0.069017716 0.026729768
0000b0 bc 38 69 3b 18 ee e6 bc a1 6e 26 bc 6c a7 9e bd
       0.0035586795 -0.028189704 -0.010158212 -0.07746777
0000c0 23 f6 11 3c 7c 7e c2 3a 5a 14 62 3c 6c 9f 49 bc
       0.008908781 0.0014838721 0.0137987975 -0.012306076
0000d0 6f ed 26 bc 51 09 be 3b fe eb b8 bd 7c 3c 8f 3e
       -0.0101884445 0.0057994504 -0.09029387 0.27975833
0000e0 a9 e8 e8 3c 92 02 a1 bb 14 e7 98 3a f3 42 4d bc
       0.028431254 -0.0049136365 0.0011665546 -0.012528169
0000f0 75 0e a0 bc 6e 37 57 bc 2f b8 42 3e a3 4a dd bb
       -0.019538144 -0.013135774 0.19015573 -0.006753282
000100 08 dc 53 3c e9 77 81 3c 73 49 d2 bb 87 54 41 3e
       0.0129308775 0.015804248 -0.0064174472 0.18879901
000110 26 7b 08 bc 37 94 de bb 75 93 6a bd 41 13 27 bc
       -0.008330142 -0.006792571 -0.057269532 -0.010197462
000120 45 74 8c bd a7 08 67 be 77 00 85 bd 69 55 de be
       -0.06858114 -0.22561894 -0.06494229 -0.43424538
000130 60 dd 00 bd 2c 77 04 bd ee 39 ca be d4 b0 8f 3e
       -0.03146112 -0.032340214 -0.39497322 0.28064597
000140 68 ed 1f bc 66 2a fc 3b 21 aa 89 3e b5 5d 88 bc
       -0.009761192 0.007695484 0.2688761 -0.016646245
000150 43 d9 0b bc 9f b5 93 ba d1 2b 05 bc 27 2c 80 bd
       -0.008535686 -0.0011269337 -0.008128122 -0.062584214
000160 60 f8 01 bf fb 74 0d bd 85 da c1 bc fd b7 ec ba
       -0.50769615 -0.03453539 -0.023663769 -0.0018060204
000170 12 8b 8c 3e c1 27 01 bd 69 76 7c bd c7 ae e0 be
       0.27449852 -0.031532053 -0.061636362 -0.43883345
000180 da 9a bb 3a 6a d2 99 bc 17 7e 99 3b 76 dc 01 3e
       0.0014313117 -0.018777091 0.0046842205 0.12681755

hidden3.0.weight f4 [100, 100]
000000 e3 e7 4e be 43 9f ea bd e0 f5 18 3c 9f 53 5f bd
       -0.20205645 -0.11456158 0.009335965 -0.054523107
000010 b6 6c c9 bd 61 8e 13 be 93 bc 3b bd fc fe 07 3b
       -0.09835188 -0.14409782 -0.045834135 0.0020751348
000020 be 0c 99 bd ce fb e9 3b 41 28 65 3d 57 d8 10 be
       -0.074731335 0.007140613 0.055946592 -0.14145027
000030 2d d5 4a 3c 82 84 37 be 66 77 1f be f4 c2 b4 bd
       0.012379927 -0.17921641 -0.1557289 -0.08826247
000040 a5 41 86 bd 27 7a a7 3c 2d 67 16 bd e6 6e 6d 3d
       -0.065554895 0.020443989 -0.03671949 0.05796709
000050 e3 6e 5d 3c c7 08 4d be ae fb 6a 3e 81 a8 33 be
       0.013515207 -0.2002288 0.2294757 -0.17544748
000060 34 30 32 be 05 a1 8d bd 0a 20 78 3e 6e 94 bf bd
       -0.174012 -0.06915478 0.24230972 -0.093544826
000070 ce 76 a3 3d 0f 8d 57 be 7a 45 2f be ee 30 9c bd
       0.079816446 -0.21049903 -0.17116347 -0.0762652
000080 71 3b 57 3d 79 66 d4 3d d3 52 17 be e2 af 1a be
       0.052546922 0.103711076 -0.14777689 -0.15106156
000090 36 73 50 be b1 c1 e7 3d 98 47 92 3d b4 00 25 be
       -0.2035645 0.113162406 0.07142562 -0.1611355
0000a0 65 c9 47 be 31 95 56 be f5 af e7 bd 21 ee ea bd
       -0.1951042 -0.2095535 -0.11312858 -0.11471201
0000b0 16 9d 5d 3c 2a d3 1a be 50 39 0e be 73 04 33 be
       0.013526222 -0.15119615 -0.1388905 -0.17482166
0000c0 c9 cc ca bc cc 47 a5 3c 30 38 af bc e2 f8 24 3d
       -0.024755852 0.020175837 -0.021389097 0.040276416
0000d0 fd f4 55 be de d2 57 bc 8d 68 03 bd f4 e4 87 3c
       -0.20894237 -0.013172833 -0.03208213 0.016588666
0000e0 29 c2 c7 bd c7 2c 3f 3d d2 94 6b 3d 49 d6 3d 3d
       -0.0975383 0.046673562 0.057514973 0.046346936
0000f0 f3 32 aa 3d 82 8d 51 be 01 69 0f 3d f1 1c 19 be
       0.08310499 -0.20464137 0.03501225 -0.14952447
000100 ef 40 1c be 04 ec c1 bd f3 9c a8 bb ce 58 0c 3e
       -0.15259145 -0.094688445 -0.005145663 0.13705751
000110 36 9f 49 bd 93 d7 22 be 60 3f e7 bc 65 54 e7 bd
       -0.0492241 -0.15902548 -0.028228462 -0.11295394
000120 df e7 cc bd a7 05 0b be da 27 91 3c fc 3c 22 3d
       -0.100051634 -0.13576375 0.017719198 0.03960894
000130 37 56 f9 3d a1 59 33 be cb b0 59 bd 28 38 68 3c
       0.12174647 -0.1751466 -0.05314712 0.014173545
000140 d8 99 5a be d8 53 0c 3d 96 50 39 3d a4 b7 19 3d
       -0.21347749 0.034259647 0.04524287 0.03752865
000150 b5 3a 29 be 24 db 7f bc 6b 99 ab bd 63 31 e4 bd
       -0.16526301 -0.015616212 -0.083788715 -0.11142232
000160 fe af 94 3c 5f 8a 51 be 00 25 09 3d a6 f9 8b 3c
       0.018150326 -0.2046294 0.03348255 0.017086815
000170 8c e0 cd 3c c9 27 25 bb 68 08 2b bc 15 3d 84 3c
       0.025131486 -0.0025200716 -0.010439016 0.016142407
000180 b4 92 58 bc cd 88 0d 3d 01 89 7e 3c 8f 36 04 3d
       -0.0132185705 0.03455429 0.015535594 0.032278594
000190 df 33 a1 bd 44 2a 00 bd a0 af b5 3d ce fb a6 bd
       -0.07871222 -0.031290308 0.088713884 -0.08153497
0001a0 b4 38 30 3d 5b b7 80 bd 1b bd 89 3d d2 d3 61 bd
       0.043022826 -0.06284972 0.06725522 -0.05513365
0001b0 54 e2 bc bd a3 95 58 3c 6d 58 be 3d 6b 35 86 bd
       -0.09222856 0.01321927 0.0929421 -0.065531574
0001c0 1b bd 10 3d a8 95 2d be 7a a7 df bc 4f 0a 91 bd
       0.035336595 -0.1695162 -0.027301539 -0.07082044
0001d0 e6 dd 31 3e ff 50 28 be 88 65 d8 bd 5e bc b6 3d
       0.17369804 -0.16437148 -0.105662405 0.08922647
0001e0 d7 ce ef 3d 0b cb 30 be c7 e4 25 3d 4c 04 a4 bd
       0.117093734 -0.17264955 0.040501382 -0.08008632
0001f0 51 8b b2 bc be e0 c7 bd cf 77 b5 3c 72 a0 a8 3c
       -0.021794947 -0.09759663 0.022151856 0.020584319
000200 ad d7 12 be b9 f7 a0 3d 63 d8 12 be 11 2d 38 3b
       -0.14340086 0.07859749 -0.14340357 0.0028103034
000210 61 98 54 3d ed 23 80 be 8e 72 04 3d e7 06 c6 bd
       0.051903132 -0.2502741 0.03233581 -0.09669285
000220 06 7e b9 3d 4e 61 54 be a4 59 8a 3d ab 22 d4 bc
       0.0905724 -0.20740244 0.06755379 -0.025895437
000230 2c 38 ca bd 37 31 05 be 75 02 7d 3d a5 38 98 ba
       -0.09873995 -0.13007055 0.06176992 -0.0011613561
000240 97 a6 0f be 2e 7e bb bd 2f c5 9e bc a8 d1 aa bd
       -0.14028393 -0.09154926 -0.019381134 -0.0834077
000250 db c2 58 bd f3 09 f0 bd 61 0b d7 bc 5a 21 21 bd
       -0.052920204 -0.11720648 -0.026250543 -0.039338447
000260 0e 1d b9 3c ad e0 38 ba 4d ff fd 3d d4 ee 6d be
       0.022596862 -0.0007052522 0.124022104 -0.23235637
000270 6a 82 0f be 90 79 88 3c a4 bd 1a 3d 6c a9 33 bd
       -0.14014593 0.016659528 0.03777851 -0.043862745
000280 f1 56 0f 3e 5f d0 b5 3d 57 3a 85 be 41 23 0e 3a
       0.1399801 0.08877634 -0.26021072 0.00054221234
000290 a6 40 b0 3c de af 8c bd 0b 1d b4 ba ce f1 71 be
       0.021515202 -0.068694815 -0.0013741566 -0.23627397
0002a0 b4 32 42 bd fa a8 21 3c 0a 0d f7 3d fd 03 a7 bd
       -0.047411636 0.009866947 0.12063034 -0.081550576
0002b0 88 b6 95 bd de cc 76 bd 12 13 13 3c 49 ab 61 bd
       -0.07310206 -0.06025397 0.008976715 -0.05509499
0002c0 ed d7 08 3e 5b b0 07 be 20 dd cf 3d f4 cd 83 bd
       0.13363619 -0.13250868 0.10149598 -0.06435767
0002d0 30 13 0c be b3 cd 7c 3d 55 14 ad bd 53 e9 6e 3c
       -0.13679194 0.061719608 -0.08451144 0.014581996
0002e0 11 c5 2f be 44 8f 30 bb 28 30 90 3d e0 3a f2 bd
       -0.17165019 -0.0026940862 0.07040435 -0.11827636
0002f0 21 e2 8c bd 2e a0 39 3d 93 bf 67 3d 1c 2d 4e 3d
       -0.06879068 0.045318775 0.056579184 0.05033599
000300 31 4e 02 bd 0d a2 39 be 74 64 21 3e f2 09 e6 bd
       -0.03181285 -0.18128224 0.15760976 -0.11232366
000310 8c c1 7c bc 86 41 ff bd c2 7b ed bd b1 70 b0 bc
       -0.015427005 -0.124636695 -0.115958706 -0.02153811
000320 fa 17 a7 bd 62 4c 0b be 57 df 17 3d 32 f6 f6 bd
       -0.0815887 -0.13603356 0.037078228 -0.12058677
000330 46 31 1a be 78 d3 d9 bd cd 7c df bd e7 a2 b8 3d
       -0.15057859 -0.106360376 -0.10912476 0.09015446
000340 1d 8a f4 bc 34 62 71 3d c6 b5 7c bd ec da 53 bc
       -0.029851014 0.058931544 -0.06169679 -0.012930613
000350 92 e3 3e 3d 69 4b 95 bc b7 09 57 3d 31 d9 22 bd
       0.046603747 -0.018224435 0.0524995 -0.03975791
000360 41 35 06 3d cd 9d 2b be 58 12 d4 bd bb aa 10 3d
       0.03276563 -0.16759415 -0.10355061 0.03531907
000370 84 ba d7 3b e4 07 85 bd 6d cf 81 3d 3f 47 80 bb
       0.0065835137 -0.06495646 0.063383915 -0.003914743
000380 ba bd 8b bd 1d fc d0 bc 9d 8b f9 3c db 79 1a 3e
       -0.06823297 -0.025510842 0.03046208 0.15085547
000390 95 a1 32 be 33 af 6b bc 60 7b f7 bd ab 04 18 be
       -0.17444451 -0.0143850325 -0.12084079 -0.1484553
0003a0 e1 82 c6 3d 65 20 82 be af be 4f 3c 13 18 f3 bd
       0.09692932 -0.2541534 0.01267974 -0.11869826
0003b0 0d cd 78 3d 00 2c 73 be f3 b5 f7 bb 24 df a5 3d
       0.060742427 -0.23747253 -0.007559532 0.08099201
0003c0 c6 2b 61 be a4 36 a1 bd e9 d9 22 3d c1 a1 65 bc
       -0.21989354 -0.0787175 0.039758597 -0.014015616
0003d0 a4 88 ee bd d3 c4 6c 3d c4 e5 33 be e0 30 26 be
       -0.11647156 0.057804894 -0.17568117 -0.16229582
0003e0 f4 b7 60 bd a8 c3 a8 3a 12 1e b5 bd 8c b1 1a 3e
       -0.05486293 0.0012875693 -0.08843626 0.15106791
0003f0 2c 0d 83 3d ef 6a 2f be f3 45 24 3d 39 7e 76 be
       0.06398997 -0.17130636 0.04010577 -0.24071588

hidden3.0.bias f4 [100]
000000 2d b8 96 3e 11 25 31 3e 99 27 2f 3e 8f d7 b4 bc
       0.2943739 0.17299296 0.17104949 -0.022075443
000010 dc e1 0a 3e 18 bc 2a 3e a6 9c a0 3e fe ca af 3e
       0.13562721 0.16673315 0.31369513 0.34334558
000020 63 5b 99 3e 34 17 08 3e aa 79 86 bd 34 9d ea 3d
       0.29952535 0.13290101 -0.06566174 0.11455765
000030 34 cc 3b 3e ea d7 74 3e 39 1c 80 3e 35 9c 07 3e
       0.18339616 0.2391049 0.25021532 0.13243182
000040 93 55 a0 3e aa 6a b8 3d 85 1f a4 3e cc f3 ff 3d
       0.31315288 0.090047196 0.32055297 0.124976724
000050 8e 79 ba 3c c5 92 b3 3e 1a fd e0 3e 7d ec 82 3e
       0.02276304 0.35072914 0.439431 0.2557105
000060 54 14 83 3e 6e 94 c3 3d ef b2 03 3e 6f 3d 7a 3e
       0.25601447 0.09549795 0.12861226 0.24437498
000070 ae 83 5b 3e 78 3c 89 3e f0 93 1d 3e f9 ff 30 3e
       0.2143695 0.26803946 0.15388465 0.17285146
000080 69 0e 00 3e db 15 94 3e f0 f1 ad 3e 95 bb 9a 3e
       0.12505497 0.28922924 0.33973646 0.3022124
000090 03 5c 2e 3e 37 1b cd 3d 28 6c 72 3e 6a 84 19 3e
       0.17027287 0.100149564 0.23674071 0.14991918
0000a0 76 f1 00 be f2 a2 e6 3e 92 a6 2d 3e 76 21 03 3e
       -0.1259211 0.45046192 0.16958073 0.12805733
0000b0 d1 74 b2 3e 7c 09 45 3e 8f f1 aa 3d 6e 9d 51 3e
       0.3485475 0.19241899 0.08346855 0.20470211
0000c0 16 c0 a8 3e 46 bf cc 3e 48 37 ae be 86 05 81 3e
       0.3295905 0.3998968 -0.3402655 0.25199527
0000d0 0b ac b3 3e 59 f8 e0 ba 57 29 2d 3e d2 08 27 3e
       0.35092196 -0.0017163857 0.16910301 0.16311958
0000e0 8c 23 66 be e3 0c 17 be 58 b1 1d 3e 22 b2 0c 3e
       -0.22474498 -0.1475101 0.15399683 0.13739827
0000f0 52 18 af 3e ef 79 3a 3d 93 27 bc 3e 6b f5 37 bd
       0.34198242 0.04552644 0.36748943 -0.044911783
000100 ad 35 ee 3d 5b c6 af bd f4 ca 1e 3e c9 f9 59 3e
       0.116313316 -0.08582755 0.15507108 0.21286692
000110 6e cc b4 3e e9 62 36 3e c6 4f 32 be 49 a3 b2 3d
       0.35312217 0.17811169 -0.17413244 0.087225504
000120 ec fb 99 3e 51 2b 82 3e c5 b1 bb 3d fb f9 d7 3d
       0.30075014 0.25423673 0.09164766 0.10545727
000130 f0 a4 a9 3e 5d 40 d4 3d 6a c7 fb 3d fd e3 cd 3e
       0.3313365 0.10363839 0.122938946 0.40213004
000140 a3 83 31 be e0 f9 cb 3e 2e 7f a7 3e 67 94 0b 3e
       -0.17335372 0.39839077 0.32714218 0.1363083
000150 7a 7e 4c bd 30 a7 32 be 66 d0 f0 3c 7c d9 96 3d
       -0.049925305 -0.1744659 0.029396247 0.073657006
000160 7e 00 23 3e 53 8d 6b 3e 15 17 8b 3e d7 e2 23 3e
       0.15918157 0.2300313 0.27166048 0.16004501
000170 01 f0 61 3d bd 0a a2 3d 7c 08 2e 3e c8 e6 06 3e
       0.055160526 0.079122044 0.16995424 0.13173974
000180 49 2f ad 3e 92 63 36 3e 66 e6 c2 3d 2a 19 bf bd
       0.33825138 0.1781142 0.09516601 -0.093309715

normised.weight f4 [100]
000000 fd c5 84 3f d5 f9 83 3f b3 78 83 3f 03 73 88 3f
       1.0372921 1.0310618 1.027121 1.0660099
000010 4d 5f 88 3f 1c d1 89 3f 50 08 81 3f 03 11 87 3f
       1.0654083 1.076694 1.0080662 1.0552067
000020 2c b1 7b 3f b9 ae 91 3f 63 52 73 3f 4a 4f 79 3f
       0.9831722 1.1381446 0.9504759 0.9738661
000030 35 21 91 3f 0f 66 88 3f d6 05 82 3f 1a 4b 84 3f
       1.1338259 1.0656146 1.0158031 1.0335419
000040 e7 88 77 3f 82 08 83 3f 74 00 7f 3f 65 70 83 3f
       0.9669327 1.0236971 0.99610066 1.0268675
000050 e8 f0 89 3f 45 42 87 3f c2 38 7a 3f 3f c2 81 3f
       1.0776644 1.0567099 0.97742856 1.0137404
000060 17 cc 82 3f fc 6b 87 3f 51 7a 8a 3f a2 29 4d 3f
       1.0218533 1.0579829 1.0818578 0.8014165
000070 10 53 85 3f 0a e7 7e 3f 5e 07 8d 3f d4 81 8b 3f
       1.0415974 0.9957129 1.1017873 1.0898995
000080 5f 59 7d 3f f0 3c 4a 3f a5 4b 86 3f 32 96 84 3f
       0.98964494 0.78999233 1.0491835 1.0358336
000090 4b 00 86 3f c2 1a 8e 3f b7 09 84 3f 45 16 8c 3f
       1.046884 1.1101916 1.0315465 1.0944296
0000a0 96 91 77 3f e6 34 82 3f 2b d0 87 3f 5b 15 87 3f
       0.9670652 1.0172393 1.0610403 1.0553392
0000b0 00 2d 75 3f 45 b1 8a 3f 02 bd 88 3f fd d3 8a 3f
       0.9577179 1.0835348 1.0682681 1.0845944
0000c0 b2 d4 82 3f d7 b7 7d 3f 67 15 7a 3f 24 ba 8b 3f
       1.022116 0.9910864 0.9768891 1.0916181
0000d0 a9 5f 83 3f 80 5d 80 3f a7 23 84 3f df 0c 89 3f
       1.0263568 1.0028534 1.032338 1.0707053
0000e0 47 c7 66 3f c5 66 75 3f b5 be 88 3f 6a 5b 8d 3f
       0.90147823 0.9585994 1.0683199 1.1043522
0000f0 eb 88 60 3f d8 4c 7c 3f 9e 58 79 3f 8c e0 72 3f
       0.8770892 0.98554754 0.97400844 0.9487388
000100 c8 91 87 3f 69 64 54 3f 1c 5c 8d 3f 78 54 84 3f
       1.0591364 0.82965714 1.1043735 1.0338278
000110 c0 8b 81 3f bf 94 8b 3f 27 f6 71 3f 2a 07 8c 3f
       1.0120773 1.0904769 0.94516224 1.0939686
000120 7e 2e 88 3f 48 c9 82 3f 37 da 8b 3f 7d 47 85 3f
       1.0639188 1.0217676 1.0925969 1.0412441
000130 08 00 78 3f ec d4 79 3f b0 e3 8c 3f 46 1e 82 3f
       0.9687505 0.9759052 1.1006985 1.0165489
000140 5b 3d 4e 3f 87 0e 72 3f ec 24 85 3f 32 8b 8c 3f
       0.8056237 0.94553417 1.0401893 1.0979979
000150 cc 6e 75 3f 08 0e 68 3f 4e ad 8c 3f 43 5c 86 3f
       0.9587219 0.9064641 1.0990388 1.0496906
000160 34 4e 86 3f af 5d 8d 3f 7f e1 88 3f b0 d0 8c 3f
       1.0492616 1.1044215 1.0693816 1.1001186
000170 77 f2 87 3f 3a d4 77 3f f8 69 84 3f 8a fd 8a 3f
       1.0620869 0.9680821 1.0344839 1.0858624
000180 26 86 88 3f ad da 8d 3f 08 6b 8c 3f 30 78 79 3f
       1.0665939 1.108236 1.0970163 0.97449017

normised.bias f4 [100]
000000 fd e1 82 3e 8b ef 8b 3e 49 01 a3 3e f2 f9 86 3e
       0.2556304 0.27331194 0.31836918 0.26362568
000010 bb 82 81 3e 1e 70 9e 3e dd 11 27 3e 74 99 6c 3e
       0.25295052 0.30944914 0.16315408 0.23105413
000020 88 81 49 3e f9 5a 66 3e 34 5c 00 3e 4a 5c 32 3e
       0.19678319 0.22495641 0.12535173 0.17418018
000030 8c c7 d1 3e 17 f8 42 3e db 2b 6b 3e 64 b4 96 3e
       0.40972555 0.19039951 0.22965948 0.29434502
000040 2e 90 3a 3e 6a c3 81 3e 57 36 2d 3e 6a ea 81 3e
       0.18219063 0.25344402 0.1691526 0.25374156
000050 82 cb 96 3e d6 0f 5b 3e 2a 33 3c 3e d2 39 17 3e
       0.2945214 0.2139276 0.18378893 0.1476815
000060 42 6c 8f 3e c0 3c 9d 3e e9 c5 80 3e 3a 4d 4c 3e
       0.28012282 0.3071041 0.25150993 0.19951335
000070 03 e7 7d 3e dd c9 64 3e 50 0b a6 3e 94 01 7d 3e
       0.24795155 0.2234263 0.32430506 0.24707633
000080 b4 32 78 3e 8e d0 2c 3e 17 7c 98 3e d3 08 61 3e
       0.24238092 0.16876432 0.29782173 0.21976022
000090 80 34 9c 3e 8d ab 9b 3e 35 99 9e 3e e6 0e a2 3e
       0.30508804 0.3040432 0.30976263 0.31651992
0000a0 a8 38 ff 3d f5 6f 9c 3e fc 1f 95 3e 71 3e 6f 3e
       0.12461978 0.30554166 0.29125965 0.23363663
0000b0 be 85 38 3e bd ab a3 3e 9c 6a 81 3e e0 3a 69 3e
       0.18019769 0.31966963 0.2527665 0.22776365
0000c0 0f e2 7e 3e 7a 6c 50 3e 99 ae c2 3c 6e 72 ab 3e
       0.24890922 0.2035388 0.023764895 0.3348574
0000d0 07 ce 69 3e f1 f8 7d 3e a6 2c 8e 3e 32 cd 41 3e
       0.228325 0.24801995 0.2776844 0.18925932
0000e0 c7 53 2d 3e b3 9f 12 3e 8c 41 aa 3e 29 08 b1 3e
       0.1692649 0.14318733 0.33253133 0.34576538
0000f0 f5 91 15 3e c8 58 4e 3e 9f 07 39 3e 28 8a 60 3d
       0.1460646 0.20151055 0.18069313 0.054819256
000100 b8 27 7b 3e b2 3d 21 3e c0 bc 99 3e f8 cb 6b 3e
       0.2452687 0.15746191 0.30026817 0.23027027
000110 e0 7b 55 3e 27 37 76 3e 74 2d 19 3e c2 a5 87 3e
       0.20848036 0.24044476 0.14958745 0.2649365
000120 ff 8c 65 3e 3f bb 7a 3e 90 78 64 3e 79 eb 82 3e
       0.22417067 0.24485491 0.22311616 0.25570276
000130 b1 9e a9 3d 2f c6 50 3e ba 0c 82 3e 14 56 6f 3e
       0.08282221 0.20388101 0.25400335 0.2337268
000140 d0 be 02 3e c7 c2 3a 3e be f9 76 3e ef 5e 8b 3e
       0.12768102 0.18238364 0.24118707 0.27220866
000150 d4 e4 4c 3e c6 5e a9 3d 46 06 a7 3e 1a f7 9f 3e
       0.20009166 0.0827003 0.32621974 0.3124321
000160 29 1f 96 3e 73 b6 67 3e f3 57 7b 3e 49 85 9a 3e
       0.29320648 0.22628193 0.24545269 0.30179814
000170 90 0d 7a 3e b5 14 86 3e a5 8a 96 3e 17 87 a5 3e
       0.24419236 0.26187673 0.29402652 0.32329628
000180 0e a3 50 3e b1 58 91 3e c3 84 8f 3e d7 db fd 3d
       0.203747 0.2838798 0.28030977 0.12395447

normised.running_mean f4 [100]
000000 90 54 82 3e 12 04 cd 3e 4b 7a a8 3e a0 d8 1c 3f
       0.2545514 0.40042168 0.32905802 0.61268044
000010 9a ef 7d 3f a6 ff 11 3f 62 dd a2 3e 25 4c cf 3e
       0.9919373 0.57030714 0.31809527 0.4048778
000020 31 64 45 3e 5f b2 91 3f 04 00 00 00 2f 08 3d 3f
       0.19276501 1.138256 6e-45 0.7384061
000030 f6 55 46 3f 4f a3 1c 3f 0f 95 a5 3e 95 8b ad 3e
       0.77474916 0.6118669 0.32340285 0.33895555
000040 ce d9 7d 3e 51 59 60 3f 4e 87 ca 3e 8e d6 2b 3f
       0.24790117 0.87636286 0.39556354 0.6712426
000050 d8 94 83 3f 2d 89 d3 3e bd 39 97 3e 3b 32 12 3e
       1.0279799 0.41315594 0.29536238 0.14276974
000060 03 1b 33 3f 0c d0 5f 3f a7 1c 53 3f fa ee 5e 3d
       0.6996309 0.8742683 0.82465595 0.054427125
000070 83 27 ec 3e 51 9f 20 3e ea 59 5b 3f c0 73 bc 3e
       0.46123895 0.15685774 0.8568407 0.3680706
000080 da 16 b1 3e 71 58 14 3d b9 a3 2c 3f 02 c8 d1 3e
       0.34587747 0.036217157 0.6743732 0.40972906
000090 37 dc 3b 3f b5 cf 92 3f 52 39 99 3e b5 84 a9 3f
       0.73382896 1.1469637 0.29926544 1.3243624
0000a0 04 00 00 00 5b 0d ca 3e 79 b2 84 3f 2f e3 3e 3f
       6e-45 0.39463314 1.0366966 0.74565405
0000b0 13 f5 4a 3e 01 46 7e 3f bb 67 21 3f 6d 9f 23 3f
       0.19820051 0.9932557 0.63048905 0.6391514
0000c0 31 fa 15 3f 87 38 f2 3e 2e 24 2d 3e a9 74 62 3f
       0.58584887 0.47308752 0.16908333 0.8845926
0000d0 b7 4e bc 3e 8f fe 60 3f 3e 87 1e 3f d2 b3 1c 3f
       0.36778805 0.87888426 0.61925113 0.61211884
0000e0 04 00 00 00 04 00 00 00 47 68 41 3f a5 61 98 3f
       6e-45 6e-45 0.7554974 1.1904799
0000f0 e6 be 16 3e 28 ba 29 3f 6a 0d a6 3e 5b 27 f6 3e
       0.1472126 0.66299677 0.3243211 0.480769
000100 e4 17 4e 3f 7c a1 17 0b f9 bb 11 3f 73 14 17 3f
       0.80505204 2.920303e-32 0.5692745 0.5901558
000110 36 15 aa 3e 58 6e 7b 3f 04 00 00 00 90 2f 86 3f
       0.33219308 0.98215246 6e-45 1.0483265
000120 df 6c 3c 3f 8b e8 42 3f 41 18 47 3f 83 d8 e4 3e
       0.73603624 0.7613608 0.77771384 0.44696435
000130 b3 44 13 3e bd e6 14 3f 86 4b 86 3f 59 70 c0 3e
       0.14381675 0.5816458 1.0491798 0.37585714
000140 be 11 ff 3e c9 0d ad 3e ac c1 78 3e 61 d0 10 3f
       0.49818224 0.3379958 0.2429263 0.5656796
000150 2a e0 88 22 7b b8 72 3e 3a 99 68 3f ad 0e 90 3f
       3.7100217e-18 0.23703186 0.90858805 1.1254479
000160 8d a4 f6 3e 32 70 7a 3f 3f 91 fb 3e e0 90 41 3f
       0.48172417 0.97827446 0.4913425 0.75611687
000170 45 a0 bd 3f ec 26 ff 3e f0 21 26 3f f5 f4 38 3f
       1.4814535 0.49834383 0.64895535 0.72248775
000180 af 47 12 3f 0a e1 1c 3f 4a 91 31 3f 04 00 00 00
       0.5714063 0.6128088 0.6936232 6e-45

normised.running_var f4 [100]
000000 b4 3d 2e 3f a3 28 b4 3f 1f e4 96 3f 5a e8 a7 40
       0.680629 1.4074901 1.1788367 5.247113
000010 31 32 cb 40 08 a5 5b 40 7f 0c 76 3f e6 04 87 3f
       6.349877 3.4319477 0.9611282 1.054837
000020 03 c2 97 3e c4 79 d9 40 04 00 00 00 96 f2 81 40
       0.29640207 6.796114 6e-45 4.0608625
000030 4f b8 73 40 d7 32 35 40 c3 98 26 3f f0 ca 81 3f
       3.8081243 2.831228 0.65076846 1.0140057
000040 1f bc cf 3e a1 b2 a0 40 56 e6 94 3f 8e 14 52 40
       0.40573213 5.0218053 1.1632793 3.2825046
000050 80 96 e5 40 f0 ce 7c 3f d1 c1 1c 3f d7 4c 88 3e
       7.1746216 0.9875326 0.6123324 0.26621124
000060 03 36 0f 40 a7 f8 86 40 94 0c 90 40 94 e7 23 3d
       2.2376716 4.217853 4.5015354 0.040015772
000070 b1 03 ac 3f 0b a5 8f 3e 6e 53 9e 40 f7 21 bb 3f
       1.3438627 0.28055605 4.9476843 1.461974
000080 f0 40 72 3f 14 65 e3 3c ec 86 20 40 ff ab c8 3f
       0.94630337 0.027758159 2.508235 1.5677489
000090 a1 a7 5e 40 26 4a ea 40 e9 e2 24 3f cc d6 0d 41
       3.4789813 7.3215513 0.6440874 8.864941
0000a0 04 00 00 00 a6 a6 6e 3f ac 32 c5 40 97 c0 62 40
       6e-45 0.93223035 6.1624355 3.5430048
0000b0 c8 1c b0 3e fe 86 9f 40 63 9b 39 40 2e 2a 48 40
       0.34396958 4.9852285 2.900109 3.1275744
0000c0 76 86 f6 3f 5f ad aa 3f 95 32 4c 3f f0 f9 6b 40
       1.9259784 1.3334159 0.7976468 3.68713
0000d0 7c 43 4d 3f 6e 08 d3 40 2a c4 1d 40 34 f7 65 40
       0.801811 6.594779 2.465098 3.593213
0000e0 04 00 00 00 04 00 00 00 7b af 89 40 a1 03 f1 40
       6e-45 6e-45 4.302671 7.531693
0000f0 6c 5f 49 3e 09 b6 88 40 a8 6c 60 3f a5 57 56 40
       0.19665307 4.272221 0.87665796 3.3490994
000100 47 d9 9c 40 7f 1c 0d 0a 50 aa 30 40 72 98 1b 40
       4.901523 6.7942626e-33 2.760395 2.4311795
000110 e9 78 33 3f c8 03 93 40 04 00 00 00 b4 37 e1 40
       0.7010637 4.5942116 6e-45 7.0380497
000120 a1 c6 64 40 3f 92 2d 40 e7 af 8e 40 21 94 1b 40
       3.5746233 2.7120512 4.4589725 2.430916
000130 e4 e6 40 3e 5a 5f 3a 40 f0 47 c9 40 b6 ee 41 3f
       0.18838078 2.9120698 6.2900314 0.7575487
000140 01 d4 c9 40 83 55 70 3f b4 30 f7 3e 06 33 1c 40
       6.3071294 0.9388048 0.48279345 2.4406142
000150 c8 89 82 21 26 84 a0 3f bd 7a 01 41 e0 1e c7 40
       8.845613e-19 1.2540329 8.092465 6.222519
000160 68 22 fc 3f a2 c5 de 40 56 30 0d 40 46 16 8f 40
       1.9698 6.961625 2.2060752 4.471469
000170 4e 40 47 41 96 fd ff 3f 19 5c 1b 40 19 88 84 40
       12.453199 1.9999263 2.4274962 4.1416135
000180 cb 4e f2 3f 3d 6b 3d 40 40 53 5a 40 04 00 00 00
       1.8930296 2.9596703 3.4113312 6e-45

output.0.weight f4 [10, 100]
000000 3d 97 a9 3d 31 55 ce be 2a 6e c5 be 44 26 c2 3d
       0.082807995 -0.4029937 -0.3856061 0.09479955
000010 43 37 cb be 7d 41 be be cf 9b 44 be 2e 2d a9 3d
       -0.396906 -0.3715934 -0.19200061 0.082605705
000020 f3 e2 31 be f9 ec b7 3d 2e 5f 8d bd 23 bf b1 be
       -0.1737173 0.08980746 -0.0690292 -0.34716138
000030 a9 df d7 be e6 8b 8c 3d 14 47 a1 be 64 0e b4 be
       -0.42162827 0.06862621 -0.3149954 -0.3516723
000040 90 52 49 be e8 f1 91 be a2 56 92 be cb fe a5 bc
       -0.19660401 -0.28504872 -0.2858172 -0.020263096
000050 f1 f5 a1 3d 96 f5 c5 be dd a6 97 be 9f 46 eb bd
       0.07908238 -0.3866393 -0.29619494 -0.11488079
000060 d1 44 a0 be 6b 81 d3 3d 68 c4 a4 be 59 20 7e be
       -0.31302503 0.10327419 -0.32181096 -0.24817027
000070 22 51 8c be 09 f6 a6 be dc bc 5a 3d d7 b9 9c be
       -0.2740565 -0.32609585 0.053402767 -0.30610535
000080 76 3e 71 be 46 ba fa bd d4 12 22 3d d0 b7 db 3c
       -0.23558983 -0.1224256 0.039568737 0.026821047
000090 b6 8e 01 3c 12 fc e9 3d af 93 92 be c7 35 86 3d
       0.00790756 0.11425032 -0.286283 0.06553226
0000a0 20 6b d5 bd 90 b5 95 be 83 3e 98 be 5f 49 65 be
       -0.10420823 -0.29240084 -0.29735193 -0.2239127
0000b0 0b aa 60 be 53 5b c2 3d 40 da b6 3c f3 14 53 be
       -0.21939866 0.09490075 0.022320867 -0.2061346
0000c0 01 74 b7 3d 87 57 95 be 99 c7 9c 3c b4 5f c4 be
       0.08957673 -0.2916834 0.019138144 -0.38354266
0000d0 fd b6 b0 be cb d9 fc bd fe 81 98 be ac 04 8e be
       -0.3451461 -0.12346228 -0.29786676 -0.2773794
0000e0 26 13 81 bd bb 09 8b bd b2 8b 82 3d 77 f1 cd 3d
       -0.063024804 -0.06788965 0.06374301 0.100558214
0000f0 81 83 6c be 68 f1 72 be b7 34 99 be 02 b4 97 bd
       -0.2309704 -0.23724902 -0.2992303 -0.07407381
000100 c8 76 6e be 25 83 4c be da c1 97 be c4 71 aa be
       -0.23287499 -0.19971903 -0.29640085 -0.3328992
000110 6b b4 d3 be 21 39 99 3d 62 09 35 be 16 be c3 3d
       -0.41348585 0.074815996 -0.1767936 0.095577404
000120 f3 c8 c3 3d c2 1f a8 be 33 b1 50 3e b1 63 09 3e
       0.095598124 -0.3283673 0.20380096 0.13416936
000130 13 6e b9 be fb b7 3e be 19 96 9d 3d 7c 76 95 be
       -0.36216792 -0.1862487 0.076946445 -0.2919196
000140 2a 3d 07 be b4 6e b2 be a1 51 6f 3d 46 f6 a1 be
       -0.13206926 -0.34850085 0.058427457 -0.31633204
000150 31 2b 39 be 3c e1 a5 3d 48 07 62 3d 14 ae d7 3d
       -0.18082882 0.08099601 0.055182725 0.1053125
000160 16 65 b8 be ec 8f 9b 3d da dd 01 3e 00 9c cc be
       -0.36014622 0.0759581 0.12682286 -0.3996277
000170 9a f4 90 3d d5 18 5f be be fc 8b be f0 d4 f6 3d
       0.07077904 -0.21786816 -0.27341264 0.12052333
000180 1a 51 93 3d ca 85 b4 be c5 c7 dd 3d 23 49 87 bc
       0.07193203 -0.35258323 0.10829119 -0.016514366
000190 c5 da a7 be 69 f9 bb be df e2 a4 be d2 97 77 be
       -0.32784095 -0.36713722 -0.3220434 -0.24179009
0001a0 ce db 85 be 28 79 7e be 05 a5 92 be 58 74 a7 be
       -0.2614426 -0.24850905 -0.28641525 -0.3270595
0001b0 49 b9 f7 3d de 64 8e 3d 88 27 25 be aa d4 6c be
       0.12095887 0.06952833 -0.16128361 -0.23128
0001c0 99 d5 b2 be a3 b9 ef bc 45 e1 fc 3d 20 60 97 be
       -0.34928587 -0.029263323 0.12347654 -0.29565525
0001d0 4b e1 df 3d ef 57 38 be bb 8a cd be 22 63 cb be
       0.10931643 -0.18002294 -0.40144905 -0.3972407
0001e0 ec d3 89 be 9d a2 f0 3d b3 79 f2 3d bc 93 ce 3d
       -0.26919496 0.11749766 0.118396185 0.10086772
0001f0 96 dc a1 3d b9 e0 d5 3d f4 50 ac be a0 c5 b2 be
       0.079034016 0.10443253 -0.33655512 -0.349164
000200 1f 1f c5 be 6f e5 a5 be 89 46 a8 be 94 a1 4f be
       -0.38500306 -0.32401606 -0.32866314 -0.20276481
000210 ff cd f1 3d 07 20 7a be 34 ab ce be bd 4e b2 be
       0.11806869 -0.2442628 -0.40364993 -0.34825698
000220 0c e0 c7 be 56 27 09 3e fa 76 08 3e 0d a7 cd be
       -0.39038122 0.13393912 0.13326636 -0.40166512
000230 1a 08 38 bd 5e 4a 95 3d db 4a 92 be 70 7d 99 3d
       -0.0449296 0.07289575 -0.28572735 0.074946284
000240 55 11 c0 3d 1f 8c 96 3d 79 03 50 3d 67 ef 24 3e
       0.09378306 0.07350945 0.05078456 0.1610695
000250 fa bd d2 be 29 4f 72 3d f3 d4 23 3d 53 7e 4f 3d
       -0.41160566 0.059157524 0.039998006 0.05065758
000260 8b 2d f8 3d 71 84 45 be 8a a4 ca be ff e9 80 be
       0.12118062 -0.19288804 -0.39578658 -0.25178525
000270 ca 38 8f be f0 8a 48 be 0d 08 9c be 16 8e ba 3d
       -0.27973014 -0.1958425 -0.30474892 0.09109132
000280 c6 89 bf be 7a 0c 81 be 2c 83 9f be 44 04 17 be
       -0.374098 -0.2520483 -0.31154764 -0.14747721
000290 0b 6c b1 3d 9f 27 60 be 0d 8f 14 3e 6b ed 89 be
       0.08663186 -0.21890114 0.14507695 -0.26938948
0002a0 72 77 a9 be 1d ed d9 3d d5 5f 88 be 25 8c 8e be
       -0.33098942 0.10640929 -0.26635614 -0.27841297
0002b0 0f 43 8e be 4e 15 f6 3d 11 40 09 3e 64 94 96 be
       -0.27785537 0.12015782 0.13403346 -0.29410088
0002c0 7b 15 1b be 63 e8 7f be 08 99 7c be 2d b4 95 3d
       -0.15144913 -0.24990992 -0.24667752 0.073097564
0002d0 b9 8e ba bd 04 92 a4 be 8c e7 93 3d 6c 5a 08 3e
       -0.091092534 -0.3214265 0.072218984 0.13315743
0002e0 90 ca 1d 3d 3f 21 03 be 00 d1 8c be 13 99 c1 be
       0.038523257 -0.12805651 -0.27503204 -0.378121
0002f0 93 4a ac be f0 6c a4 be 5c 73 95 be 83 58 93 be
       -0.33650646 -0.32114363 -0.29189575 -0.28778467
000300 86 14 a6 bc de 7f fa 3d 16 4c 07 3e cd 56 c7 be
       -0.020273458 0.1223142 0.13212618 -0.3893341
000310 d7 94 c7 be 29 24 da 3d 08 15 94 3d 93 6d 8f be
       -0.38980743 0.10651428 0.07230574 -0.28013286
000320 e0 76 9f be fa 1d ad be fc 86 88 be 7e 4c a3 be
       -0.31145382 -0.33811933 -0.26665485 -0.31894296
000330 46 a1 58 3d 6e 8a ab be b2 f9 0e be 75 a8 9a be
       0.052888177 -0.3350405 -0.13962439 -0.30206648
000340 c7 56 74 be 9b e3 87 be 58 ef 80 bd 13 a0 72 3d
       -0.23861228 -0.26540837 -0.06295651 0.05923469
000350 14 d6 33 3d 4c 6c 88 be a8 32 73 be 61 46 87 be
       0.043905333 -0.26645124 -0.23749793 -0.26420882
000360 88 2e 67 be 81 ad 9b 3d 70 30 68 be af 8d 45 3d
       -0.22576344 0.076014526 -0.22674727 0.048230823
000370 c9 fe 9f 3c ec d5 73 3d c9 56 20 be ac f4 74 be
       0.01953067 0.059530184 -0.15658106 -0.2392146
000380 8d be 6a 3c 9e 79 97 be 3d b0 a4 be 98 27 92 be
       0.014327657 -0.29584974 -0.3216571 -0.28545833
000390 d3 46 98 be 33 bf 58 3d fa 6c 65 3d 49 75 c6 3d
       -0.29741535 0.052916717 0.05601213 0.09690339
0003a0 3a 9f 78 be 6e bd 68 be 09 7c 25 3d 44 18 ba be
       -0.2427949 -0.22728512 0.040401492 -0.36346638
0003b0 f6 38 9c 3c 22 f4 ef 3d 6b f3 7d be db db d6 bc
       0.01907013 0.117164865 -0.24799888 -0.026227882
0003c0 05 31 0c be 05 84 a8 3d 1a 4e 87 3d 0d 4d ab be
       -0.13690574 0.08228306 0.066066936 -0.33457223
0003d0 f2 be 83 bd 89 7e ca be c0 33 c6 3d 4e 2b 23 be
       -0.06432904 -0.39549664 0.09677839 -0.15934488
0003e0 14 80 c8 be b7 8b a2 be 21 aa ed bb 73 0a 84 be
       -0.39160216 -0.3174722 -0.007252947 -0.25789222
0003f0 f0 22 70 be 92 28 93 3d b5 a9 92 be 0d e7 7f 3d
       -0.23450828 0.071854725 -0.286451 0.062476207

output.0.bias f4 [10]
000000 35 82 2a bf a8 82 37 bf be 49 e7 be 71 df 10 bf
       -0.6660493 -0.7168374 -0.45173448 -0.56590945
000010 86 9d 1f bf d8 1d 11 bf 15 e7 12 bf d5 19 22 bf
       -0.62349737 -0.5668616 -0.57383853 -0.63320667
000020 00 67 78 bf 02 12 18 bf
       -0.97032166 -0.5940248
