General/Code/Models/FCN_batchnorm2-MaSS-lr-0.01-acc-96.11 epochs-50.pth (torch, 404606 bytes, 12 tensors)

hidden1.0.weight f4 [100, 784]
000000 50 fa 1f 3b 94 f8 40 3c 58 8a b2 3b b4 cb 9a 3c
       0.0024410672 0.011778016 0.0054486208 0.018895961
000010 88 40 6e 3c 7c 35 42 3c fa 91 84 3c 3c f4 62 3c
       0.014541753 0.011853572 0.016182888 0.013852175
000020 80 2f fb bb fc dc 30 bc ca 28 9c 3c 3c 38 b6 3c
       -0.0076655746 -0.010794874 0.019062418 0.022243612
000030 6a d1 28 bc 7c 8b cd 3c 0a ee 07 bd 86 ec e2 ba
       -0.010303834 0.025090925 -0.033185996 -0.0017312921
000040 f8 8e b6 bb e8 8d cb bc f4 07 f1 3b 1f 17 f9 bc
       -0.0055712424 -0.02484794 0.0073556844 -0.030406533
000050 78 42 3a 3c e6 4b ab bb 2a 16 44 3c ce fa 60 bc
       0.011368386 -0.0052275537 0.011968175 -0.0137316715
000060 1c 3c 3c 3c a8 d3 dd 3b e3 3d b2 bc 00 1e 6e 3b
       0.011488941 0.006769616 -0.021758026 0.00363338
000070 a0 bd 78 3c c0 1f 62 3a 90 fd d2 3c 60 1c 34 3b
       0.015181929 0.0008625947 0.025755674 0.0027482733
000080 76 64 a0 3c 97 9b 92 bc e5 af 2b bc 6e e8 1f 39
       0.019579154 -0.017896457 -0.010478948 0.00015250008
000090 39 a2 0d 3d 41 58 e0 bc 0a 34 d7 3b 84 01 07 bc
       0.034578536 -0.027385833 0.006567483 -0.008240107
0000a0 10 71 27 3b 88 a3 3d bc ff 33 10 3d 01 c0 91 3c
       0.0025549568 -0.011574633 0.035205837 0.01779175
0000b0 a3 9d b1 3b 2e 5f 18 3c 4c 65 d6 bc f2 40 c2 3c
       0.005420403 0.009300036 -0.026171349 0.023712609
0000c0 b9 b9 11 bd 4a 46 f5 bc 97 e3 06 3d 2e 30 fd 3c
       -0.03557751 -0.029940743 0.03293189 0.030906763
0000d0 04 16 0b bd d2 37 45 bc 9c d3 a0 bc 04 7c 3e bc
       -0.033956543 -0.012037234 -0.019632153 -0.011626247
0000e0 c7 05 00 3d b4 6b 9d 3b 90 17 9a bc 31 d0 0a 3d
       0.03125551 0.004804099 -0.018810064 0.033889953
0000f0 38 2c 29 bc 64 ac 01 bc b6 f8 06 3c 9d 24 12 3d
       -0.010325484 -0.007914636 0.008238008 0.03567945
000100 01 98 5f bc 7b 9d 53 bc 5c ae 3d 3c 97 47 b1 bc
       -0.01364708 -0.012915964 0.011577215 -0.021640582
000110 8c 84 dd bc 06 68 bb bc 40 f4 0d bd 60 79 a6 3c
       -0.027040742 -0.02287675 -0.034656763 0.020321548
000120 4e 70 91 3b 7c a4 37 3c 7d 22 b4 bb fe 31 89 3c
       0.0044384366 0.01120865 -0.0054972754 0.016747471
000130 86 91 99 bb 2a e0 e6 3c 72 df cb 3c 6d 1a a2 bb
       -0.004686537 0.028183062 0.02488682 -0.004946998
000140 a2 c8 10 3b a2 8e 7d 3c 15 f2 fa bc a2 71 9a 3c
       0.0022092243 0.015475901 -0.030633012 0.018853012
000150 6c 8b 92 3c 0a 13 5e bc 8e 87 ef 3c ff d4 84 bc
       0.017888747 -0.013554344 0.029239442 -0.016214846
000160 e6 f3 ee bc cd 70 11 bd 4a dd b5 3c 22 e4 bb bb
       -0.029169034 -0.035507966 0.022200245 -0.0057339827
000170 dd bf 75 3c 6c 4e ed bc d6 c6 83 3c b2 fd ca bc
       0.014999357 -0.028968059 0.016086023 -0.024779174
000180 5a 4f ec bc f1 76 b2 bc f1 ab 78 3a 5c ac f2 bc
       -0.028846432 -0.021785231 0.00094860705 -0.029623203
000190 f4 f6 03 3d 41 e4 79 3c 7a 0b f1 3a 2a 68 f9 ba
       0.032217935 0.015252174 0.0018390261 -0.0019028236
0001a0 df 90 ec bc 2c 17 ec 3a 72 46 01 bd a2 59 87 b9
       -0.028877674 0.0018012277 -0.031561323 -0.00025815988
0001b0 08 80 05 3d 50 17 c4 3c fa 13 eb bb 5a 2d 8c bc
       0.032592803 0.023936898 -0.0071740123 -0.017111469
0001c0 2c 10 76 3c b0 f2 6c 3b 46 6e e6 3c 31 a9 c7 3c
       0.015018504 0.0036155395 0.028128754 0.024372669
0001d0 2e f8 03 bd ac 56 12 bd ed 45 b4 3c 20 a5 87 3c
       -0.032219104 -0.035727188 0.022006 0.01655823
0001e0 fe 22 fc bc c3 71 cf bc 05 44 ee 3c cb 11 c4 3c
       -0.030778404 -0.0253228 0.029085169 0.023934266
0001f0 f2 b8 3d 3c bb 7c 17 bd e5 d4 03 bc 46 da de 3c
       0.011579739 -0.036984187 -0.0080463635 0.02720369
000200 4f 47 24 3c 4f 51 ce 3c a7 96 6b 3c 52 05 84 bb
       0.010026767 0.025185255 0.01437918 -0.0040289545
000210 82 d7 0d bc fe 43 0d 3b d2 c9 02 3c e8 81 ed 3c
       -0.008657338 0.002155542 0.007982688 0.028992608
000220 00 26 b5 3a dd 08 0b 3d 67 30 82 bc fc 39 cb bc
       0.0013820529 0.033944 -0.01589222 -0.024807923
000230 40 52 d0 bc ce 23 60 bc 89 e8 ec 3c 54 b4 81 bc
       -0.025429845 -0.0136804115 0.028919475 -0.015833057
000240 e3 87 33 ba ff 0e d5 3b 49 bb 05 3c 22 32 37 3b
       -0.0006848557 0.006502032 0.008162328 0.0027953465
000250 82 eb de 3c 28 22 4d 3c 5a 95 91 3c a6 8f 53 3c
       0.027211908 0.0125203505 0.017771412 0.012912666
000260 b7 67 e6 bb 1b 83 a0 bb de 59 d6 3b a4 18 49 bc
       -0.0070314067 -0.0048984415 0.0065414747 -0.012273941
000270 e6 d0 4b bc ca 66 a6 3c e3 d3 38 3c 99 e3 91 bc
       -0.012439942 0.020312686 0.0112809865 -0.017808722
000280 c1 62 e6 bc be 89 a8 3c 53 f7 2a 3b 5a ca 11 3d
       -0.028123261 0.020573493 0.0026087358 0.035593368
000290 67 d5 3a bc db bc 0b bd 5a 9a b9 bc 6e f8 41 bb
       -0.011403418 -0.034115653 -0.022656608 -0.0029597539
0002a0 42 11 9f bb c0 57 b7 3c 6b 85 9b bc 77 08 83 3c
       -0.004854352 0.02238071 -0.018984517 0.015995247
0002b0 6b 3c 7c bc fe ad 82 3b a2 01 b2 bc 22 72 ca bb
       -0.015395264 0.0039880266 -0.021729294 -0.0061781565
0002c0 bd 36 92 3c 3f f3 a7 bb d2 89 1e 3c a6 1f 6f bc
       0.017848367 -0.0051254327 0.009676414 -0.014594948
0002d0 d2 0e 06 bc 33 fd f4 3c 95 60 e8 bc 44 c3 30 bd
       -0.008182244 0.029905891 -0.028366366 -0.04315497
0002e0 1b 20 39 bd 4b 63 0f bd e4 6e 3a bd c0 c8 ee 3b
       -0.045196634 -0.035006803 -0.04551591 0.007287115
0002f0 56 0b 06 bd a5 0d bc 3c 5c 55 fc 3c 20 80 a1 3c
       -0.032725655 0.022955725 0.030802421 0.019714415
000300 bf 3b a3 3a 98 88 63 bb 9f ac 0e bd 44 aa 0d bc
       0.0012453719 -0.0034718867 -0.034832593 -0.0086465515
000310 7d 5f 11 bd 25 9c d6 39 24 42 c2 bb d2 2d 12 bc
       -0.035491455 0.00040933597 -0.0059282947 -0.008922057
000320 de 7a 4f bc a0 ad 96 3c 78 46 c5 bb af 3e 35 3c
       -0.012663571 0.018393338 -0.0060203634 0.011062308
000330 7c c1 b6 3c dc ad 56 3d 7c 3a 36 3d e5 c0 8d 3b
       0.022309057 0.0524119 0.04448937 0.0043259733
000340 c5 8a 63 3c ec 2e 93 bc 0f 34 be 3c bf 31 ef bc
       0.013888066 -0.01796671 0.023218183 -0.029198525
000350 fe 20 e8 bc 84 03 62 bc ca cb 84 bc 2a 73 20 bd
       -0.028336044 -0.0137947835 -0.016210455 -0.03917233
000360 70 ca 23 bc 7c 5f a5 bc 00 20 fd bb 58 9c 5e 3b
       -0.009996995 -0.020187132 -0.007724762 0.00339677
000370 3b 27 16 3c b7 13 88 bc 9f e8 fa 3c a0 a2 d6 bc
       0.009164627 -0.016610963 0.0306285 -0.026200593
000380 89 e7 89 3a a8 99 8c 3c 25 79 ee 3b 22 2c ec 3c
       0.0010521273 0.017163113 0.007277625 0.028829638
000390 14 d2 e2 3c be a9 16 3c df ec 8b 3b bf 38 31 3d
       0.027688064 0.009195743 0.0042701806 0.043267008
0003a0 4e 60 84 bb 10 05 3c 3d 24 20 1c 3b 6d 37 29 3b
       -0.0040398007 0.045903265 0.0023822868 0.002582039
0003b0 b7 31 1a 3d 74 6f 29 3d 39 9f 0b 3d 27 88 f8 3c
       0.037645068 0.041366056 0.034087393 0.03033836
0003c0 83 da b3 bc 90 16 34 ba 6d 5f 62 3c 5b 8d 51 3c
       -0.02195478 -0.0006869817 0.013816697 0.012790049
0003d0 f8 72 39 bb 86 d1 1a 3d 0d 6a d3 bc 6f e5 b0 3c
       -0.0028297286 0.037797473 -0.025807405 0.021593777
0003e0 1f f0 bd 3c a1 20 98 3b 03 3e f1 bb 2f cf 35 3c
       0.023185788 0.0046425615 -0.0073621287 0.01109676
0003f0 a7 75 0c bd 99 d9 89 bc 17 73 fc bc 93 04 f2 3c
       -0.03429189 -0.016827391 -0.030816598 0.029543197

hidden1.0.bias f4 [100]
000000 a2 37 86 3c 27 52 bd be 8e f6 4a bd 5e 3e bc bd
       0.01638395 -0.3697674 -0.04955154 -0.09191583
000010 b1 56 55 3d 81 7e 7c be 93 c8 8a bd 23 ed 86 bd
       0.05208463 -0.24657632 -0.06776538 -0.06588199
000020 d5 0c c9 bd 30 5d a2 3b 94 76 23 be b5 a8 71 3e
       -0.09816901 0.0049549565 -0.15963203 0.23599513
000030 15 87 4a be a5 ee 3d be 73 ac 49 be 3b 79 8f bd
       -0.19778092 -0.18548067 -0.1969469 -0.07005545
000040 26 2d 8c 3b 42 0f 0c be 2d 6e 3b bb 93 f9 11 3e
       0.004277843 -0.13677695 -0.0028599605 0.14255361
000050 5c 79 e8 be 2b 65 3e 3e 5f b8 31 be 36 dd d4 be
       -0.4540509 0.1859328 -0.17355488 -0.4157502
000060 d8 1e 11 3e 59 26 d7 bc 84 2a 41 be ca f8 cf bd
       0.14171922 -0.026263403 -0.18863875 -0.101548746
000070 47 ff cd bd 12 0d 66 3d ec aa 1f 3c 5b bb bf 3c
       -0.10058456 0.05616481 0.009745341 0.023404768
000080 a1 d9 ae bc 94 ea e1 bd 0a f0 ce bd 99 c4 f0 be
       -0.021344008 -0.1103107 -0.101043776 -0.47024992
000090 8f 89 b2 bc 8f fc a9 bd 8d 73 8f bd bb c9 0e be
       -0.021794109 -0.08300125 -0.070044614 -0.13944142
0000a0 32 22 16 be 9d b8 c7 bd 09 15 11 be b5 a8 5c be
       -0.14661482 -0.09752009 -0.1416818 -0.21548732
0000b0 5e 73 35 3c 75 0a 76 3e 65 df e7 be eb ae 44 be
       0.011074869 0.24027427 -0.45287624 -0.19207351
0000c0 f8 c0 6c be e9 8f ea bc 3d a0 43 bd 67 85 74 3c
       -0.23120487 -0.028633075 -0.047760237 0.014924384
0000d0 61 33 50 3e 6f cf 02 3c 6d af c2 3c 09 57 f3 3d
       0.203321 0.007984026 0.02376529 0.11881835
0000e0 4c e3 f6 be 43 af 8f 3d a9 12 32 bd 00 6f aa bd
       -0.4822029 0.070158504 -0.043474827 -0.08321953
0000f0 50 06 7e 3d 24 8a 0f be 43 bb 52 3e 5f e7 a6 3c
       0.06201774 -0.1401754 0.20579247 0.020373998
000100 f6 74 a9 be 96 b0 57 3e a5 79 f8 bc a9 a9 ab 3a
       -0.33097047 0.21063456 -0.030331442 0.0013096827
000110 8f f0 9d be e0 e1 16 be 29 b3 8a be 8a ce 05 bd
       -0.30847594 -0.14734602 -0.27089813 -0.032667674
000120 c9 88 d3 bc 49 3d 7d bd 7e 86 a2 3a 77 9b 77 3e
       -0.02582206 -0.061826024 0.0012399701 0.24180399
000130 8e 8b d4 3c 3a 23 21 be 00 f7 f6 bd 8a 82 8a bb
       0.025945451 -0.15736094 -0.1205883 -0.0042269873
000140 78 4f 02 be 0a 51 60 3e a1 7b 11 3e 84 e0 53 3e
       -0.12725627 0.21905914 0.14207317 0.20691115
000150 01 25 91 3c 2e 98 78 bd 9b ca 73 3c a3 ff 0f 3d
       0.01771784 -0.060692005 0.014879848 0.035155904
000160 ae cd ac be 9f 48 ac bd 25 be 9b bd 1d 19 48 be
       -0.3375067 -0.08412289 -0.076046266 -0.1954083
000170 5d a5 7e bd cb 70 5b be 06 58 24 bd df ae 18 3d
       -0.06216942 -0.21429746 -0.04012301 0.037276145
000180 09 8a a5 be 6b a3 70 bd 2e d5 5b bc 42 13 86 3d
       -0.32331875 -0.058749598 -0.013417525 0.06546642

hidden2.0.weight f4 [100, 100]
000000 c6 e2 b0 3d de 47 1d 3d 34 60 8b bd 1f 67 37 3d
       0.086370036 0.038398616 -0.06805459 0.04477608
000010 11 32 07 3e d3 9e 60 3d c0 68 08 be 56 d8 54 3d
       0.13202693 0.054838967 -0.13321209 0.051964127
000020 50 ec 6e bd 15 3c 4f 3d 6e 48 c3 bc 44 3b c7 b9
       -0.058330834 0.050594408 -0.023838248 -0.00038000394
000030 58 33 1d 3d 94 a2 62 bc 2c ef 5c bc b0 9a 0b bd
       0.038379043 -0.013832707 -0.013484757 -0.03408307
000040 ae cf 73 bd d9 8d 47 bd a2 a6 2a 3c 24 e1 13 bd
       -0.05952423 -0.04871926 0.010415705 -0.036103383
000050 f2 d2 85 3d 7a b4 e1 bc a2 82 bf bd 15 50 46 3d
       0.06534375 -0.027551878 -0.09351088 0.048416216
000060 6a da 3f 3e 83 75 c8 3d 3e 78 b8 bc a3 af a6 3c
       0.18735662 0.097880386 -0.022518273 0.020347422
000070 58 fd 81 3d 87 4a d8 bd 5b 73 19 be e4 26 4c bd
       0.063471496 -0.1056109 -0.14985411 -0.049841776
000080 cc e4 0c 3d 93 99 1c bd fc 44 fb bb 80 b6 0e be
       0.034397885 -0.038232397 -0.0076681357 -0.13936806
000090 9f fd 3e 3d 33 28 a3 38 6b 3b 7b bc 98 a7 06 3d
       0.04662859 7.7799334e-05 -0.015333991 0.032874674
0000a0 2c fb a8 bd 03 36 dd bd a7 5a 76 bd 0a f3 28 bd
       -0.08251032 -0.108013175 -0.060145047 -0.041247405
0000b0 f5 a2 e2 3c f5 4e 9a bd 5a 63 ce 3b f0 2f a5 3c
       0.027665595 -0.07534591 0.0062984647 0.02016446
0000c0 86 75 b1 3d 45 ac 23 bd d6 2f 0c 3e 3d 7c 0d 3d
       0.08664994 -0.03995921 0.13690123 0.03454231
0000d0 bd 4b 8f 3d 1e 95 0b 3b 88 2e 31 3e 27 5b 9b bc
       0.06996868 0.0021298598 0.17302907 -0.018964363
0000e0 59 d4 81 bc b4 17 f3 3d 7b 2e a4 bd 15 d6 bb 3b
       -0.015848326 0.118697554 -0.08016678 0.0057323077
0000f0 af 45 c5 bc 0b 91 7a 3d b8 61 01 be 40 c6 81 3d
       -0.02408108 0.06117348 -0.12634933 0.06336641
000100 5d e8 88 bd c1 14 d1 bd 64 bc 89 3d a9 07 70 3d
       -0.06684945 -0.102090366 0.06725386 0.058601055
000110 b2 ff 07 bc 5e 18 c6 bd 39 59 53 bd 06 3b 2c 3c
       -0.008300709 -0.096726164 -0.05159876 0.010512119
000120 dc 8f 9c 3d 2b 39 41 bd 5a 2b 6b bd 0c ec b7 bc
       0.076446265 -0.04717366 -0.05741439 -0.022451423
000130 4a 8c c7 bc e1 b1 d0 3c ec c9 1a 3a 07 88 ed 3c
       -0.024358887 0.025475444 0.00059047225 0.028995527
000140 7d 97 92 bc 06 8b e5 3c bd b7 7f 3b bc c3 b7 bd
       -0.0178945 0.028020393 0.0039019429 -0.0897288
000150 63 3a a9 bd 36 6d 8e 3c 89 ff 49 3e 36 61 91 bd
       -0.082630895 0.01738606 0.19726385 -0.0709862
000160 c0 66 88 bd 12 94 7e 3b 38 ec 04 bd 0a 8f 00 bc
       -0.06660223 0.003884558 -0.03245184 -0.007846603
000170 ba 7e 21 bd 44 0d 08 bd a8 8e 20 bb 3c a1 45 3e
       -0.039427496 -0.033215776 -0.0024499092 0.19299787
000180 d0 08 54 bd 4e 1a 0b 3d 3b 0a 16 bd a6 6a 86 3d
       -0.051766217 0.033960633 -0.03663085 0.0656331
000190 a4 34 70 3b 76 28 9e 3d 2b 77 58 3c 2f 14 31 be
       0.003665247 0.07722561 0.013212006 -0.17292856
0001a0 72 a9 02 bd 2a 4c b6 bd 78 b3 e8 bd e7 21 18 bd
       -0.031899877 -0.08901246 -0.11362356 -0.037141707
0001b0 2a 63 1f 3c 25 ec e1 bd 54 3d 99 bc 72 68 4c 3c
       0.009728232 -0.11031369 -0.018706001 0.012476074
0001c0 06 d1 86 3c bd 49 ea bd 84 7e bf bd dd c9 79 bd
       0.016457092 -0.11439846 -0.09350303 -0.060983527
0001d0 17 d2 91 bd 52 e9 ed bd b0 b8 b0 bd c6 bb 15 bd
       -0.071201496 -0.11616768 -0.08628976 -0.036556028
0001e0 aa 72 7c 3c 29 a8 88 bd d8 cf 02 3d 10 70 b8 3b
       0.015408197 -0.06672699 0.031936496 0.0056285933
0001f0 0a 29 ff bd 28 cc d3 bd 55 87 9c 3b 2b 43 e1 bd
       -0.124589995 -0.10341674 0.004776875 -0.109991394
000200 c7 08 fe 3d e6 4f c0 bd 66 1a 02 be df ce 4e 3b
       0.12404018 -0.093902394 -0.12705383 0.003155641
000210 ab 7e 89 bd e3 63 b7 bd 97 eb f1 bd 77 90 83 bd
       -0.06713613 -0.08954599 -0.11812513 -0.06424039
000220 d4 dc 2e 3c 8f fc cf bd a7 2d 91 bd 8b ed 0a be
       0.010672767 -0.101555936 -0.070887856 -0.13567178
000230 c8 44 03 3e f2 2c ae 3b 5c f5 2c 3d 20 1f 03 bd
       0.12819207 0.0053154165 0.04222618 -0.032012105
000240 34 6c c2 bd 7d 00 93 bd 9c 0d 80 3c 97 b1 a3 bd
       -0.09493294 -0.071778275 0.01563149 -0.07992857
000250 62 b2 8a 3d e5 88 fd bd 0b 1d 0f be c1 eb a3 3c
       0.06772305 -0.12379626 -0.13975923 0.020009877
000260 27 29 b4 bd fa 2b cd bd 3c 25 2e be 9a 28 ed bc
       -0.08796912 -0.100181535 -0.17006391 -0.028950024
000270 20 da 1f 3c 6d 50 dd bd aa 21 60 bd 45 30 11 3c
       0.009756595 -0.108063556 -0.054719605 0.008861606
000280 53 75 85 bd 56 6a 92 bc 00 2e b6 bd dd 88 f8 bd
       -0.065165184 -0.01787297 -0.088954926 -0.121354796
000290 7d 68 c5 3d e2 6e b1 bd 47 9e d6 bd 16 43 a7 bd
       0.0963907 -0.08663727 -0.10479408 -0.081670925
0002a0 74 ae 3a bc 7a f6 20 bd 2f a5 d6 3c a3 ac fc bd
       -0.011394132 -0.03929756 0.026201813 -0.12337615
0002b0 53 db 5f 3d a6 aa 8b bd 0c 7f 0d bd 93 11 b3 bc
       0.054652523 -0.06819658 -0.03454499 -0.021858966
0002c0 9f 5b 86 bd 6a 83 ae bd 50 dd 05 be 7e 0c f1 bd
       -0.06560444 -0.08521159 -0.13072705 -0.11769961
0002d0 28 13 b7 bd 36 fe b2 bd 7e a3 b8 bd 61 64 8b bd
       -0.08939201 -0.08739893 -0.09015559 -0.06806255
0002e0 d9 d9 74 3d 2b 69 4a bb 09 d4 12 be 7b b9 b1 bd
       0.05977807 -0.003088544 -0.14338697 -0.08677956
0002f0 08 73 96 bd 2b 7b d8 bd da 52 3d bd 95 40 d1 bc
       -0.07346159 -0.105703674 -0.04622159 -0.02554349
000300 27 80 ea bd 67 d8 9f 3d c5 eb b6 bd e1 0e 19 be
       -0.11450224 0.07804947 -0.08931688 -0.14947082
000310 9a b8 cf bd 4d c8 ff bd 17 2e 53 3b 73 2f e6 bd
       -0.10142632 -0.12489376 0.0032223517 -0.11239519
000320 88 73 bf bc b9 b9 81 bd 54 90 6f 3d 36 28 cb bc
       -0.02337052 -0.06334252 0.05848725 -0.024799448
000330 fc a4 14 bc f7 c2 01 3e 62 5f 08 be 89 96 9f 3a
       -0.009072538 0.1267203 -0.13317636 0.00121756
000340 f6 44 76 bd 68 16 09 3d 49 19 ee bd 54 50 ba 3c
       -0.06012436 0.033468634 -0.116259165 0.022743382
000350 48 57 4d 3d a6 bc 00 be 64 dc 70 3d 45 ac fb bc
       0.050132066 -0.12571964 0.05880393 -0.030721793
000360 0b f1 02 be 45 d7 9f bd 17 9b ca 3d b9 ab 0a be
       -0.12787263 -0.07804731 0.09892862 -0.1354207
000370 62 93 42 3d f7 51 9a bd 30 6b d4 b9 9f 54 d6 3c
       0.047503836 -0.07535165 -0.00040515652 0.026163397
000380 08 63 8e 3d a2 7c c2 3d a9 ae ac bd e0 c7 8a bd
       0.069524825 0.09496428 -0.08431751 -0.067764044
000390 d3 d5 e9 bc 52 d9 2f 3c fb db 5c 3c 42 46 94 3d
       -0.028544342 0.010732966 0.013480182 0.07239963
0003a0 73 eb 3a 3d 2c 3d 12 be f8 5e db bd e0 c9 a7 3d
       0.045634698 -0.14281148 -0.10711473 0.081928015
0003b0 e0 34 2f 3d ff 15 05 be e5 ca aa bd 4b 95 b9 bd
       0.042775035 -0.12996672 -0.0833948 -0.090616785
0003c0 bd 9d 9d bd c1 bd a0 bd d2 e5 50 bc 58 12 db bc
       -0.07696102 -0.07848693 -0.012750106 -0.026742145
0003d0 be dc c0 3b d2 09 4d bd 2b 55 28 3d d8 a7 8b bd
       0.0058856895 -0.050058194 0.041096848 -0.06819123
0003e0 fe 72 af 3b 79 2f 64 bc 51 51 50 3d 93 34 21 3d
       0.0053542843 -0.013927334 0.0508588 0.03935678
0003f0 be b3 b7 bd a8 38 4a bd 7b 9b bb 3c 62 dd 26 bd
       -0.0896983 -0.049370438 0.022901287 -0.04073847

hidden2.0.bias f4 [100]
000000 de 95 6d be dc 23 40 3d 5f 6c af 3b 64 4a c0 39
       -0.23201701 0.0469092 0.005353495 0.0003667652
000010 d3 31 b9 3b 7f 47 f0 3c c2 55 22 bc fe c7 8d bc
       0.0056516915 0.029330967 -0.009908142 -0.017307278
000020 80 4e b5 bc bb e8 e9 39 f2 e2 5f ba ce b2 18 3d
       -0.022132158 0.0004461462 -0.00085405924 0.037279896
000030 d0 c6 60 bb 8e c4 aa 3d aa 94 95 3c e3 df ee bb
       -0.003429819 0.08338271 0.018259365 -0.007289873
000040 6b 48 32 be ce 28 59 3d d5 8b c2 3c 44 0b 47 3b
       -0.17410438 0.05301743 0.023748318 0.0030371705
000050 06 b7 60 3c 9c 24 2b 3c b5 1b c5 3b ec d4 08 39
       0.013715511 0.01044574 0.006015266 0.0001304929
000060 f3 bf ca 3d b0 49 be 3d 71 77 58 bd 54 30 8f bc
       0.09899893 0.092913985 -0.052848283 -0.0174791
000070 a5 2d 90 3b 7f 49 95 3d 79 d4 15 bc 3c 2a 82 bd
       0.0043999725 0.07289409 -0.009144896 -0.06355712
000080 89 57 dc bc b9 a2 70 bd 98 84 58 bc d9 62 4f bc
       -0.026897209 -0.058748934 -0.013215207 -0.012657844
000090 f6 d0 24 3d a3 0a 1b bb 16 42 b3 bd 5f a3 d7 3d
       0.040238343 -0.0023657463 -0.08752839 0.105292074
0000a0 e0 46 d6 bc 81 23 3d bb a6 ba 07 3d bf 72 44 3c
       -0.026156843 -0.0028860273 0.033136986 0.011990248
0000b0 b8 14 db bb 65 9c 9b 3c 18 7c e4 3c ec 14 31 be
       -0.0066858195 0.018995473 0.027891204 -0.17293137
0000c0 47 64 ba bc a3 68 10 be d0 18 68 be 8e 90 30 3a
       -0.022752894 -0.14102416 -0.22665715 0.00067354075
0000d0 45 06 d9 bb e0 79 1f bc 3a fa 7b bc 69 cf c4 3b
       -0.006623062 -0.009733647 -0.015379483 0.0060061705
0000e0 39 3a 9f 3c a5 f0 e4 ba 83 71 3e bd 73 35 5e bc
       0.019436942 -0.0017466737 -0.046494972 -0.013562548
0000f0 19 76 b6 bd 81 33 81 3d 07 fe 39 bc 2b a3 0c bb
       -0.08909244 0.06308652 -0.011352069 -0.002145956
000100 e2 7f 41 be 05 56 f0 3d f1 72 89 3b e4 46 27 bd
       -0.1889644 0.11735157 0.0041946103 -0.04083909
000110 3b 97 84 3c 0d fd ae bb ff 43 0d 3c 5d 13 23 3c
       0.016185394 -0.0053402246 0.008622169 0.009953347
000120 90 22 2b bd 4c 34 68 bc f8 6f 99 3c 04 0a de bd
       -0.04178101 -0.014172625 0.018730149 -0.10841754
000130 c3 0b e1 3c 9d 18 85 bb b0 a5 ac 3c 46 b6 39 3c
       0.027471429 -0.004061772 0.0210751 0.011334961
000140 5b 97 d7 bc d3 77 52 3d 11 e1 37 be bb 72 c0 3b
       -0.02631729 0.051383805 -0.1795695 0.005873052
000150 0d 74 a1 3d 7b d1 07 bc 10 f5 00 bd 6c 81 9c 3d
       0.07883463 -0.00828969 -0.03148371 0.07641873
000160 17 e4 3a bc d8 5e bd 3c 42 9d 94 3b 11 7f 66 bd
       -0.01140692 0.023116514 0.004535348 -0.056273524
000170 3d 35 58 3d fb da 8f 3d 2f ca 94 3d dc 01 fd bb
       0.052785147 0.07024189 0.07265126 -0.007721169
000180 d8 84 78 bd 9f 5a b5 bb 55 e9 87 3c 32 c6 3d bc
       -0.060673565 -0.0055344845 0.016590754 -0.011582898

hidden3.0.weight f4 [100, 100]
000000 d7 3a 9f bd 3f 9b 7c bd df d7 5d 3d cd cf 11 bc
       -0.07774895 -0.06167149 0.05416095 -0.008899641
000010 86 55 65 bd 38 21 24 3d 19 c1 be 3c 4f ed 06 3d
       -0.055989765 0.040070742 0.023285436 0.03294116
000020 ec 5e 87 bc 25 42 73 3d c1 9d 07 bd 08 ce 78 3d
       -0.016524754 0.059389252 -0.03310943 0.06074336
000030 5e 34 08 be 30 1c 2e 3d 81 32 45 3c da 98 74 ba
       -0.13301226 0.04250735 0.012035967 -0.0009330638
000040 d0 f5 8c bc 58 af 38 bd f8 3b 32 bb 14 62 c9 bc
       -0.017207056 -0.045089096 -0.0027196389 -0.0245829
000050 9a d2 f5 bc 91 fe 78 3b f0 97 28 3d 10 d4 a2 bc
       -0.03000765 0.003799353 0.041160524 -0.01987651
000060 f4 64 03 3d 15 7e c1 bc d6 69 9e 3d 03 1c 79 3d
       0.0320787 -0.02361969 0.0773503 0.06081773
000070 69 a4 d9 bd 47 7f 45 bd 8b 3b cf 3c 2e f4 89 3d
       -0.10627062 -0.048217084 0.025296947 0.06736027
000080 44 4a 9d 3d 9b a6 4c 3d 1d 08 4b bd 76 26 a5 3d
       0.07680181 0.049963575 -0.049568284 0.080639765
000090 af 0f 65 bd e9 c9 10 be f0 11 b0 3d fc a8 69 bd
       -0.05592316 -0.14139523 0.08597171 -0.05704592
0000a0 76 ac 28 3e 50 70 ed ba 18 ae 71 3d 88 e3 13 bd
       0.16472039 -0.0018115137 0.05900392 -0.036105663
0000b0 03 4e 8a 3c 1e a8 94 bd 8a 73 6b bc 7d 6e 6b bd
       0.016882902 -0.07258628 -0.014370808 -0.057478417
0000c0 9f 3f 6a 3d ed 3f d1 3d 38 58 ce bc 28 cc 9d bc
       0.05718958 0.10217271 -0.02518855 -0.019262388
0000d0 25 4c 3c bd e2 3b fe bc d8 bf e7 3c 2b cf e3 3d
       -0.045971055 -0.031034414 0.02828972 0.111234985
0000e0 01 fd e8 3c 25 fa fb 3d 9a 32 9f 3d e1 27 2b bd
       0.028440954 0.12303571 0.07773323 -0.04178608
0000f0 12 da 06 3e 5c 79 e8 bd 38 39 eb bd 01 69 ef 3d
       0.13169125 -0.113512725 -0.11485523 0.1168995
000100 71 08 df 3c 9f 57 5d bb 64 54 12 3d be 52 81 3d
       0.027225705 -0.003377415 0.035725012 0.0631461
000110 af c8 1a 3d 69 d9 99 bd 0c 14 2e bd f1 4b ee 3b
       0.037789043 -0.07512171 -0.042499587 0.0072722365
000120 7e da 9a bd 75 cb 88 3d 91 0f 70 bc 75 87 87 bd
       -0.07561205 0.06679431 -0.014652149 -0.06617633
000130 2e ed 3c 3d 73 c5 15 3e ce 8e bb bc 8a 6e 63 bd
       0.04612463 0.14626102 -0.022895243 -0.05552534
000140 ce 77 37 bd d2 59 04 bd 79 60 65 bd 24 23 ee bd
       -0.04479199 -0.03231222 -0.056000207 -0.11627796
000150 7a 4d c7 bd 56 6f 29 bd a3 11 70 3d e5 ff d4 3c
       -0.09731574 -0.041365944 0.05861057 0.026000926
000160 75 33 ee 3c d7 4d 6b 3d 67 38 70 3d 53 19 92 3d
       0.029077271 0.05744728 0.05864754 0.071337365
000170 7d a4 5a bc 81 0f c9 ba fd 4f 29 bc 60 ca 54 3d
       -0.013344881 -0.0015339704 -0.010334012 0.051950812
000180 76 55 ea 3c 47 13 6b 3d f9 af da bc e0 5d e9 3d
       0.028605204 0.05739143 -0.026695238 0.11394858
000190 09 d0 33 3d 10 13 3c 3d 49 f2 f6 3c ac f1 80 bd
       0.04389957 0.045916617 0.030144827 -0.06296095
0001a0 74 83 9b 3d b4 3e 61 bc 44 91 93 bd 27 70 92 3a
       0.07593432 -0.01374786 -0.072054416 0.001117234
0001b0 de 4a d7 bd 81 8e ab bc 68 70 90 3d 26 92 8c 3c
       -0.10512327 -0.020941975 0.0705269 0.017159533
0001c0 2c eb e4 bd da 72 24 bc b9 d5 96 3d 89 ae 8d 3c
       -0.11177668 -0.010037148 0.07364983 0.017295139
0001d0 97 c7 35 3d c0 3a 23 bc aa 03 26 3a 56 2e 69 3c
       0.044379797 -0.009962738 0.00063329434 0.014232239
0001e0 7a b9 e0 bb 10 d7 b6 3d 6a 5c d7 3b 11 a3 f6 3b
       -0.006858048 0.08927739 0.006572296 0.0075267632
0001f0 68 5e 91 bd 38 62 8e bb 4c c2 e6 bc 5c af 1b bd
       -0.07098085 -0.0043452047 -0.02816882 -0.038009033
000200 38 2c 1f bd f4 f2 2d be 1b b7 be bc a9 11 f5 bc
       -0.03886053 -0.1698721 -0.02328067 -0.029915648
000210 cb 68 97 3d d8 e0 d1 bc 79 e6 bd bd 9e f4 a5 3d
       0.073930345 -0.02561991 -0.09272475 0.08103298
000220 f8 11 0c bb 2f c2 76 bd c6 50 f9 bb 7a 6b 0a be
       -0.0021373015 -0.06024378 -0.007608506 -0.13517562
000230 ba 7b a6 3c b0 1a 23 3d 07 86 f4 3c ac d7 0a be
       0.02032267 0.039820373 0.029849065 -0.13558835
000240 2e f6 4d bd c2 9d dd 3c df 3d a2 3c 32 e6 f0 bc
       -0.050283603 0.027052764 0.019804893 -0.02940664
000250 b3 63 90 3c e2 d9 d2 3d ce da 68 bd e6 98 c7 bd
       0.017625665 0.10295464 -0.056849293 -0.0974596
000260 90 5b e9 bb 9f b5 22 3d b5 1e 9f bc c3 91 36 bd
       -0.007121511 0.03972399 -0.019423822 -0.044572603
000270 b8 7d 44 bd 70 9b af bc ce 25 f1 bd a3 47 b0 bd
       -0.047971457 -0.021436423 -0.11774789 -0.086074136
000280 95 b0 07 3d 91 2c bc bd fc a9 92 3c 0a c3 db bc
       0.033127386 -0.09188188 0.01790332 -0.0268264
000290 df f4 f8 3c d0 8e e8 bd 71 03 c5 bc 8f a3 70 bc
       0.030390201 -0.11355364 -0.024049493 -0.014687433
0002a0 77 b4 84 bc 88 e9 97 bc a9 5b 38 3c ce c8 ca 3d
       -0.016199334 -0.018543974 0.011252322 0.09901582
0002b0 a3 b0 d4 bd 80 49 8c bd c9 0c 8b 3d 2e 2b 1c 3d
       -0.10385253 -0.068499565 0.06789548 0.038127117
0002c0 6f 39 ca bc f5 64 20 3c 40 aa 49 3e 57 4c f5 3c
       -0.02468559 0.009789695 0.19693851 0.029943628
0002d0 f3 25 52 bc 54 3f bf bd 4f c5 a6 3d 6d 40 59 bd
       -0.012826431 -0.09338251 0.081431024 -0.053039957
0002e0 c7 3a c1 3d 6d d8 59 3d 65 ce 7e 3d 43 79 10 be
       0.09435039 0.053184915 0.062208552 -0.14108758
0002f0 9d 6a 5f bc d0 83 e4 3c 1a ce 27 3d cc ce 77 bd
       -0.013636258 0.027894884 0.04096804 -0.06049995
000300 01 5d a0 bc a8 8a f3 bd 05 4b c1 3c 34 b6 e8 3d
       -0.019575598 -0.11891681 0.023595342 0.113628775
000310 05 62 ef ba 7a 58 58 bc 64 d3 a0 3c 66 8e d2 bc
       -0.0018263465 -0.013204688 0.019632049 -0.025702666
000320 6f fa 93 3d 36 91 14 be 15 6a a5 3c d9 60 1d 3a
       0.07225501 -0.14508519 0.020192185 0.0006003506
000330 ea 87 25 3d 38 40 30 bd ed a0 1f 3c 32 52 f6 3c
       0.04041282 -0.043029994 0.009742958 0.03006849
000340 58 b3 49 3d d2 dd 85 3d 9c fe ed bd 4c 35 e0 bc
       0.0492433 0.065364495 -0.116208285 -0.027369164
000350 9f d7 d4 3d 49 68 ff bd 9b f6 b6 3c c5 54 77 bd
       0.10392689 -0.12471063 0.022334388 -0.060383577
000360 ce cc 83 3c 3f 65 bd 3b 7f 51 26 bd de 44 81 bd
       0.01608887 0.0057798917 -0.040605064 -0.063119635
000370 c8 39 5f 3d c7 f1 2f be f2 84 86 bd 90 33 85 bc
       0.054498464 -0.17182074 -0.06568326 -0.016259938
000380 77 31 43 bd 54 18 7c bd e1 90 4a bd 1d e8 e4 bd
       -0.047654595 -0.06154664 -0.049454574 -0.111770846
000390 7b 77 9f bd 7f 75 cf bd 5b 14 0d 3d ff 96 9b 3d
       -0.07786461 -0.101298325 0.03444324 0.075971596
0003a0 cd b2 78 bd 59 b2 8b 3d 3c 93 63 bd 88 0c 7a bd
       -0.060717393 0.068211265 -0.055560336 -0.061047107
0003b0 5e e1 54 bd 6c 23 4b 3d 4e d8 cc ba 8f 13 b0 bb
       -0.05197274 0.049594328 -0.0015628429 -0.0053734253
0003c0 f3 80 ae bd 60 c3 c5 3c c7 37 8a bc 42 c5 e6 bc
       -0.08520689 0.024141014 -0.0168723 -0.028170232
0003d0 2e 17 a4 bc 40 69 ab 3c ae 89 2e 3c ac 9e 87 3c
       -0.020030584 0.02092421 0.010652943 0.016555153
0003e0 f5 be 3c bd 07 b9 dc 3c 92 c5 b7 3c d0 70 f8 3b
       -0.04608055 0.026943697 0.022433076 0.0075818077
0003f0 2d 28 91 3d 5c 9f 46 bd 38 a5 89 bc 01 86 e6 bd
       0.07087741 -0.04849182 -0.016802415 -0.11256028

hidden3.0.bias f4 [100]
000000 65 63 6b 3c 37 35 3e 3d 70 f3 74 3d 72 1b 17 3d
       0.014366959 0.04643747 0.059802473 0.03689141
000010 3c 90 b5 3d 86 5b 2f 3c 0b 07 3a 3d e8 ea 78 bd
       0.08865401 0.010702973 0.045416873 -0.0607709
000020 b7 5e 80 3d aa 9c 60 3d 75 92 69 3d 70 da 41 3d
       0.062680654 0.054836906 0.057024438 0.04732746
000030 77 85 41 3d 25 62 29 3d b6 90 94 3c f2 b9 bd 3b
       0.047246423 0.041353364 0.01813541 0.0057899887
000040 9d fa 49 3d ec 59 a1 bd c0 36 ba 3d a0 55 a3 3d
       0.04931127 -0.07878479 0.09092474 0.07975316
000050 f2 2f 5e 3d a6 14 24 3c 56 e7 87 3c 9b 82 62 3c
       0.054244943 0.010014689 0.016589802 0.013825084
000060 d1 06 96 3d 4f 3b c6 3c 7b c5 5f 3c 37 e6 73 3d
       0.07325519 0.024198202 0.013657923 0.05954572
000070 17 06 12 3d 10 e8 1d 3d 29 13 8d 3d b0 97 b6 3c
       0.03565034 0.03855139 0.0688842 0.022289127
000080 07 cc 18 3d 24 c2 3f be 77 88 28 3d 51 b7 1a 3d
       0.03730395 -0.18726403 0.041145768 0.03777248
000090 32 46 62 be d9 50 3e 3d 6a e3 f4 3c e4 01 e5 bd
       -0.2209709 0.04646382 0.029893596 -0.11182001
0000a0 02 39 92 3d af 44 02 3d 27 ad 5b 3d 3d d5 49 3d
       0.071397796 0.031803783 0.053631928 0.049275625
0000b0 b2 85 8a 3d cc 0e aa 3d 3d 41 a1 3d 8b ab 0e 3d
       0.067637816 0.083036035 0.07873771 0.034831565
0000c0 56 81 ee 3c e6 60 b0 3d c3 58 a1 3c 0f 96 0f 3d
       0.029114407 0.08612232 0.019695645 0.035055216
0000d0 13 d6 62 3d e9 97 7d 3d 16 da 1d bd 89 3e 9a 3d
       0.05537994 0.06191245 -0.03853806 0.07531459
0000e0 ef 83 f1 bd 61 ff 21 3d f9 96 8a 3d 25 0e 87 3c
       -0.117927425 0.03955019 0.06767077 0.016486237
0000f0 0c 10 76 be 39 f0 4b be bd f8 78 3d 41 ce d7 3d
       -0.24029559 -0.19915856 0.06078409 0.10537387
000100 d8 6b 7e 3c 49 67 2e 3d 05 aa 9b 3d 21 48 b9 3d
       0.015528642 0.04257897 0.07600788 0.090469606
000110 de f4 de 3d 64 6a cc ba 2c f9 b5 3c 48 6f 84 3d
       0.108865485 -0.0015595672 0.022213541 0.06466538
000120 e3 ea 11 3d 45 87 e5 3a 15 b2 87 3d 25 ae 45 3c
       0.035624396 0.0017511627 0.06625763 0.012065445
000130 1f f0 93 3d 0a 41 16 be 99 aa 08 3d 16 65 6f 3d
       0.07223534 -0.14673248 0.03336582 0.058446012
000140 1c 69 bb 3c 5a 07 c0 3c a1 02 45 3d 9a 36 d5 3c
       0.022877268 0.023441005 0.04809821 0.026027013
000150 cb 65 63 3d 02 ea 5b 3d 62 d1 93 3d e2 38 c5 bd
       0.055517 0.053689964 0.07217671 -0.0962999
000160 67 26 14 3d ed 43 9d 3d 9e 7a 9d bb 75 70 80 3d
       0.036169436 0.076789714 -0.004805877 0.062714495
000170 12 f9 8f 3d 36 1c dd 3c d0 9a d2 3d 99 a3 5b be
       0.07029928 0.026990991 0.102834344 -0.21449126
000180 2c 6a eb 3d e6 c7 b5 3d 85 ac a9 3d 32 1b 54 3d
       0.1149486 0.08876018 0.082848586 0.051783748

normised.weight f4 [100]
000000 88 6f 8f 3f fc f9 8f 3f 5c a2 8f 3f 11 bf 8a 3f
       1.1205912 1.1248164 1.1221423 1.0839559
000010 7c cb 89 3f 5a 2f 8d 3f c3 18 8c 3f aa 77 80 3f
       1.0765224 1.1030076 1.0945057 1.0036519
000020 b0 cd 8b 3f 69 15 8a 3f 4e b5 8c 3f f0 8d 8e 3f
       1.0922146 1.0787784 1.099283 1.1137066
000030 58 34 91 3f fd 4e 8e 3f 17 4a 8a 3f 68 85 8b 3f
       1.1344099 1.1117855 1.080386 1.0900087
000040 0e 3d 8d 3f 7e d4 7c 3f 13 22 8d 3f fa 35 91 3f
       1.1034257 0.9876174 1.1026024 1.1344597
000050 8f 20 8a 3f 99 d7 8b 3f 23 6b 8a 3f b1 d7 8c 3f
       1.0791186 1.092517 1.0813946 1.1003324
000060 36 33 8e 3f ec 2b 8a 3f 85 75 8e 3f b5 49 8d 3f
       1.1109378 1.0794654 1.1129614 1.1038119
000070 c7 a2 8b 3f ae ad 8f 3f b5 28 8d 3f 5d 07 8d 3f
       1.0909051 1.1224878 1.1028048 1.1017872
000080 b8 53 91 3f d8 f4 7b 3f 5f 44 8f 3f dc bd 8f 3f
       1.1353674 0.98420477 1.119274 1.1229815
000090 f6 ef 7c 3f 13 bc 8f 3f 5d d2 92 3f 90 5f 85 3f
       0.9880365 1.1229271 1.1470448 1.0419788
0000a0 81 d4 8e 3f 99 e0 8e 3f 0c d1 8e 3f cf b4 8a 3f
       1.1158601 1.1162292 1.1157546 1.0836428
0000b0 05 c7 92 3f 54 63 8c 3f f3 00 8e 3f 72 9b 8e 3f
       1.1466986 1.0967813 1.109404 1.1141188
0000c0 25 f4 8d 3f dd c3 87 3f 5e 8f 8f 3f 72 40 8a 3f
       1.1090132 1.0606648 1.1215627 1.0800917
0000d0 ee 8e 8e 3f dd 71 8c 3f 34 3e 7e 3f 95 29 8f 3f
       1.1137369 1.0972248 0.99313664 1.1184565
0000e0 6c a1 83 3f 8c f6 88 3f dc 96 8d 3f 0c bc 8e 3f
       1.0283637 1.070024 1.1061664 1.1151137
0000f0 0a f2 7c 3f 4c a4 7b 3f 04 fd 8c 3f 3f 0b 8c 3f
       0.9880682 0.9829757 1.1014714 1.0940932
000100 77 40 8a 3f 6c 63 8d 3f 85 6b 8b 3f d1 fc 8b 3f
       1.0800923 1.1045966 1.0892187 1.0936528
000110 34 f9 8b 3f 18 24 8b 3f bf 07 8f 3f 25 a9 8c 3f
       1.0935426 1.087039 1.1174239 1.0989119
000120 6b 8e 88 3f a4 4b 90 3f 2e 39 8b 3f 0d ca 81 3f
       1.0668463 1.1273084 1.0876825 1.0139786
000130 c6 23 87 3f 40 fd 7d 3f 90 ac 8c 3f 6c 84 89 3f
       1.0557792 0.99214554 1.0990162 1.0743537
000140 e2 6d 8c 3f a1 8f 8d 3f 55 d1 8a 3f 35 ef 88 3f
       1.0971034 1.1059457 1.0845133 1.0698
000150 8b fa 8e 3f 88 39 8e 3f 1d b5 8d 3f d1 56 88 3f
       1.117021 1.1111307 1.1070896 1.0651494
000160 a4 b8 8c 3f 35 4d 8e 3f ee 22 8b 3f c9 88 8e 3f
       1.0993848 1.1117312 1.0870035 1.1135494
000170 be 15 89 3f 77 f5 8d 3f 6c 01 85 3f b8 d1 7c 3f
       1.070976 1.1090535 1.0391059 0.98757505
000180 1f f7 89 3f 85 0a 8c 3f 2d 76 8e 3f f6 71 8c 3f
       1.077854 1.094071 1.1129814 1.0972278

normised.bias f4 [100]
000000 42 ed 5a 3e 15 ed 3b 3e 47 67 9b 3e 66 f0 97 3e
       0.21379569 0.18352158 0.30352232 0.29675597
000010 8a ba 48 3e 9d 49 89 3e 20 82 be 3e b0 02 a4 3e
       0.19602409 0.26813975 0.37208652 0.320333
000020 29 ed 34 3e ad 48 3a 3e 49 dd 92 3e bb 12 20 3e
       0.17668594 0.18191786 0.28684452 0.15632145
000030 c7 85 8a 3e 31 1e 8d 3e 89 cf 3d 3e 00 b4 91 3e
       0.2705519 0.27562097 0.185362 0.28457642
000040 0b 9c 89 3e 44 9a 75 bd 5a b0 81 3e aa c2 6c 3e
       0.26876864 -0.059961572 0.25329858 0.23121133
000050 34 ac b9 3e 01 d6 6f 3e a2 63 26 3d 46 fe 38 3e
       0.36264193 0.2342148 0.04062236 0.18065748
000060 69 fe 6d 3e 09 91 41 3e 8c ac 17 3e fb 9b 8a 3e
       0.23241581 0.18902983 0.14811915 0.2707213
000070 22 02 aa 3e 0a fd 3a 3e ed d0 64 3e 40 c1 d4 3d
       0.33204752 0.18260589 0.22345324 0.10388422
000080 99 84 4b 3e 7d 90 c5 3d 32 15 70 3e 01 f1 2a 3e
       0.198748 0.096466996 0.23445585 0.16693498
000090 3c 61 72 be 29 d3 78 3e 6f 9f 7c 3e 76 73 33 3e
       -0.23669904 0.24299301 0.24670194 0.17524514
0000a0 89 ca 58 3e 08 ea 7a 3e 95 19 46 3e d5 df 2a 3e
       0.21171011 0.24503338 0.19345696 0.16686948
0000b0 e0 13 6e 3e e5 78 87 3e 9a 73 21 3e b2 39 bf 3e
       0.23249769 0.26459423 0.15766755 0.37348706
0000c0 0c 56 5f 3e 6e de 26 3e 8f fe 6e 3e 03 ce a1 3e
       0.21810168 0.16295788 0.23339294 0.31602487
0000d0 65 50 35 3e 64 a1 32 3e be 7d 44 bd 3c e1 38 3e
       0.1770645 0.17444378 -0.04797148 0.1805467
0000e0 1c 37 32 3e 8c 22 98 3e 96 51 4f 3e 48 48 52 3e
       0.17403835 0.29713857 0.20245966 0.20535386
0000f0 99 9b 87 be 5d 33 d9 bd 4c 95 40 3e 39 64 58 3e
       -0.264859 -0.106055 0.18806952 0.21131982
000100 5d e4 15 3e bf c4 9f 3e 02 cd 7a 3e ff 2c 52 3e
       0.14637895 0.31204793 0.24492267 0.20524977
000110 6c d6 28 3e 2e 6b 01 3e fb 1f 88 3e 04 3f 61 3e
       0.16488045 0.12638542 0.265869 0.21996695
000120 1c a2 6e 3d dc 5c b2 3e 8f 44 2b 3e a9 41 2c 3e
       0.05826007 0.3483647 0.16725372 0.16821922
000130 1d d1 7c 3e d0 8b 4e bd 7c 62 a8 3d cb 25 4c 3e
       0.24689145 -0.050426304 0.082219094 0.19936292
000140 1a 94 95 3e b2 cc 44 3e 88 f5 6a 3e 42 3e 1a 3e
       0.29214555 0.1921871 0.22945225 0.15062812
000150 1b 7e 86 3e 6a 2d 83 3e 61 03 31 3e 56 bf 5b 3e
       0.26268086 0.25620586 0.17286445 0.21459708
000160 6f 37 47 3e f6 0b bd 3d be 27 81 3e 42 1c 6b 3e
       0.1945474 0.09230797 0.25225633 0.22959998
000170 36 7c 1d 3e e6 f8 a1 3e 8c 57 8b 3e 25 fa 0b 3e
       0.15379414 0.31635207 0.2721523 0.13669641
000180 05 f1 9a 3d 68 71 67 3e 39 51 92 3e cf 5b 90 3e
       0.07565502 0.22601855 0.28577593 0.28195044

normised.running_mean f4 [100]
000000 4c 74 7c 3e dc bc 0f 3e 94 a8 09 3e 7c 00 0a 3e
       0.24653739 0.14036888 0.13443214 0.13476747
000010 ca d8 bd 3c b7 6f 46 3e 4f b3 19 3e 04 00 00 00
       0.023174662 0.19378553 0.15009807 6e-45
000020 a8 bf 28 3d a8 bd 81 3c f6 7b 7a 3d ab 68 dd 3d
       0.041198403 0.015837505 0.061153375 0.108109795
000030 b0 39 42 3e fb 54 41 3e 08 52 e2 3d 4b f1 39 3e
       0.18967319 0.18880074 0.110508025 0.18158452
000040 35 51 3d 3e 5e 13 f2 3d 0f 02 7a 3d f9 5e 16 3e
       0.1848801 0.118201 0.06103712 0.14684667
000050 84 f3 a9 3d 76 20 87 3e b4 e4 ed 3d 2d f6 3d 3e
       0.082984 0.26391953 0.11615887 0.1855094
000060 9e 30 c5 3d 78 43 82 3d 1a de 37 3e cf 42 81 3d
       0.096284136 0.06360525 0.17955819 0.06311571
000070 74 b2 23 3e 45 66 d1 3d b3 72 ca 3c 32 a7 98 3d
       0.15986043 0.102245845 0.024712896 0.07453765
000080 bc 9c 14 3e ab 55 b8 3b 72 60 07 3e 56 1a 35 3e
       0.14512914 0.005625447 0.13220385 0.17685828
000090 06 21 53 3a 94 ba 50 3e ac 27 1c 3e 04 00 00 00
       0.0008053932 0.20383674 0.15249509 6e-45
0000a0 c4 5c 48 3d 78 e8 67 3e b6 26 2f 3e ed 77 8c 3d
       0.048916593 0.22647274 0.17104611 0.068588115
0000b0 bd 23 65 3e a3 92 6a 3d 1f cd 2c 3e 03 72 40 3e
       0.22376914 0.05726875 0.16875122 0.18793492
0000c0 8b 59 64 3e f5 48 ae 3c 6d 63 31 3e 78 69 a8 3d
       0.22299783 0.021275023 0.17323084 0.082232416
0000d0 74 ed 69 3e b9 a8 0e 3d 82 fc 1d 3e e2 db ab 3d
       0.22844487 0.034828875 0.15428355 0.08391549
0000e0 04 b9 00 35 e9 31 08 3e 73 3b f5 3d 62 2f 3c 3e
       4.795295e-07 0.13300289 0.1197423 0.1837745
0000f0 4a 34 65 2a 37 c7 03 39 ce c9 2a 3d e9 f3 5c 3d
       2.0357427e-13 0.00012567347 0.041696362 0.05394355
000100 e2 3f 6f 3e 6a 1f 3a 3e a4 67 96 3d 25 d8 88 3d
       0.23364213 0.18176046 0.07343987 0.06681851
000110 83 2d 27 3e 43 4f 29 3e 7f 9e 3b 3e c9 23 3f 3d
       0.16325955 0.16534142 0.1832218 0.046664987
000120 d0 7d 86 3d 87 99 73 3e f8 26 28 3d 65 e1 f7 3b
       0.065669656 0.23789035 0.04105279 0.007564711
000130 55 5a 00 3d 23 00 bc 39 9d 7e 8e 3d 48 9b f1 3c
       0.031336147 0.00035858256 0.06957743 0.02949299
000140 8a df f6 3d ec 4d 4b 3e 70 5d 41 3d 4e a4 13 3e
       0.120543554 0.19853944 0.04720825 0.14418146
000150 a5 1d 23 3e 78 1c 8f 3d 47 2b 9d 3d 83 17 81 03
       0.15929277 0.06987852 0.0767427 7.587337e-37
000160 63 27 ed 3c 07 e4 c9 3d f2 d0 44 3e b6 5f 69 3d
       0.028949445 0.09857946 0.19220331 0.056976043
000170 a3 51 ff 3c db 66 da 3d 44 f8 aa 3d 84 3a a6 28
       0.031166857 0.106641494 0.08348134 1.845508e-14
000180 be a8 78 3d c1 32 40 3d 9c ff b4 3d 5a bd 61 3d
       0.0607078 0.046923403 0.08837816 0.05511222

normised.running_var f4 [100]
000000 8b 4e a1 3e 67 e0 0c 3e 53 9e 46 3e 1c e4 2b 3e
       0.31505236 0.13757478 0.19396333 0.16786236
000010 aa 4b 94 3b 23 f2 99 3e c8 0d 2b 3e 04 00 00 00
       0.0045256214 0.30067548 0.16704476 6e-45
000020 79 41 3e 3c 9a 42 77 3b 07 aa 2f 3d 02 73 a0 3d
       0.01161229 0.0037728907 0.04288676 0.07834436
000030 3d e4 86 3e 3e 3b 7e 3e d4 39 0a 3e 1a 68 87 3e
       0.26346007 0.24827287 0.13498622 0.2644661
000040 66 d4 7a 3e e5 71 3f 3e 77 23 be 3c 98 74 d3 3d
       0.24495086 0.18695791 0.02321027 0.10324973
000050 30 86 bb 3d c2 2c 30 3f cc 72 16 3e 4e 85 87 3e
       0.091564536 0.68818295 0.14692229 0.2646889
000060 c7 01 8c 3d 02 30 41 3d 36 da 8d 3e f0 e5 1d 3d
       0.068362765 0.047164924 0.27705544 0.038549364
000070 bd 38 89 3e 61 d7 85 3d 24 11 98 3b 0b 8f 68 3d
       0.268011 0.06535221 0.004640715 0.05677704
000080 44 87 21 3e ae 43 50 3b 0d d9 03 3e f6 d0 83 3e
       0.15774256 0.0031778621 0.12875767 0.25745362
000090 fa 74 cb 39 dc 37 83 3e 09 d3 22 3e 04 00 00 00
       0.00038806332 0.25628555 0.15900816 6e-45
0000a0 1c c2 9b 3c 13 ed bb 3e 38 06 5a 3e 53 b2 0c 3d
       0.019013457 0.3670431 0.21291435 0.03434975
0000b0 4b b2 93 3e 8b 0d c3 3c 6f d1 44 3e c5 52 96 3e
       0.28846964 0.023810169 0.19220518 0.29360023
0000c0 d3 4f 9f 3e a8 d4 a8 3b a4 38 8f 3e 2b 3c 9e 3d
       0.3111559 0.0051523037 0.279729 0.0772632
0000d0 3f 9b 9c 3e 89 23 2f 3c 7b 51 8c 3e 95 33 1b 3d
       0.30587193 0.010689625 0.27405915 0.03789099
0000e0 18 5b 82 32 aa 12 1e 3e 15 b5 c2 3d b6 b6 48 3e
       1.5175416e-08 0.15436807 0.09507195 0.19600949
0000f0 74 03 51 29 cb e0 85 38 db 54 8e 3c b4 67 a0 3c
       4.6410318e-14 6.383805e-05 0.017374447 0.0195807
000100 99 d2 16 3f 0f a3 2e 3e b3 2d 1c 3d ca e1 b2 3c
       0.58915097 0.1705439 0.03812952 0.02183618
000110 00 3b 29 3e 1a 90 98 3e 4f 97 98 3e d5 ac 8e 3c
       0.16526413 0.2979744 0.2980294 0.017416397
000120 0a 29 4c 3d ea a5 f1 3e 7d 59 45 3c 8c 9b be 3a
       0.049843825 0.47196895 0.012045261 0.0014542206
000130 cc 30 32 3c 73 ca f5 38 46 c9 30 3d c3 e7 1a 3c
       0.010875892 0.000117202195 0.0431607 0.00945467
000140 e6 9c 0f 3e 6e 61 82 3e 1c cc c2 3c dc a7 20 3e
       0.14024696 0.25464958 0.023778968 0.15689033
000150 b5 34 33 3e 41 88 fc 3c 48 93 19 3d 44 55 6d 00
       0.17500575 0.03082669 0.037493974 1.0040657e-38
000160 8d 5e 09 3c 83 a8 8d 3d 38 6e b9 3e 1f 77 dc 3c
       0.008384359 0.06916907 0.36216903 0.02691227
000170 99 5f 16 3c 26 3a b2 3d ba 93 4e 3d d1 ae 9a 27
       0.009178066 0.08702497 0.05043385 4.2933123e-15
000180 a8 e8 9a 3c 19 2e ad 3c 00 e8 55 3d 5e 09 c1 3c
       0.018909767 0.021140145 0.052223206 0.023564037

output.0.weight f4 [10, 100]
000000 54 3c 30 be ca e2 b9 3d c0 0d 86 be 06 fd 5a be
       -0.17210513 0.0907646 -0.26182365 -0.21385583
000010 5a 41 2c be 96 46 ec 3d 49 dd 88 be 32 e2 0e be
       -0.16821805 0.11536901 -0.26731327 -0.13953474
000020 8a e4 87 be dc 93 51 be f7 2c 79 be 6f da 54 be
       -0.2654155 -0.2046656 -0.24333559 -0.20786451
000030 b6 91 7e 3d 8e f4 6a be df b8 59 be 7f b9 fc bd
       0.06215068 -0.22944853 -0.21261929 -0.12340068
000040 c9 44 59 be e5 66 e9 bc d3 27 59 be 84 f9 af 3c
       -0.21217646 -0.028491447 -0.21206598 0.021481283
000050 d1 d3 37 be 6d 12 d4 3d 7a 08 29 3e 42 02 9b bd
       -0.17951895 0.10355077 0.1650714 -0.0756879
000060 e3 e4 b4 3d eb 61 44 be b0 2e cd 3d 03 69 44 be
       0.08832719 -0.19177978 0.100186706 -0.19180684
000070 8c de f6 3d 07 76 fd 3d e0 97 0b bd 48 05 2e be
       0.12054166 0.123760276 -0.034080386 -0.16994202
000080 48 e1 86 be 75 dd 76 bc 4a 7a 41 be ca 25 e7 3d
       -0.2634375 -0.015067448 -0.18894306 0.112865046
000090 f5 f8 f3 3c 30 b2 73 be 1c 79 9d 3d f2 da 15 be
       0.029781798 -0.23798442 0.076891154 -0.14634302
0000a0 c1 a2 74 be 48 a2 8e be 71 c4 49 be 6a f9 19 be
       -0.2389021 -0.27858186 -0.19703843 -0.1503655
0000b0 28 48 d1 3d af b3 54 be 2a af 5d be 15 1e 96 be
       0.10218841 -0.20771669 -0.21648851 -0.29319826
0000c0 0c 00 5b be 82 6a 57 be 8f 23 c4 3d 06 3b 21 be
       -0.21386737 -0.21036723 0.09577095 -0.15745172
0000d0 1b 0f 84 be 0e ce 84 be f8 d6 96 3d f5 29 d0 3d
       -0.25792775 -0.25938457 0.07365221 0.10164253
0000e0 9d 11 f3 bd 80 49 63 be 1c 87 3f be b3 8f 3d be
       -0.11868594 -0.22196007 -0.18703884 -0.18511848
0000f0 8f 3e d8 3d 08 dd c9 3c d9 84 d3 3d 82 ac 59 be
       0.10558807 0.024641529 0.10328073 -0.21257213
000100 a2 53 e0 3d 7a 92 84 be 9c ac 36 be ca 6e 6f be
       0.10953452 -0.25893003 -0.17839283 -0.23382106
000110 95 63 76 be e6 a9 2f 3e 77 dd c4 3d 58 75 ea bd
       -0.24061425 0.17154655 0.096125536 -0.11448163
000120 be 1b 31 be 26 b2 d4 3d a5 65 41 be 6b 8e c2 bc
       -0.17295739 0.103855416 -0.1888643 -0.02374955
000130 60 53 4b be 27 a1 42 3c 5a 19 26 be 48 53 5d be
       -0.19856024 0.011879242 -0.16220608 -0.216138
000140 cd 95 fa 3d 87 d3 00 be a0 d3 56 be 6f c5 95 bd
       0.122356035 -0.12580691 -0.20979166 -0.07313048
000150 4c 3a 87 be ad a5 7c be 60 2d 58 be ab 7e f6 bd
       -0.26411664 -0.24672575 -0.21111059 -0.12035879
000160 e1 54 5a be 73 e3 c4 3d 57 1b 03 3e cb 5b 69 be
       -0.21321441 0.09613695 0.12803398 -0.22788922
000170 83 d0 0f be 0a ce 22 3d 40 ce 88 3d 23 bc bc bc
       -0.14044385 0.039747275 0.06679964 -0.02303893
000180 05 6b 59 be 8c cf c0 3d 2a fc 0f 3d d5 70 48 be
       -0.21232231 0.094145864 0.03515259 -0.19574292
000190 29 c9 98 3d 00 c5 65 be d1 a8 35 be 05 64 db bd
       0.07460243 -0.22438431 -0.1774018 -0.107124366
0001a0 44 4d 33 be 96 cd 61 be 7b a1 cb 3d a8 69 df bd
       -0.17509943 -0.22051081 0.09942909 -0.10908824
0001b0 fd dd 01 3d b4 78 80 be c6 39 a3 bd 76 d7 e1 3d
       0.031705845 -0.2509209 -0.07970004 0.11027424
0001c0 f8 54 88 be c1 f4 fa bd 9b 93 fb bd d7 7c f1 3d
       -0.26627326 -0.12253714 -0.12284013 0.117913894
0001d0 58 18 72 be bc e4 eb bd cc 78 78 be ce 42 9f be
       -0.23642099 -0.11518237 -0.2426483 -0.31105655
0001e0 fc 71 46 be fc 57 2f be 8c 26 35 3e 0f 93 81 be
       -0.19379419 -0.17123407 0.17690486 -0.2530751
0001f0 59 1e 2b be 12 a2 20 be 5b e0 80 be 67 a5 5c be
       -0.16710795 -0.15686825 -0.2517117 -0.21547471
000200 a9 7e 45 be 10 d1 d3 3d 59 48 82 be 3b f0 3a be
       -0.19286598 0.1034261 -0.25445822 -0.18255703
000210 e8 98 82 be a0 5a 9a 3a 96 35 fb 3d 07 68 78 be
       -0.25507283 0.0011776276 0.1226608 -0.24258433
000220 1a 0e 9e 3d db f6 1f 3d d3 46 81 be b7 e2 32 be
       0.077175334 0.03905378 -0.25249347 -0.17469297
000230 dc 0c 71 be a1 57 77 be 3a 48 06 3e 1a bd bf 3d
       -0.23540062 -0.24154522 0.1311349 0.0936224
000240 7f 46 b3 3d 59 57 71 be 03 b3 81 be f7 38 8f be
       0.087536804 -0.23568477 -0.25331888 -0.27973148
000250 86 b6 0b 3e 06 df 59 be 29 bc 4a be fe aa 41 3e
       0.13643846 -0.21276483 -0.1979834 0.18912885
000260 44 67 c5 3d 24 f6 98 bc d1 c9 65 bd 43 06 cb 3d
       0.09638837 -0.018672056 -0.05610067 0.09913304
000270 bc 6b 61 3d 83 bb 68 be db 18 ff 3d 40 68 bd 3d
       0.055034384 -0.2272778 0.12455913 0.092484
000280 7a a1 bc bc d4 94 82 3d 02 9e 5b be 25 60 80 be
       -0.023026217 0.06376043 -0.21446994 -0.25073352
000290 88 41 46 be 0b 9e 7b 3d c7 4b 79 be 57 43 8e 3d
       -0.19360936 0.06143002 -0.24345313 0.06946438
0002a0 f3 16 38 be 33 2a 3c 3e 4e 06 c4 bd e1 8b 5b 3d
       -0.17977504 0.18375473 -0.09571515 0.053600196
0002b0 9c d2 13 be ac 52 86 be 5a 9c d9 3d b2 96 d4 bd
       -0.1443581 -0.2623495 0.10625525 -0.10380305
0002c0 81 b3 77 be 8e 15 a3 3b a2 99 0b be 60 d5 40 be
       -0.24189569 0.0049769348 -0.13632825 -0.18831396
0002d0 95 45 10 be a0 12 03 3e 9b b5 13 be fd d2 0d 3e
       -0.14089043 0.12800074 -0.14424746 0.13850017
0002e0 91 44 84 be e8 7a d2 3d 38 c9 0c 3e 65 72 5f be
       -0.25833562 0.10277349 0.13748634 -0.21820982
0002f0 6b 8c 1e be e9 2d 2e be c3 cd e6 bc 70 08 8e be
       -0.15483253 -0.17009701 -0.028174287 -0.27740812
000300 d1 62 f6 3d e9 5d 78 be 7b ca 1d be 5f 1c c2 bd
       0.120305665 -0.24254574 -0.15409271 -0.094780676
000310 02 d9 ef 3c 23 20 72 be a9 ce 95 be d8 6d a0 3d
       0.029278282 -0.23645072 -0.29259232 0.07833451
000320 bb 66 42 3d 77 48 69 3d 16 0b c3 3d f1 56 b0 3d
       0.047461253 0.056953873 0.09523599 0.08610333
000330 ad c0 93 3d fb 19 88 be 4e 22 96 3d f9 e9 dd bd
       0.07214484 -0.26582322 0.07330762 -0.10835642
000340 d0 bb 7d be 02 93 20 bd 9a 10 5e 3d 89 8a 61 be
       -0.24778676 -0.039202698 0.05421505 -0.22025503
000350 7e 9b 87 be 6a a5 45 3d 04 07 9d 3d cd 98 4c 3d
       -0.2648582 0.048253454 0.07667354 0.04995041
000360 af 9e 69 be 67 99 8b 3d 60 50 60 be 37 48 35 3d
       -0.22814439 0.068163686 -0.2190566 0.044258323
000370 4b 0b 6c be 83 41 6a 3d a9 f4 19 be 4f c4 00 3d
       -0.23051183 0.057191383 -0.15034737 0.031437214
000380 61 19 84 be 74 a6 6e be 9e 50 49 be ea 14 63 be
       -0.25800613 -0.23305684 -0.1965966 -0.22175947
000390 c4 0d 2d be fc 69 8e 3d 96 66 75 be 96 fb 49 be
       -0.16899782 0.06953809 -0.23964915 -0.19724879
0003a0 a9 13 60 be f7 d6 23 bc 59 13 4e be 17 b3 88 be
       -0.218825 -0.009999982 -0.20124568 -0.26699135
0003b0 da 6e 93 3d 98 c1 9a 3d 5a 35 65 be dd b4 30 be
       0.07198878 0.07556456 -0.22383633 -0.17256494
0003c0 68 2b 7d be 24 df 8f 3d 5e 19 44 be 02 20 cf 3d
       -0.2472359 0.070249826 -0.19150302 0.10113527
0003d0 d0 63 6b be 5f 57 7a be 0c 42 8e 3d 6e 3f 4f 3d
       -0.22987294 -0.24447392 0.06946191 0.0505976
0003e0 7d 3b 7c be 9b d8 2d be 31 04 7e be 59 65 60 be
       -0.24632068 -0.1697716 -0.24806286 -0.21913661
0003f0 cf 25 a7 bd f1 08 6f be 5b ec 31 3d 66 c3 5f be
       -0.08161508 -0.23343255 0.043438297 -0.21851882

output.0.bias f4 [10]
000000 6f 2b 10 bf 77 55 02 bf 48 ca 07 bf 74 f9 18 bf
       -0.56316274 -0.5091166 -0.5304303 -0.59755635
000010 21 ce 16 bf 84 94 12 bf 04 bd 16 bf b9 ab 12 bf
       -0.5890828 -0.57257867 -0.58882165 -0.5729328
000020 2a be 29 bf b3 9b 35 bf
       -0.6630579 -0.70940703
