General/Code/Models/FCN_batchnorm2-Adam-lr-0.005-acc-78.38 epochs-150.pth (torch, 404606 bytes, 12 tensors)

hidden1.0.weight f4 [100, 784]
-0.0302282 0.022125572 0.012103781 0.023275271 -0.02407363 0.029515926 0.008603901 0.0117300935
-0.03060197 0.0205294 0.029580478 0.03406925 -0.05263831 -0.031524874 0.08242231 0.12776667
-0.027445544 0.013642415 0.0001151301 0.008117288 0.017656654 0.0078036375 -0.0035156533 -0.0057681836
0.018018354 0.01650624 -0.011415584 0.014961902 -0.021637946 0.0056806877 -0.00423437 -0.01288951
0.28840193 0.33381262 0.030484494 -0.17238949 0.14130051 -0.34617463 -0.34728044 1.2471704
1.7170758 2.5753706 2.4990983 0.8769977 1.7515323 1.4004914 1.0623152 0.729994
0.1405329 -0.17692435 0.19744036 0.80809754 -0.015775813 0.008790836 -0.012778772 0.024448842
0.024656728 0.0117388405 -0.5962759 -0.07161915 -1.3841498 -1.5905519 0.79430723 0.7063478
-1.1177152 -1.3844798 -1.4386356 -0.0928415 0.93829185 1.4041592 1.5954907 1.3857116
1.9602458 2.508379 4.1077065 3.237503 1.3086745 0.6271361 1.1570666 0.15117872
-1.9447589 -2.0072503 0.01879017 -0.01201823 -0.00020129606 0.021034256 -0.67402273 -0.2680161
-0.5508624 -0.80453277 0.09055325 0.40490294 -0.42916748 -1.4094368 -0.6689574 -1.3204036
-0.0826815 0.033028696 -0.84435207 -0.22680052 -0.66073626 -0.65709555 0.40819946 -0.31778395
-0.45878935 1.339246 0.8247404 0.8676087 -0.2488843 -0.7994011 0.32010725 -0.015777696
-0.0093452 0.15941055 -0.7436519 -0.88218117 -0.48487753 -0.9576819 -0.66325027 0.62755966
-0.72775644 -1.4781542 -1.1689602 -0.66620934 -0.105134815 -0.13556974 0.36307588 0.44637036
0.25579932 0.7024373 -0.6078819 -1.671116 -1.5432811 -0.65480036 -0.3579055 0.64732915
0.4848682 1.5279021 -0.33632 1.9290013 -0.032806363 0.010927625 -0.99762654 -1.0726
-0.46643904 -2.162465 -1.8047408 -1.2226522 -0.16519815 0.0846241 0.49417898 1.306173
0.812692 0.38425866 0.8607809 0.9314263 1.2583941 1.5645921 1.5770094 -0.1765239
0.23877816 0.39035675 0.53832096 0.20249543 -0.56822264 0.40600055 2.6036181 1.1937671
-0.022881497 -0.13078113 -1.6242198 -0.9399119 -1.8274671 -2.0859737 -1.629608 -0.3843386
0.46758032 0.2421965 1.5091075 1.1120067 0.66201276 0.4577802 -0.31968814 -0.7050034
-0.41865075 -0.46687654 0.4202317 0.72746867 0.056393176 -0.32621524 0.59597707 0.22410424
1.0659065 0.38769782 0.72593987 -0.27969313 -0.0019749776 0.22949015 -0.96887314 -2.0278387
-2.3601184 -1.4458427 0.15710887 -0.0008258554 1.0129973 0.5838963 0.38835043 -0.15457645
-0.51052177 -0.40760577 -0.60780126 -0.5895317 -0.74410325 0.01731852 0.81804854 1.1102484
0.76288056 0.87692755 0.5837204 1.0070432 2.875684 2.0198362 1.3139504 0.5120547
0.029943582 0.28661096 -0.2902818 -1.7746369 -2.916232 -1.5917909 -0.64005977 -0.028819902
0.7986407 0.99665904 -0.27151573 0.24560814 0.19857304 -0.09658048 -0.43068263 0.20534134
0.5813284 0.22526705 -0.026492365 0.78463066 0.52555555 0.6748611 0.59622335 1.2291019
3.1131873 3.341769 4.0178785 1.0427928 0.025706366 0.22558089 0.12105324 -1.2771784
00000000: 21a1 f7bc b040 b53c f04e 463c c8ab be3c
00000010: 1036 c5bc 62cb f13c 60f7 0c3c 942f 403c
00000020: fcb0 fabc 462d a83c c252 f23c 338c 0b3d
00000030: 459b 57bd 3a20 01bd 07cd a83d 44d5 023e
00000040: 7ad5 e0bc 7084 5f3c 0072 f138 60fe 043c
00000050: b0a4 903c a8b5 ff3b e066 66bb 0803 bdbb
00000060: 3a9b 933c 1838 873c 6e08 3bbc c422 753c
00000070: 1042 b1bc 1025 ba3b 78c0 8abb 862e 53bc
00000080: 6ba9 933e 7de9 aa3e 9eba f93c df86 30be
00000090: 15b1 103e cd3d b1be bece b1be 48a3 9f3f
000000a0: 24c9 db3f dfd2 2440 3af1 1f40 ec82 603f
000000b0: 3632 e03f 4d43 b33f f2f9 873f e3e0 3a3f
000000c0: dbe7 0f3e a82b 35be ce2d 4a3e 7bdf 4e3f
000000d0: 473c 81bc 7007 103c 0e5e 51bc f048 c83c
000000e0: e8fc c93c 4454 403c 8aa5 18bf 10ad 92bd
000000f0: d22b b1bf 3497 cbbf b857 4b3f 36d3 343f
00000100: 4b11 8fbf a236 b1bf 3625 b8bf af23 bebd
00000110: e533 703f 7dbb b33f 0a39 cc3f ff5e b13f
00000120: 56e9 fa3f 4889 2040 5572 8340 4033 4f40
00000130: a582 a73f fe8b 203f c21a 943f 98ce 1a3e
00000140: dced f8bf ca76 00c0 d8ed 993c 1ce8 44bc
00000150: 0013 53b9 0850 ac3c c18c 2cbf 6839 89be
00000160: 5105 0dbf dcf5 4dbf fb73 b93d 704f cf3e
00000170: d7bb dbbe 6d68 b4bf cb40 2bbf fc02 a9bf
00000180: eb54 a9bd 1949 073d 7527 58bf 653e 68be
00000190: 0326 29bf 6a37 28bf 85ff d03e 94b4 a2be
000001a0: 70e6 eabe 6a6c ab3f 3022 533f 9b1b 5e3f
000001b0: 87db 7ebe 8da5 4cbf 19e5 a33e 3a40 81bc
000001c0: 9c1c 19bc 853c 233e f95f 3ebf a0d6 61bf
000001d0: de41 f8be a42a 75bf c5ca 29bf c0a7 203f
000001e0: 3f4e 3abf 2834 bdbf 7da0 95bf b28c 2abf
000001f0: ec50 d7bd cbd2 0abe 15e5 b93e a88a e43e
00000200: 21f8 823e eed2 333f 269e 1bbf 21e7 d5bf
00000210: 3c8a c5bf ffa0 27bf 643f b7be 5db7 253f
00000220: a540 f83e 4c92 c33f 2332 acbe 84e9 f63f
00000230: f75f 06bd c809 333c 7464 7fbf f54a 89bf
00000240: 19d1 eebe d465 0ac0 bf01 e7bf de7f 9cbf
00000250: b429 29be 664f ad3d 0705 fd3e ad30 a73f
00000260: 950c 503f 8dbd c43e 235c 5c3f f471 6e3f
00000270: 0f13 a13f 8e44 c83f 72db c93f aec2 34be
00000280: 4382 743e d7dc c73e 67cf 093f f65a 4f3e
00000290: 0a77 11bf 4edf cf3e aea1 2640 5ccd 983f
000002a0: fa71 bbbc 7deb 05be 6fe6 cfbf 119e 70bf
000002b0: 71ea e9bf 9880 05c0 ff96 d0bf 07c8 c4be
000002c0: b066 ef3e 5c02 783e 6f2a c13f 3c56 8e3f
000002d0: ab79 293f 2b62 ea3e 2aae a3be 1a7b 34bf
000002e0: 6459 d6be 710a efbe 9c28 d73e 633b 3a3f
000002f0: 88fc 663d af05 a7be f491 183f 957b 653e
00000300: a06f 883f 5480 c63e 32d7 393f f033 8fbe
00000310: a06e 01bb 77ff 6a3e 1208 78bf 1cc8 01c0
00000320: 2e0c 17c0 6011 b9bf 26e1 203e 387e 58ba
00000330: e5a9 813f 3a7a 153f ded5 c63e 4a49 1ebe
00000340: 8eb1 02bf b4b1 d0be dd98 1bbf 8deb 16bf
00000350: 8d7d 3ebf 92df 8d3c a16b 513f 9f1c 8e3f
00000360: 244c 433f 537e 603f b36e 153f cbe6 803f
00000370: 350b 3840 ff44 0140 872f a83f 0416 033f
00000380: 3e4c f53c acbe 923e d19f 94be 4d27 e3bf
00000390: 8ca3 3ac0 cebf cbbf f5da 23bf b717 ecbc
000003a0: b873 4c3f 0c25 7f3f 1c04 8bbe b380 7b3e
000003b0: bb56 4b3e fdcb c5bd 6f82 dcbe 0045 523e
000003c0: f0d1 143f 68ac 663e 8406 d9bc 8edd 483f
000003d0: cf8a 063f b2c3 2c3f 18a2 183f 3653 9d3f
000003e0: 763e 4740 8bdf 5540 7692 8040 3c7a 853f
000003f0: 2896 d23c adfe 663e c3ea f73d 957a a3bf

hidden1.0.bias f4 [100]
-0.37519422 -3.0980358 -0.5530151 -3.7842555 -0.042264007 -0.69423807 0.89302886 -2.1237392
-0.110807635 -0.59962326 -0.7413558 -0.013365833 -1.4761335 -0.08260279 -1.2485125 2.1502714
0.39704183 -2.120595 -0.9421298 -0.62793684 -0.042757615 -0.068249546 1.0382619 -0.02092821
-0.05021418 -3.5155578 -1.8761243 -3.6226964 -0.0037037013 -1.0505836 1.2797137 -3.3997495
-3.2188034 -0.802867 0.24398549 -0.06542885 -0.8197399 0.6053293 -0.026603568 0.7210613
0.004030318 -2.865965 -2.5506248 -0.00698362 0.5917025 -0.16389656 -0.021674499 -1.7825658
-0.014607954 -1.4660394 -0.036334652 -0.10610583 -2.87435 0.2825435 0.014984426 -0.02458231
-0.023861893 -2.5761602 -0.05437097 -0.10323295 -0.038303897 -0.060611308 -0.15066618 0.85984826
0.10125321 -0.23762888 -2.6774464 -2.7862058 -0.047272597 -0.6773935 -1.7976375 -0.06426086
-1.3473649 0.48215514 -0.12210926 -0.029487861 -0.009964462 1.0000463 -0.047516473 -0.009674562
-0.021152593 -0.05999619 -0.00865628 -1.2093748 -0.04339808 -0.8884004 -4.0391154 -0.012609398
1.5100561 -0.69420534 -0.0488979 -2.5567708 -0.12118927 0.001944922 -0.05279278 -0.02824599
-0.19992885 0.5129798 -1.8776852 -0.04645307
00000000: 7519 c0be 3846 46c0 6692 0dbf 3e31 72c0
00000010: 061d 2dbd 96b9 31bf 8a9d 643f 58eb 07c0
00000020: 1def e2bd e980 19bf 7ec9 3dbf 5efc 5abc
00000030: f1f1 bcbf a72b a9bd 42cf 9fbf 0c9e 0940
00000040: 1149 cb3e d4b7 07c0 6b2f 71bf 78c0 20bf
00000050: 9c22 2fbd 6bc6 8bbd c4e5 843f a371 abbc
00000060: 62ad 4dbd e6fe 60c0 d724 f0bf 42da 67c0
00000070: ccb9 72bb 8679 86bf a9cd a33f 7f95 59c0
00000080: e000 4ec0 b188 4dbf 55d7 793e 90ff 85bd
00000090: 79da 51bf dcf6 1a3f baef d9bc 7997 383f
000000a0: c210 843b f86b 37c0 703d 23c0 dad6 e4bb
000000b0: d179 173f 80d4 27be b88e b1bc 1e2b e4bf
000000c0: 3356 6fbc 2ea7 bbbf a5d3 14bd 034e d9bd
000000d0: 5af5 37c0 8ba9 903e 3d81 753c d760 c9bc
000000e0: 047a c3bc cfdf 24c0 18b4 5ebd cc6b d3bd
000000f0: 8ce4 1cbd 9043 78bd 3c48 1abe 041f 5c3f
00000100: d85d cf3d fc54 73be 485b 2bc0 3251 32c0
00000110: e9a0 41bd a969 2dbf fc18 e6bf 339b 83bd
00000120: 7476 acbf 0add f63e 6b14 fabd 8790 f1bc
00000130: fc41 23bc 8401 803f a2a0 42bd 0e82 1ebc
00000140: 3448 adbc 91be 75bd 12d3 0dbc cbcc 9abf
00000150: 2fc2 31bd 356e 63bf 6f40 81c0 a697 4ebc
00000160: 8549 c13f 71b7 31bf 2a49 48bd 22a2 23c0
00000170: 1432 f8bd c1ec fe3a 3e3d 58bd 2264 e7bc
00000180: 26ba 4cbe a552 033f fd57 f0bf 9345 3ebd

hidden2.0.weight f4 [100, 100]
-1.9623255 -0.49712703 -1.4034507 -1.3572849 -0.057540826 -3.805214 -3.3656924 -1.4323709
0.6473081 -2.9793708 -1.2618637 0.03366464 -2.875523 -0.71092397 -1.179748 -1.3839471
-1.8650111 0.6797938 -0.33835208 -0.9832687 0.037808456 0.025775876 0.6744312 -0.07123626
-0.060843553 -1.1434684 -1.5825325 -0.6332255 0.05250501 -0.8458912 0.43268687 -0.38314214
-0.4904955 -1.515041 -1.3731519 -0.015228586 -1.1719804 -1.5987551 0.026988188 0.4182424
-0.0036417693 -0.746402 0.029717647 0.041797135 -2.1065426 -0.7532205 0.13016039 0.49732482
-0.049577866 -0.7932336 -2.5720263 -0.08079929 -0.413168 -1.1196127 1.1382738 0.06094815
-0.06427849 -1.6803015 0.016837396 0.09175143 0.017346926 0.0031299435 -0.19630104 -1.2315826
0.32306504 -3.0228574 0.7607642 -1.8828139 0.53911203 -3.1782641 -1.1279007 0.054317065
-0.63827616 -2.0924327 0.095177904 -0.012045011 0.04181529 -1.9679788 0.027394125 -0.053714316
0.06965185 -0.059619416 0.12385815 -0.9256377 -0.08235725 -1.1439492 -0.36773795 0.0519645
0.6482997 -1.041375 -0.014155066 -0.8087228 -0.044638373 0.0023438626 0.058408383 0.059409942
-0.7045758 -1.843213 -1.7254165 -0.05044017 -0.8245374 -1.851817 -0.7181968 -1.5752391
0.009407792 -2.0224674 -2.5420344 -0.44915444 -1.606964 -2.455516 -0.5904607 -0.026870644
-2.7514367 -1.9807433 -0.6365888 -1.9914986 -2.3913012 0.42480177 -0.9019723 -0.50606114
-0.06891719 -0.13063656 -2.3600607 -0.059559166 0.035542972 -1.3449908 -1.4436489 -0.92074215
-0.030845448 -0.22562982 -3.1253765 -0.5176015 -0.7712445 -1.5773137 -1.5360456 -0.00705736
-1.0615815 -0.5465014 -0.02614601 -1.2904022 0.012724496 -0.8533993 -2.0317984 -0.031652763
-1.6998777 -1.1719732 -0.16631591 0.24636392 -0.009199988 -0.20766433 -1.8238117 0.0043243296
-0.5172496 -1.2907097 -1.4741192 -0.042212 0.064374804 -1.01869 0.01216186 0.10901592
0.050608754 -0.0030566081 -3.0491884 -1.8425064 -1.7321451 -2.5785186 0.38114068 -0.25419167
-1.9552788 -0.995937 -0.5903966 -0.058191013 -0.21323065 -2.8786025 0.030668207 0.020093247
-0.034497954 -1.6587199 0.02062229 0.026877709 -0.016304925 0.096195586 -0.055942442 -0.6658877
-0.04373913 -0.23987694 -0.30924928 -0.086285375 -1.753192 -1.3505547 0.08940924 -1.0881319
0.016104566 -0.018642426 -0.08873678 0.004566945 -1.5935553 -1.9810401 -2.0290473 -0.00042127958
0.005082487 0.6537696 -0.62166953 -0.2913192 -0.051596265 -0.0064675175 -0.018963339 1.657423
-1.0549124 -0.015318537 -0.5112912 -0.057228163 -0.042253736 -0.09454978 -1.1019933 -2.2824008
-3.7378585 -1.842836 -0.7835648 -2.2656057 -0.04576962 -0.04551108 -1.1405354 -0.09129287
0.051817015 1.4724871 -0.04364171 1.643449 -0.03635446 -0.9276187 0.63010406 0.4189958
-5.7678885 1.1808099 -0.07633477 0.0151026845 -0.46685663 1.1098387 -0.044440288 -1.8853276
-0.025773639 -1.4779009 1.0487933 0.010002696 1.2049468 -0.12721962 -0.055270206 -2.2215054
0.0046018977 -1.8293972 -0.05524314 0.16662605 0.41305798 -0.21115565 -0.458086 0.08375254
00000000: 7b2d fbbf 6f87 febe 46a4 b3bf 83bb adbf
00000010: eeaf 6bbd a088 73c0 8167 57c0 ee57 b7bf
00000020: fcb5 253f 03ae 3ec0 c084 a1bf efe3 093d
00000030: 9208 38c0 1dff 35bf fc01 97bf 2e25 b1bf
00000040: afb8 eebf f706 2e3f 7c3c adbe 7fb7 7bbf
00000050: 0add 1a3d ee27 d33c 86a7 2c3f 51e4 91bd
00000060: 1737 79bd 2c5d 92bf 6d90 cabf 111b 22bf
00000070: 7e0f 573d 538c 58bf 2289 dd3e 352b c4be
00000080: 3a22 fbbe ddec c1bf 71c3 afbf 5281 79bc
00000090: 7403 96bf 02a4 ccbf 5516 dd3c de23 d63e
000000a0: c0aa 6ebb 3414 3fbf 6c72 f33c 7933 2b3d
000000b0: 98d1 06c0 0fd3 40bf c448 053e 5ca1 fe3e
000000c0: 2912 4bbd 5b11 4bbf 149c 24c0 197a a5bd
000000d0: c28a d3be 784f 8fbf f5b2 913f c4a4 793d
000000e0: 71a4 83bd 1f14 d7bf 94ee 893c 2ce8 bb3d
000000f0: 241b 8e3c bd1f 4d3b 2403 49be 80a4 9dbf
00000100: c868 a53e 7f76 41c0 71c1 423f 0c00 f1bf
00000110: 3f03 0a3f ae68 4bc0 0d5f 90bf 927b 5e3d
00000120: 1166 23bf 6bea 05c0 a2ec c23d 7058 45bc
00000130: 8246 2b3d bbe6 fbbf a569 e03c 8b03 5cbd
00000140: a1a5 8e3d 7d33 74bd 57a9 fd3d 98f6 6cbf
00000150: ebaa a8bd ed6c 92bf 2648 bcbe bad8 543d
00000160: f8f6 253f c74b 85bf a6ea 67bc 7508 4fbf
00000170: bad6 36bd 7d9b 193b a13d 6f3d d757 733d
00000180: 145f 34bf 67ee ebbf 73da dcbf 5a9a 4ebd
00000190: e214 53bf 5708 edbf bfdb 37bf 6fa1 c9bf
000001a0: 2423 1a3c 1b70 01c0 b1b0 22c0 92f7 e5be
000001b0: ffb0 cdbf 2d27 1dc0 6f28 17bf d31f dcbc
000001c0: 8a17 30c0 ff88 fdbf 7cf7 22bf 6de9 febf
000001d0: 140b 19c0 9e7f d93e a8e7 66bf 398d 01bf
000001e0: 7524 8dbd 97c5 05be 3c0b 17c0 50f4 73bd
000001f0: 8295 113d a928 acbf 7dc9 b8bf c2b5 6bbf
00000200: 98af fcbc 810b 67be 2b06 48c0 8881 04bf
00000210: 4870 45bf 6ae5 c9bf 249d c4bf 6d41 e7bb
00000220: e7e1 87bf 84e7 0bbf 2830 d6bc e62b a5bf
00000230: 687a 503c 6078 5abf fc08 02c0 54a6 01bd
00000240: 9895 d9bf 3803 96bf b84e 2abe d346 7c3e
00000250: 8cbb 16bc f5a5 54be a972 e9bf 1bb3 8d3b
00000260: 786a 04bf fa35 a5bf f0af bcbf 7de6 2cbd
00000270: f0d6 833d 6f64 82bf 8a42 473c bd43 df3d
00000280: 204b 4f3d 6051 48bb e725 43c0 40d7 ebbf
00000290: eeb6 ddbf 7306 25c0 df24 c33e 6925 82be
000002a0: 9346 fabf baf5 7ebf 3b24 17bf b359 6ebd
000002b0: 2359 5abe 063b 38c0 e43b fb3c 989a a43c
000002c0: ba4d 0dbd ef50 d4bf 14f0 a83c a42e dc3c
000002d0: e891 85bc 3102 c53d e723 65bd 9e77 2abf
000002e0: cd27 33bd 4da2 75be ec55 9ebe 63b6 b0bd
000002f0: 9868 e0bf fade acbf 311c b73d e847 8bbf
00000300: b9ed 833c 00b8 98bc a1bb b5bd 50a6 953b
00000310: 9ff9 cbbf b992 fdbf e9db 01c0 30df dcb9
00000320: fe8a a63b 725d 273f bc25 1fbf ca27 95be
00000330: 9b56 53bd 78ed d3bb 0159 9bbc 7026 d43f
00000340: 5f07 87bf 9afa 7abc fbe3 02bf 1468 6abd
00000350: 4112 2dbd 51a3 c1bd 1e0e 8dbf db12 12c0
00000360: 1339 6fc0 0de2 ebbf b497 48bf afff 10c0
00000370: ed78 3bbd d469 3abd 10fd 91bf c2f7 babd
00000380: 143e 543d 757a bc3f a6c1 32bd 895c d23f
00000390: 6ae8 14bd 6b78 6dbf 804e 213f 9e86 d63e
000003a0: 8b92 b8c0 c724 973f 6755 9cbd 4071 773c
000003b0: d507 efbe 320f 8e3f 0507 36bd 6a52 f1bf
000003c0: 3d23 d3bc db2b bdbf dc3e 863f 59e2 233c
000003d0: b23b 9a3f dc45 02be 0363 62bd 252d 0ec0
000003e0: 84cb 963b b029 eabf a146 62bd 05a0 2a3e
000003f0: 567c d33e 3039 58be 408a eabe 7486 ab3d

hidden2.0.bias f4 [100]
3.4878874 1.2161587 0.473534 3.3968627 3.517111 -0.8564102 0.8497855 3.1629672
1.3956805 6.083817 1.8024809 -3.5670123 -3.174069 1.5585889 -0.37975922 -6.2206182
1.3231485 -2.1933615 6.960182 -0.5719708 0.8669514 -5.589505 -0.35638848 3.2018704
-0.10523072 2.7736087 -0.83002424 -2.0836701 5.4888506 -2.3619583 0.3588031 -3.119595
0.080663785 -3.7280345 -2.682647 0.26315898 0.753401 -3.4920824 -0.88313484 -2.0636652
-0.0441835 -3.31786 -2.5056674 -3.430226 -4.7992454 4.4054284 -1.9697787 -0.16450669
1.5829726 6.6501875 6.4690294 -1.5229168 2.7233956 1.54463 2.887232 1.2141371
-0.43545783 7.786771 0.16145822 -1.114535 3.3948846 7.542431 0.27256602 2.9550147
-0.17783664 1.6291562 -0.8585235 -5.1995826 1.4797475 -1.4785523 2.7183704 2.5551956
3.7813106 -4.645115 3.43646 5.1618896 7.949406 5.9936604 -0.3927991 0.42764372
-2.8753116 -0.8671451 1.3450725 -1.1087894 4.7764673 -0.35684043 0.4334383 3.2874224
-5.116494 -5.7122477e-05 -0.6699947 1.2983055 -2.4036186 0.1332124 6.625665 0.060637053
-7.155924 -0.2237881 -0.5867818 0.3789091
00000000: 8c39 5f40 17ab 9b3f 0c73 f23e 3366 5940
00000010: 5918 6140 b33d 5bbf 8b8b 593f 0e6e 4a40
00000020: a9a5 b23f a1ae c240 b2b7 e63f ee49 64c0
00000030: f223 4bc0 d77f c73f cd6f c2be 4e0f c7c0
00000040: ee5c a93f 0960 0cc0 d0b9 de40 ae6c 12bf
00000050: 87f0 5d3f 3add b2c0 8d78 b6be 72eb 4c40
00000060: 3483 d7bd ce82 3140 787c 54bf da5a 05c0
00000070: aaa4 af40 532a 17c0 0ab5 b73e 72a7 47c0
00000080: 0e33 a53d 1e98 6ec0 7db0 2bc0 c6bc 863e
00000090: e3de 403f 477e 5fc0 2015 62bf 1713 04c0
000000a0: c2f9 34bd d157 54c0 db5c 20c0 d388 5bc0
000000b0: 6b93 99c0 45f9 8c40 b521 fcbf 7174 28be
000000c0: d99e ca3f 56ce d440 4a02 cf40 f0ee c2bf
000000d0: 1d4c 2e40 70b6 c53f 69c8 3840 d868 9b3f
000000e0: 54f4 debe 3a2d f940 4e55 253e 15a9 8ebf
000000f0: ca45 5940 985b f140 c68d 8b3e f61e 3d40
00000100: cf1a 36be 3188 d03f 32c8 5bbf fb62 a6c0
00000110: 5e68 bd3f 3441 bdbf c8f9 2d40 5388 2340
00000120: fe00 7240 c8a4 94c0 f6ee 5b40 332e a540
00000130: 8961 fe40 11cc bf40 f71c c9be 1ef4 da3e
00000140: 1b05 38c0 39fd 5dbf 562b ac3f d0ec 8dbf
00000150: d2d8 9840 cab3 b6be a0eb dd3e 2165 5240
00000160: 52ba a3c0 cb96 6fb8 c684 2bbf e02e a63f
00000170: e3d4 19c0 d568 083e 7305 d440 8f5e 783d
00000180: 54fd e4c0 b528 65be 5537 16bf 6000 c23e

hidden3.0.weight f4 [100, 100]
-3.7599218 -1.8224577 0.9551879 -4.796077 -3.032727 -0.33681643 0.75410044 -3.8342898
-0.14861916 1.9268407 0.126213 -0.28461415 -0.59641147 -2.7293763 0.23592094 0.5055846
-3.990146 0.21507582 1.6413783 0.5121176 -0.43179995 0.5379483 -1.2793112 -0.009202441
-0.12117105 0.93583554 -0.02652215 0.9871327 0.36187488 0.49794468 -1.3249696 1.5986522
-2.898382 0.8157653 -0.046431288 -2.3545666 0.11683432 0.7216719 1.22092 -0.8643688
0.021115616 0.5208524 1.0574495 0.15277873 0.44164947 0.83549535 0.018649306 0.055294614
1.2179838 2.1409488 -0.29757592 0.22773705 -3.534329 -2.9372149 -3.1342213 -0.43156195
0.31521034 1.2531756 -2.2825267 -0.25348714 -3.0089176 0.74132055 0.48992532 -4.300029
-1.9752316 -0.39198846 -2.0630198 1.461441 -2.9144845 1.5590518 -2.6906843 0.8511216
1.0859827 -0.009176161 -3.8416924 0.19403486 0.44656855 2.0249505 -1.8329302 -0.019188305
0.9287708 0.19249827 -1.513227 -1.9026561 0.7824836 -0.09435687 0.7975353 -3.6090508
0.35040104 -0.20200889 0.2524508 -2.8989398 0.542412 0.8865834 0.46245867 0.72939694
0.3475882 0.16217387 -1.5747381 -0.29175854 0.9513615 4.1713834 0.30775782 0.83303696
1.4916247 -3.4289336 -0.40981084 0.37675118 -0.96577626 1.6080709 -0.12098041 -2.3307912
-0.018808229 -3.3745844 -1.5459511 -2.176373 3.899454 0.02054199 2.4803343 0.14167733
-0.22676265 -3.0512962 -0.47779438 -0.15609705 -2.1750176 -0.19271772 0.24205463 0.99483144
0.7495921 -3.867875 -0.5553828 0.12778664 -1.8646146 0.020631764 -1.9953723 -2.1526706
1.1100975 -0.2102417 0.08841831 0.23084286 -0.048316695 -0.21353616 -0.18673478 -1.5416124
-2.1630363 0.16786915 0.4754106 -0.3801084 0.5369973 1.6119504 0.19640115 -0.5431296
0.6253556 -1.9535824 0.8116232 -0.6215264 0.051823817 -0.22026008 -3.04656 0.018970147
-0.16638723 0.7818197 1.1489401 0.72149235 -3.6352665 -0.3465318 -2.6197245 0.25070688
-1.340315 0.15320398 -1.0451288 0.14110596 -0.12962377 -1.8200601 0.93613493 0.76406217
0.7400133 1.944609 -1.8947095 -0.08484119 -0.0580764 0.042673197 -1.9126114 -1.7641665
0.9513428 -0.41628757 0.55046606 1.2913862 -3.36236 -0.42634934 0.01645682 -2.002947
-1.6088133 -0.48017693 2.550726 0.34156638 -1.3258094 0.019647932 -1.9866273 -0.80958486
-3.619646 -2.8413324 0.56946623 1.2717696 -3.3255565 0.9774754 0.28660557 -0.42958656
-0.28197157 1.5493538 -0.37408128 -0.42478752 -1.9152086 2.1087995 1.3963841 0.2924853
-3.703933 -3.3706446 1.0762303 -0.7994698 -0.0069689546 0.17088515 -0.89569914 -0.67247933
0.37969786 1.5500882 1.2600385 -2.0239382 0.6115439 0.43107262 -0.6370172 0.32464546
-0.24696827 -2.096794 1.8505127 -0.28506058 -0.6575627 -0.1875999 -0.5351427 -0.8622992
0.010991307 -0.41687533 -2.1003776 0.81952655 -0.014868313 0.87071437 -2.9663687 1.0175121
-4.483467 1.3834599 0.9414269 -0.72135675 -3.8477268 2.0139012 -0.2903765 0.017756071
00000000: 8fa2 70c0 4b46 e9bf 3287 743f 7679 99c0
00000010: 3318 42c0 3473 acbe ba0c 413f 0165 75c0
00000020: 9f2f 18be b7a2 f63f fb3d 013e f2b8 91be
00000030: 6cae 18bf 1aae 2ec0 4295 713e fe6d 013f
00000040: 8d5e 7fc0 d63c 5c3e af18 d23f 241a 033f
00000050: e214 ddbe fbb6 093f 78c0 a3bf d6c5 16bc
00000060: 8728 f8bd eb92 6f3f fb44 d9bc bbb4 7c3f
00000070: aa47 b93e 9bf2 fe3e 9b98 a9bf a3a0 cc3f
00000080: 177f 39c0 ffd5 503f bc2e 3ebd 38b1 16c0
00000090: d546 ef3d 7dbf 383f 1b47 9c3f 4647 5dbf
000000a0: a8fa ac3c 9556 053f 815a 873f 0772 1c3e
000000b0: e11f e23e 06e3 553f 6ec6 983c 9b7c 623d
000000c0: e5e6 9b3f 4e05 0940 df5b 98be e733 693e
000000d0: 7232 62c0 54fb 3bc0 1597 48c0 b0f5 dcbe
000000e0: 4063 a13e 0f68 a03f eb14 12c0 11c9 81be
000000f0: 1b92 40c0 2fc7 3d3f 7ed7 fa3e d699 89c0
00000100: 64d4 fcbf b6b2 c8be 8408 04c0 8010 bb3f
00000110: ea86 3ac0 028f c73f 2c34 2cc0 1be3 593f
00000120: 7b01 8b3f 9c57 16bc 4ade 75c0 13b1 463e
00000130: a2a4 e43e ca98 0140 759d eabf cb30 9dbc
00000140: ecc3 6d3f 441e 453e 6cb1 c1bf 3c8a f3bf
00000150: d850 483f 2d3e c1bd 462b 4c3f b0fa 66c0
00000160: c467 b33e 6bdb 4ebe 3b41 813e 3b88 39c0
00000170: 83db 0a3f 21f7 623f 62c7 ec3e c2b9 3a3f
00000180: 15f7 b13e e810 263e 0591 c9bf 6061 95be
00000190: 6d8c 733f f97b 8540 6f92 9d3e e941 553f
000001a0: 8fed be3f a673 5bc0 bad2 d1be 88e5 c03e
000001b0: 1d3d 77bf 44d5 cd3f 94c4 f7bd af2b 15c0
000001c0: b713 9abc 31f9 57c0 bae1 c5bf b249 0bc0
000001d0: a890 7940 ad47 a83c ccbd 1e40 dd13 113e
000001e0: 7834 68be 7048 43c0 77a1 f4be e8d7 1fbe
000001f0: 7d33 0bc0 cb57 45be 2bdd 773e 46ad 7e3f
00000200: 45e5 3f3f 448b 77c0 912d 0ebf 80da 023e
00000210: b1ab eebf f203 a93c 5c68 ffbf 5bc5 09c0
00000220: ad17 8e3f 9a49 57be a914 b53d 1262 6c3e
00000230: bae7 45bd 39a9 5abe 6737 3fbe 8e53 c5bf
00000240: 306f 0ac0 e4e5 2b3e 0569 f33e 919d c2be
00000250: a878 093f 6454 ce3f 621d 493e 8b0a 0bbf
00000260: 4e17 203f fd0e fabf 8ac6 4f3f 5b1c 1fbf
00000270: 3645 543d dc8b 61be d7fa 42c0 4867 9b3c
00000280: 6a61 2abe 5625 483f 7810 933f b9b3 383f
00000290: 35a8 68c0 9e6c b1be 91a9 27c0 a75c 803e
000002a0: 718f abbf 81e1 1c3e c8c6 85bf 157e 103e
000002b0: 18bc 04be bbf7 e8bf 8aa6 6f3f 9499 433f
000002c0: 8371 3d3f f3e8 f83f d785 f2bf 38c1 adbd
000002d0: 85e1 6dbd 17ca 2e3d 73d0 f4bf 35d0 e1bf
000002e0: 348b 733f a523 d5be 58eb 0c3f 254c a53f
000002f0: e830 57c0 764a dabe 74d0 863c 4930 00c0
00000300: 98ed cdbf c0d9 f5be 183f 2340 cae1 ae3e
00000310: 1fb4 a9bf b3f4 a03c ce49 febf f440 4fbf
00000320: 48a8 67c0 64d8 35c0 8ac8 113f 59c9 a23f
00000330: ebd5 54c0 d43b 7a3f f7bd 923e c5f2 dbbe
00000340: 945e 90be 3a51 c63f 9587 bfbe c07d d9be
00000350: 8e25 f5bf 92f6 0640 b7bc b23f a2c0 953e
00000360: 3d0d 6dc0 a4b8 57c0 eac1 893f 0eaa 4cbf
00000370: d45b e4bb 84fc 2e3e 8a4c 65bf 9b27 2cbf
00000380: c267 c23e 4a69 c63f f148 a13f 3488 01c0
00000390: 248e 1c3f 8db5 dc3e 8f13 23bf ee37 a63e
000003a0: 40e5 7cbe df31 06c0 9add ec3f 76f3 91be
000003b0: 0756 28bf 301a 40be 1dff 08bf a4bf 5cbf
000003c0: e214 343c af70 d5be 966c 06c0 7ecc 513f
000003d0: 3a9a 73bc 23e7 5e3f fcd8 3dc0 d63d 823f
000003e0: 9078 8fc0 3715 b13f 5a01 713f d6aa 38bf
000003f0: 2841 76c0 c2e3 0040 3bac 94be 2e75 913c

hidden3.0.bias f4 [100]
10.89191 13.447603 15.892646 12.877219 10.962195 14.84214 14.55039 13.872481
13.46297 18.234547 15.267597 15.347695 13.222482 12.114694 15.237377 15.568505
15.00855 15.108724 12.205268 12.5508 13.745015 14.191087 11.098365 17.991611
17.53804 16.450914 17.681313 14.530889 10.966064 19.042873 20.19706 13.877581
10.75748 15.425536 17.22065 12.680714 12.360968 15.893485 12.501209 11.889432
12.513694 17.42937 12.764914 13.303061 12.820913 15.146186 12.214808 10.524107
19.599401 11.629252 15.790113 20.20165 13.776655 12.09324 17.284689 16.664503
13.366066 9.943571 15.490047 12.648202 16.111464 17.508615 14.119943 12.844781
18.567932 13.972926 19.867712 10.06849 18.220625 15.54974 12.949346 18.199703
15.269679 13.648705 10.933169 13.254523 14.969757 15.455357 17.310436 11.69829
11.409414 16.899006 14.746075 16.617203 19.989033 20.900208 15.960866 14.940077
17.78917 15.752164 14.374824 11.609717 16.498888 15.028512 15.147467 12.922463
14.351005 14.7656765 15.779048 12.995246
00000000: 4345 2e41 6229 5741 4748 7e41 1709 4e41
00000010: 2765 2f41 6879 6d41 66ce 6841 aff5 5d41
00000020: 5368 5741 5ae0 9141 1448 7441 2990 7541
00000030: 498f 5341 c9d5 4141 4ccc 7341 9918 7941
00000040: 0523 7041 55bd 7141 c748 4341 14d0 4841
00000050: 95eb 5b41 b10e 6341 e792 3141 d2ee 8f41
00000060: e84d 8c41 799b 8341 5473 8d41 857e 6841
00000070: 0075 2f41 ce57 9841 9493 a141 920a 5e41
00000080: a31e 2c41 ffce 7641 e4c3 8941 34e4 4a41
00000090: 86c6 4541 b74b 7e41 f404 4841 1d3b 3e41
000000a0: 1738 4841 5a6f 8b41 163d 4c41 56d9 5441
000000b0: 7622 4d41 c756 7241 db6f 4341 be62 2841
000000c0: 93cb 9c41 6b11 3a41 4ea4 7c41 fb9c a141
000000d0: 2e6d 5c41 e97d 4141 0b47 8a41 e750 8541
000000e0: 68db 5541 de18 1f41 3cd7 7741 095f 4a41
000000f0: 47e4 8041 a511 8c41 49eb 6141 3984 4d41
00000100: 208b 9441 1b91 5f41 13f1 9e41 8918 2141
00000110: d7c3 9141 bccb 7841 8530 4f41 fe98 9141
00000120: 9b50 7441 1861 5a41 43ee 2e41 8712 5441
00000130: 2084 6f41 2449 7741 c67b 8a41 322c 3b41
00000140: f68c 3641 2a31 8741 ecef 6b41 08f0 8441
00000150: 8ae9 9f41 a033 a741 b55f 7f41 8e0a 6f41
00000160: 3850 8e41 dd08 7c41 47ff 6541 67c1 3941
00000170: b9fd 8341 c974 7041 065c 7241 69c2 4e41
00000180: b79d 6541 3640 6c41 fb76 7c41 87ec 4f41

normised.weight f4 [100]
0.58637726 0.6188801 0.6374195 0.6823923 0.5382923 0.6803959 0.5737232 0.5475624
0.66366255 0.5860817 0.60683596 0.52255994 0.5877157 0.50805587 0.58345824 0.62207615
0.50823396 0.6619968 0.54625773 0.48030347 0.59905857 0.66936135 0.62316 0.48577023
0.66956174 0.5260631 0.63849884 0.65708804 0.6852883 0.49386755 0.7048705 0.56787276
0.48501825 0.5824348 0.6054418 0.5018812 0.56246525 0.4863278 0.55600685 0.60560626
0.53156257 0.5939042 0.63335353 0.5356604 0.48503703 0.62629414 0.47747087 0.49193957
0.47670853 0.57217777 0.66579765 0.6694033 0.56377435 0.64112705 0.70339245 0.6575389
0.46927384 0.59638304 0.5183366 0.66362053 0.5645429 0.6308537 0.51666266 0.5583691
0.6711175 0.48560587 0.44961894 0.6439902 0.545031 0.6097259 0.4417602 0.50647295
0.4187495 0.43271467 0.5856399 0.5624922 0.5063574 0.65041995 0.6316252 0.62053484
0.62245166 0.5521385 0.50399446 0.5698595 0.501043 0.56923336 0.45173195 0.56577426
0.62502855 0.56984043 0.4981662 0.58236426 0.6372839 0.54730946 0.67557263 0.5148862
0.51658493 0.49063665 0.59846073 0.5576026
00000000: d21c 163f ed6e 1e3f ed2d 233f 43b1 2e3f
00000010: 86cd 093f 6d2e 2e3f 86df 123f 0d2d 0c3f
00000020: cae5 293f 7309 163f 9a59 1b3f 7dc6 053f
00000030: 8974 163f f30f 023f 855d 153f 6240 1f3f
00000040: 9f1b 023f 9f78 293f 8cd7 0b3f 56ea f53e
00000050: e75b 193f 445b 2b3f 6a87 1f3f e0b6 f83e
00000060: 6668 2b3f 12ac 063f a974 233f ec36 283f
00000070: 0e6f 2f3f 35dc fc3e 6572 343f 1c60 113f
00000080: 5054 f83e 721a 153f 3cfe 1a3f 497b 003f
00000090: b9fd 0f3f f5ff f83e 7756 0e3f 0309 1b3f
000000a0: 7c14 083f 1b0a 183f 7523 223f 0a21 093f
000000b0: c656 f83e d054 203f 1077 f43e 81df fb3e
000000c0: 2413 f43e 3e7a 123f b771 2a3f 045e 2b3f
000000d0: 8453 103f e720 243f 8711 343f 7854 283f
000000e0: a944 f03e 8fac 183f b5b1 043f 09e3 293f
000000f0: e285 103f a17f 213f 0144 043f 47f1 0e3f
00000100: 5bce 2b3f 55a1 f83e 7434 e63e 8bdc 243f
00000110: 2787 0b3f ff16 1c3f 652e e23e 36a8 013f
00000120: 5666 d63e c78c dd3e 7fec 153f 7dff 0f3f
00000130: a3a0 013f ec81 263f 30b2 213f 5fdb 1e3f
00000140: fe58 1f3f f358 0d3f c805 013f 50e2 113f
00000150: 5b44 003f 47b9 113f 6949 e73e 95d6 103f
00000160: df01 203f 10e1 113f a40f ff3e d315 153f
00000170: 0a25 233f 791c 0c3f 54f2 2c3f 95cf 033f
00000180: e93e 043f ba34 fb3e b934 193f 0bbf 0e3f

normised.bias f4 [100]
0.19320248 0.15775901 0.16027586 0.18713956 0.1264253 0.20409344 0.21029037 0.13106354
0.19073558 0.207889 0.11876406 0.1554982 0.20502049 0.14118022 0.18003683 0.15874933
0.18868846 0.19472203 0.17042789 0.16709091 0.14943461 0.21726452 0.13229737 0.16484495
0.2052024 0.16713712 0.20744802 0.17878939 0.12216021 0.20809166 0.2211704 0.18105459
0.17284071 0.1412318 0.13180882 0.17346656 0.12486505 0.15493567 0.21653193 0.09868044
0.17578588 0.21722229 0.19772704 0.11613177 0.1671987 0.1658482 0.16408147 0.1432202
0.17010546 0.16368634 0.23390584 0.25125733 0.1571943 0.16536807 0.17410351 0.16742659
0.163154 0.1531368 0.18782419 0.18283309 0.19153759 0.16719534 0.16958807 0.17076772
0.25237042 0.18249696 0.14804621 0.15928006 0.15305932 0.16895294 0.14375123 0.1652742
0.15358068 0.12504792 0.16111974 0.15851629 0.15535729 0.22497547 0.1850589 0.1574655
0.14450847 0.19096448 0.1580684 0.1396678 0.15561467 0.20445825 0.14099187 0.115488246
0.22235817 0.20371494 0.11782023 0.19166407 0.18947425 0.18268691 0.1936245 0.1623322
0.16207546 0.13960025 0.15971416 0.090648316
00000000: dfd6 453e 948b 213e 5b1f 243e 83a1 3f3e
00000010: a275 013e dffd 503e 5c56 573e 8535 063e
00000020: 3050 433e dbe0 543e 923a f33d ec3a 1f3e
00000030: e4f0 513e 8c91 103e 935b 383e 2f8f 223e
00000040: 8c37 413e 3665 473e a684 2e3e e119 2b3e
00000050: 6305 193e 977a 5e3e f678 073e 1dcd 283e
00000060: 9420 523e fe25 2b3e 416d 543e 9114 373e
00000070: 222f fa3d fb15 553e 7e7a 623e 6066 393e
00000080: 28fd 303e 129f 103e e4f8 063e 38a1 313e
00000090: 3fb9 ff3d 75a7 1e3e 8cba 5d3e f818 ca3d
000000a0: 3701 343e 856f 5e3e f578 4a3e 7ed6 ed3d
000000b0: 2336 2b3e 1cd4 293e f904 283e 51a8 123e
000000c0: 2030 2e3e 649d 273e 0385 6f3e cda4 803e
000000d0: 8bf7 203e 3f56 293e 3148 323e e071 2b3e
000000e0: d811 273e e5cf 1c3e fc54 403e 9938 3b3e
000000f0: 6e22 443e 4135 2b3e 7fa8 2d3e bcdd 2e3e
00000100: b236 813e 7ce0 3a3e 6d99 173e 501a 233e
00000110: 95bb 1c3e 0002 2d3e 8633 133e a43d 293e
00000120: 4144 1d3e 900c 003e 93fc 243e 1852 223e
00000130: fb15 1f3e f85f 663e 1580 3d3e a33e 213e
00000140: 07fa 133e 318c 433e afdc 213e 1305 0f3e
00000150: 7459 1f3e 815d 513e 2c60 103e 1a85 ec3d
00000160: dcb1 633e a69a 503e bc4b f13d 9643 443e
00000170: 8a05 423e 4712 3b3e 8045 463e 6a3a 263e
00000180: 1cf7 253e 5ef3 0e3e 1c8c 233e d3a5 b93d

normised.running_mean f4 [100]
438.51645 142.69041 571.25714 497.61694 241.77368 345.78256 254.9006 258.37823
443.5875 115.22586 292.74615 146.93198 160.07947 17.508585 131.46814 289.95023
314.9421 383.1133 102.995316 25.03097 440.52502 451.5936 373.71503 189.063
442.6828 28.84103 199.90411 323.4894 148.75073 88.04545 320.522 238.76233
100.874886 67.28551 307.67926 351.125 185.57568 241.75647 298.32864 218.59436
210.3011 239.4912 610.6394 101.51621 374.73038 321.77936 196.2488 305.59897
62.94013 559.42737 482.7662 354.52908 173.91948 81.11981 248.62698 161.96362
183.18456 416.1515 76.291374 182.11032 199.98643 378.609 231.88835 27.740007
121.51381 251.2161 39.584072 516.18304 42.309994 589.35236 238.99953 51.14229
222.25546 4.5896907 308.7203 289.5173 103.99309 245.09164 156.92097 450.81702
658.605 146.58917 20.402199 60.25405 115.78799 93.722115 31.503933 423.448
270.09525 264.8248 119.1974 63.584908 349.29425 186.55081 167.29028 14.645016
63.19236 123.3622 207.15112 150.08478
00000000: 1b42 db43 bfb0 0e43 75d0 0e44 f8ce f843
00000010: 10c6 7143 2be4 ac43 8ee6 7e43 6a30 8143
00000020: 33cb dd43 a473 e642 825f 9243 96ee 1243
00000030: 5814 2043 9511 8c41 d877 0343 a1f9 9043
00000040: 9778 9d43 818e bf43 9afd cd42 6d3f c841
00000050: 3443 dc43 fbcb e143 86db ba43 2110 3d43
00000060: 6657 dd43 6eba e641 74e7 4743 a5be a143
00000070: 30c0 1443 4517 b042 d142 a043 28c3 6e43
00000080: f1bf c942 2e92 8642 f2d6 9943 0090 af43
00000090: 6093 3943 a8c1 7143 112a 9543 2898 5a43
000000a0: 154d 5243 bf7d 6f43 eca8 1844 4d08 cb42
000000b0: 7d5d bb43 c2e3 a043 b13f 4443 abcc 9843
000000c0: b1c2 7b42 5adb 0b44 1362 f143 b943 b143
000000d0: 63eb 2d43 583d a242 82a0 7843 b0f6 2143
000000e0: 3f2f 3743 6413 d043 2f95 9842 3e1c 3643
000000f0: 87fc 4743 f44d bd43 6be3 6743 89eb dd41
00000100: 1207 f342 5237 7b43 1756 1e42 b70b 0144
00000110: 6f3d 2942 8d56 1344 e1ff 6e43 b491 4c42
00000120: 6641 5e43 bfde 9240 335c 9a43 37c2 9043
00000130: 76fc cf42 7617 7543 c5eb 1c43 9468 e143
00000140: b8a6 2444 d496 1243 b437 a341 2604 7142
00000150: 7393 e742 b971 bb42 0e08 fc41 58b9 d343
00000160: 310c 8743 9369 8443 1265 ee42 f256 7e42
00000170: aaa5 ae43 028d 3a43 504a 2743 fc51 6a41
00000180: fac4 7c42 72b9 f642 b026 4f43 b415 1643

normised.running_var f4 [100]
1.3305074e+06 123337.0 1.831468e+06 1.8468239e+06 353499.88 856782.0 478680.1 459960.72
1.4451936e+06 99084.08 582548.75 211157.81 221939.86 2374.1636 161592.6 578444.8
535753.44 1.1068604e+06 94750.05 6315.0415 1.2349741e+06 1.267518e+06 1.1495505e+06 247185.72
1.2306298e+06 8346.445 269450.84 688037.2 136554.86 53052.754 746521.0 527280.25
85787.01 41721.027 689257.56 707314.0 354768.66 372622.7 639893.1 308718.7
397855.75 352539.66 2.1532795e+06 102752.52 965431.25 1.0522269e+06 382057.94 628008.2
29583.186 2.0703529e+06 1.730635e+06 843508.94 312714.56 56143.152 568363.25 202577.92
241135.28 1.3248442e+06 47466.7 201588.22 320074.97 939572.44 421531.9 8028.9985
112395.305 421000.1 11410.028 2.267506e+06 12271.309 2.4938685e+06 388382.22 29075.852
340718.6 323.78403 909616.3 562641.5 91623.05 419679.06 240806.66 1.5782402e+06
2.3441818e+06 181833.6 3661.2031 29608.82 118782.51 77294.97 9810.094 1.2009224e+06
515789.38 497819.3 97419.34 44058.746 825937.0 248540.7 319759.0 2073.4387
38619.562 192921.58 414140.3 163403.67
00000000: 5b6a a249 80e4 f047 6091 df49 3f71 e149
00000010: 7c9b ac48 e02c 5149 03bb e948 1797 e048
00000020: 4d6a b049 0a86 c147 4c39 0e49 7435 4e48
00000030: f7bc 5848 9e62 1445 26ce 1d48 cd38 0d49
00000040: 97cc 0249 631d 8749 060f b947 5558 c545
00000050: f1c0 9649 f0b9 9a49 7453 8c49 6e64 7148
00000060: 2e39 9649 c869 0246 5b91 8348 53fa 2749
00000070: b75a 0548 c13c 4f47 9041 3649 04bb 0049
00000080: 818d a747 07f9 2247 9946 2849 20af 2c49
00000090: 153a ad48 d6f1 b548 5239 1c49 d6bd 9648
000000a0: f843 c248 7523 ac48 fe6c 034a 43b0 c847
000000b0: 74b3 6b49 1772 8049 3e8d ba48 8352 1949
000000c0: 5f1e e746 87ba fc49 5842 d349 4fef 4d49
000000d0: 52b1 9848 274f 5b47 b4c2 0a49 7bd4 4548
000000e0: d27b 6b48 62b9 a149 b36a 3947 0edd 4448
000000f0: 5f49 9c48 4763 6549 7dd3 cd48 fde7 fa45
00000100: a785 db47 0391 cd48 1d48 3246 c865 0a4a
00000110: 3cbd 3f46 b236 184a c7a3 bd48 b427 e346
00000120: d35d a648 5be4 a143 0513 5e49 185d 0949
00000130: 86f3 b247 e2eb cc48 aa29 6b48 02a8 c049
00000140: d713 0f4a 6692 3148 40d3 6445 a451 e746
00000150: 41ff e747 7cf7 9647 6048 1946 d398 9249
00000160: acd9 fb48 6a13 f348 ac45 be47 bf1a 2c47
00000170: 10a5 4949 2db7 7248 e021 9c48 0597 0145
00000180: 90db 1647 6566 3c48 8a37 ca48 eb92 1f48

output.0.weight f4 [10, 100]
0.14069703 0.14072578 -0.5073897 -0.43852696 0.19592021 -0.44710195 0.29653186 0.1485312
-0.5701315 0.23130724 -0.62938815 -0.26921412 -0.4866574 -0.52650726 -0.76758116 0.15679665
0.22565982 -0.57520485 0.22705807 -0.5630801 0.16515401 0.20317054 -0.5392367 0.31051856
0.19549401 0.16876674 -0.456246 -0.44712865 0.16887608 0.2041454 -0.5660626 -0.45959425
-0.56712973 -0.48947525 -0.52950054 0.2144048 -0.47311303 -0.36261228 0.27885258 0.18963943
-0.49750936 0.2734816 0.17999855 -0.4877431 0.19944286 -0.4354899 -0.48504904 0.24027891
-0.6835464 0.25549635 0.17657316 0.22788195 0.13339545 -0.48424295 -0.41217396 -0.7409672
-0.573643 0.2609549 -0.49871007 -0.6116728 0.28195575 0.17984745 -0.58978176 -0.5730332
-0.45993558 -0.33300436 -0.48074338 -0.57803875 -0.5641851 -0.574031 0.38375047 -0.714138
-0.47079423 -0.3077028 -0.38557863 0.12359083 -0.49783617 -0.4239416 -0.5110587 -0.55961514
-0.584529 -0.43993387 -0.5805847 -0.5812682 -0.61509794 -0.46107104 0.0976328 0.18850069
0.27198833 -0.42133683 0.15557526 -0.66811347 0.14846636 -0.40757325 0.13452254 -0.5017188
0.27031934 -0.398843 -0.5869576 0.17233807 -0.70590085 -0.595992 0.15625931 0.25124538
-0.5801936 0.19816184 -0.5338224 -0.4576765 0.25062275 -0.5774857 -0.5201511 0.33368465
-0.5074247 -0.47157362 -0.61683804 -0.53924423 -0.7078692 0.12622792 -0.44467652 -0.69742054
-0.3493001 0.1589496 -0.5637028 -0.56575507 0.2781093 -0.429571 0.2656851 0.14272006
0.2268741 -0.41575545 0.18023694 -0.6856638 -0.70233685 -0.5583722 -0.53536725 -0.61500156
-0.6119077 0.33416432 -0.6818256 -0.5367227 -0.631874 0.3798417 0.1690078 -0.37173465
-0.44487882 0.1931664 -0.7640532 -0.28862008 -0.5665885 -0.35590082 0.24763043 0.2729451
-0.64631665 0.21122198 0.2216684 -0.69052285 -0.69925153 -0.4600323 -0.4980487 0.2086329
-0.5339444 -0.6651511 -0.50423336 -0.66339934 0.33141494 0.3222937 -0.38698876 -0.6249859
-0.60187674 0.1530615 -0.41754344 -0.7123974 0.34887376 -0.35376185 -0.6501239 -0.54421186
-0.5229446 0.2939202 0.25418562 -0.36942524 -0.65769446 0.26247248 -0.72097015 -0.56801623
-0.55701256 -0.5051829 0.41675133 -0.4306073 0.34596992 0.27711025 -0.30263683 -0.6004233
0.23136915 0.33338845 -0.42523572 -0.6968074 -0.4856071 -0.7401541 -0.4676429 -0.61268795
0.09500392 -0.53942454 0.14925532 -0.5149652 -0.31531355 -0.47100556 -0.44344512 0.18511619
-0.49421868 -0.6063816 0.12076552 -0.54253924 -0.6456201 -0.229545 0.2542702 -0.4433049
0.23062034 -0.3891533 -0.4168086 -0.31684035 0.20157547 0.1300604 -0.38346347 -0.5566602
-0.40417165 -0.30129305 -0.54462105 0.1718976 -0.41759223 0.16301799 0.07470427 0.1791151
-0.4752182 -0.49430874 0.079108834 -0.59160715 0.14837302 0.24554744 -0.29304975 -0.43263528
0.21248992 -0.41483346 -0.42992404 -0.3851417 -0.5000199 0.16203216 0.23555991 -0.4557102
0.107810415 -0.6703202 0.20139503 -0.61866677 0.1198165 -0.43399265 -0.32861656 -0.60434735
00000000: e212 103e 6b1a 103e 4be4 01bf 9b86 e0be
00000010: 4f9f 483e 8cea e4be 06d3 973e 9018 183e
00000020: 23f4 11bf cedb 6c3e 951f 21bf 6fd6 89be
00000030: 292b f9be 2ec9 06bf 3380 44bf 4d8f 203e
00000040: 5e13 673e a040 13bf e981 683e 0426 10bf
00000050: 221e 293e f00b 503e 6b0b 0abf 4afc 9e3e
00000060: 952f 483e 30d1 2c3e 1399 e9be 0cee e4be
00000070: daed 2c3e 7e0b 513e 7be9 10bf f04f ebbe
00000080: 6a2f 11bf 809c fabe 598d 07bf ef8c 5b3e
00000090: df3b f2be 51a8 b9be c4c5 8e3e d730 423e
000000a0: 8cb9 febe c805 8c3e 8a51 383e 77b9 f9be
000000b0: c03a 4c3e 88f8 debe 5958 f8be ad0b 763e
000000c0: e6fc 2ebf 6bd0 823e 98cf 343e e359 693e
000000d0: d198 083e b1ee f7be 7708 d3be 07b0 3dbf
000000e0: 45da 12bf e19b 853e ed56 ffbe 9796 1cbf
000000f0: 815c 903e ee29 383e f0fb 16bf 4eb2 12bf
00000100: ad7c ebbe 8c7f aabe ff23 f6be 59fa 13bf
00000110: 6f6e 10bf b2f3 12bf f17a c43e bfd1 36bf
00000120: f10b f1be 398b 9dbe 906a c5be 301d fd3d
00000130: 62e4 febe e00e d9be bed4 02bf f042 0fbf
00000140: b1a3 15bf 033f e1be 33a1 14bf fecd 14bf
00000150: 0f77 1dbf 8111 ecbe b5f3 c73d 5306 413e
00000160: 0e42 8b3e 76b9 d7be 1f4f 1f3e 7c09 2bbf
00000170: 9107 183e 71ad d0be 47c0 093e a570 00bf
00000180: 4c67 8a3e 2635 ccbe da42 16bf 6479 303e
00000190: ebb5 34bf ef92 18bf 7102 203e 3ca3 803e
000001a0: 9187 14bf f0ea 4a3e 96a8 08bf 9354 eabe
000001b0: a051 803e 1ad6 13bf 9f28 05bf b7d8 aa3e
000001c0: 96e6 01bf 1972 f1be 19e9 1dbf e90b 0abf
000001d0: ea36 35bf e441 013e a4ac e3be 278a 32bf
000001e0: 76d7 b2be afc3 223e d44e 10bf 53d5 10bf
000001f0: 5864 8e3e bbf0 dbbe e107 883e 3525 123e
00000200: af51 683e e6dd d4be 0890 383e aa87 2fbf
00000210: 59cc 33bf 7bf1 0ebf d40d 09bf be70 1dbf
00000220: fca5 1cbf 9617 ab3e 1f8c 2ebf a966 09bf
00000230: 7fc2 21bf 9c7a c23e 6110 2d3e 0154 bebe
00000240: 28c7 e3be 6acd 453e fe98 43bf 03c6 93be
00000250: f20b 11bf a238 b6be d592 7d3e 76bf 8b3e
00000260: 0275 25bf 934a 583e 0bfd 623e 1bc6 30bf
00000270: 2602 33bf 5b89 ebbe 3d00 ffbe dda3 553e
00000280: 95b0 08bf 5847 2abf 7015 01bf 8ad4 29bf
00000290: 38af a93e ae03 a53e 6423 c6be 13ff 1fbf
000002a0: 9814 1abf 27bc 1c3e 41c8 d5be ad5f 36bf
000002b0: 959f b23e 4620 b5be 856e 26bf 7851 0bbf
000002c0: b3df 05bf b57c 963e 9e24 823e 4e25 bdbe
000002d0: aa5e 28bf cb62 863e 8091 38bf 8369 11bf
000002e0: 6098 0ebf ab53 01bf 6e60 d53e 8f78 dcbe
000002f0: f822 b13e 65e1 8d3e 37f3 9abe 57b5 19bf
00000300: 09ec 6c3e e4b1 aa3e 7fb8 d9be f861 32bf
00000310: 7ea1 f8be bd7a 3dbf e46e efbe 1ed9 1cbf
00000320: 6a91 c23d ba17 0abf 63d6 183e c2d4 03bf
00000330: c770 a1be a427 f1be 3d0b e3be 198f 3d3e
00000340: 3b0a fdbe d33b 1bbf ea53 f73d dae3 0abf
00000350: 5c47 25bf d80d 6bbe b42f 823e dcf8 e2be
00000360: bd27 6c3e 1a3f c7be f067 d5be e638 a2be
00000370: cd69 4e3e 8e2e 053e 5355 c4be 4881 0ebf
00000380: 96ef cebe 1543 9abe 496c 0bbf ed05 303e
00000390: a6ce d5be 30ee 263e 8dfe 983d f369 373e
000003a0: cd4f f3be 0916 fdbe d003 a23d 9173 17bf
000003b0: 19ef 173e ca70 7b3e 9e0a 96be 5f82 ddbe
000003c0: f596 593e 0d65 d4be 011f dcbe 4b31 c5be
000003d0: 4e01 00bf c2eb 253e 9e36 713e d952 e9be
000003e0: b5cb dc3d 1b9a 2bbf 803a 4e3e f260 1ebf
000003f0: 5a62 f53d 4934 debe 6e40 a8be 82b6 1abf

output.0.bias f4 [10]
-0.40128493 -0.5193102 -0.030742152 -0.17370975 -0.080983944 -3.5379102 -1.4635383 -0.07655429
-2.1637316 0.34708902
00000000: 3875 cdbe 83f1 04bf f7d6 fbbc f8e0 31be
00000010: e9da a5bd 1f6d 62c0 3955 bbbf 7fc8 9cbd
00000020: 947a 0ac0 a7b5 b13e
