General/Code/FCN-ADAM-lr:0.001-acc:87.27.pth (torch, 401615 bytes, 8 tensors)

hidden1.0.weight f4 [100, 784]
000000 76 de c8 3c 63 bd 0d 3d 10 b7 9f bc 38 a5 cd 3c
       0.02452014 0.03460444 -0.01949647 0.025103197
000010 b0 96 85 3b ed dc 0a bd 7a db 0f bd 92 b4 af 3c
       0.0040768012 -0.033902097 -0.03512142 0.021448407
000020 58 2b 45 3c b8 46 b7 3b cc f2 fc bc 63 4c 95 bc
       0.01203426 0.005593147 -0.030877493 -0.0182249
000030 ea 19 37 bc e0 07 fc 3a ae 02 a6 bc 41 9d e4 bc
       -0.011175612 0.0019228421 -0.02026495 -0.027907016
000040 b8 c3 2a 3c 98 9c ce bc ea ef 93 bc 9e 4a 8f 3c
       0.01042264 -0.025221154 -0.018058736 0.017491635
000050 0e 32 ce bc 15 c6 da bc 1c ea 51 3c 28 d1 c9 3c
       -0.025170352 -0.026705781 0.012812164 0.024635866
000060 88 5f e6 3b f8 ca 30 3c fb 3a 02 3d 70 c7 66 3b
       0.007030431 0.010790579 0.03179453 0.003521409
000070 1a e2 98 bc 73 e7 bf bc 3c 28 65 bc b5 71 a1 bc
       -0.018662501 -0.023425793 -0.013986643 -0.01970754
000080 72 52 05 bc 70 73 d2 bb 00 51 ca 3c 74 74 64 3c
       -0.008137332 -0.0064224526 0.024696827 0.01394378
000090 5f 2f 0c bd c0 41 3e bd 96 8a 8c bd 3e bb 9e 3d
       -0.034224864 -0.046449423 -0.06862371 0.07750557
0000a0 2c 26 89 3d 4c 8a c2 3d c0 c7 7c bd 77 81 3a bd
       0.06696734 0.09499034 -0.061713934 -0.045533624
0000b0 c9 ac 07 be c6 59 ea bd c0 08 06 3c 00 39 c0 3a
       -0.13249506 -0.11442904 0.008180797 0.0014665425
0000c0 08 47 fc bb a4 9f 0c bd 72 a4 d9 3c 6a 3b ab 3c
       -0.0076988973 -0.034331933 0.026567671 0.020902354
0000d0 ae d7 c0 bc c0 c5 d9 3b fc e3 87 3c 5f bc 04 3d
       -0.023540344 0.006645888 0.016588204 0.032406207
0000e0 dc a3 05 bd ee 3f ed bc 23 0a a3 bc 2f 82 df 3e
       -0.03262697 -0.028961148 -0.019902295 0.4365401
0000f0 74 b3 01 3f ef 26 bb bc 0f e4 e7 bb dc 73 93 3e
       0.5066445 -0.022845713 -0.0070767472 0.2879933
000100 14 4a 89 3d f7 b7 b5 be bd 8b fa be cf 61 41 be
       0.067035824 -0.35491917 -0.48934737 -0.18884967
000110 ef 04 3c bc b3 5d 72 be 80 0a e1 be cf 94 54 bf
       -0.011475786 -0.23668556 -0.43953323 -0.83039564
000120 cd f2 34 bf 15 8f 52 bf e6 ec 70 bf a0 57 82 be
       -0.70682985 -0.82249576 -0.9411148 -0.25457478
000130 2e ac 51 bf 17 61 d8 be b7 2e 15 be ee 0d a9 bd
       -0.8190335 -0.42261574 -0.14568602 -0.0825461
000140 f4 fe 26 bd be 44 98 3c 93 2e 0b bd 40 46 4f bc
       -0.040770486 0.018587466 -0.033979964 -0.012651026
000150 4a 6c ee 3c 18 1f 6d 3c e6 d8 f8 3c d8 b1 d4 3e
       0.02910437 0.014472745 0.030376863 0.41541934
000160 c8 90 cd 3e bd fb 1b 3e a9 a5 a5 be 3f ff 70 be
       0.40149522 0.1523275 -0.3235295 -0.23534869
000170 7c 0e 08 bf c3 c3 5e bf b2 87 11 bf 9c fe 27 bf
       -0.531471 -0.8701746 -0.5684768 -0.6562288
000180 74 3e 91 be a9 2b 16 be 2b d0 a2 3d 74 37 8d bd
       -0.2836796 -0.14665093 0.07949861 -0.068953425
000190 6f 9f 86 3e dd 5e 70 be 67 4a 2c bf e6 db c6 be
       0.26293513 -0.23473687 -0.6730103 -0.38839644
0001a0 a1 9e 40 be 14 8e 15 bf 26 9a 40 bf 59 2d 4b be
       -0.18810512 -0.5841992 -0.7523521 -0.19841518
0001b0 9a 16 c4 3c 2d 5b 3d 3e 73 4e 01 3c d7 7e 98 bc
       0.023936559 0.18491812 0.007892239 -0.01861517
0001c0 52 f9 35 bc 73 f2 fc bc 9b 6d d5 bc 81 eb dd 3c
       -0.011106806 -0.030877328 -0.02605324 0.027089836
0001d0 73 e8 2e bd a8 7a 85 be 72 3d 0a bf f9 bb d7 be
       -0.04270215 -0.26070142 -0.5400001 -0.421356
0001e0 62 50 8c 3d a9 73 8f bc 42 80 f1 be 01 6a 0c 3e
       0.06851269 -0.017511206 -0.47168165 0.13712312
0001f0 5f 8f 79 be 34 03 71 3e 39 8b ef bd 40 df 7e be
       -0.24371098 0.23536378 -0.116964765 -0.2488985
000200 a0 b4 47 be f3 01 46 be 7e 2e b0 bd fd a7 12 be
       -0.19502497 -0.19336681 -0.08602618 -0.14321895
000210 5e 82 41 be 72 e4 07 bd d9 17 96 3e 71 23 15 3d
       -0.18897387 -0.033176847 0.2931507 0.036410753
000220 a3 6a 3c be 81 82 bf be 0d c9 2d bd 66 06 db 3c
       -0.18400054 -0.37404254 -0.042428065 0.02673645
000230 db 75 06 3d 00 98 0d b9 a4 e2 29 be 38 09 9b 3e
       0.03282724 -0.00013503432 -0.16590363 0.3028047
000240 44 c2 76 3d 73 34 35 bf 3d fb 08 bf 0d b9 41 be
       0.06024386 -0.70783156 -0.5350836 -0.18918248
000250 dc 64 03 3d 31 bf 1f be fc 0e a7 be 9a e6 6f be
       0.03207861 -0.15600277 -0.3262862 -0.23427811
000260 6c da ee bd 8b 7f 56 3d 2b 2b 55 3e 2c 70 72 be
       -0.116627544 0.05236773 0.20817249 -0.23675603
000270 08 8d 67 3a 8b a9 3c bc 88 99 2b 3c 54 c2 38 3e
       0.0008832966 -0.011515032 0.010473616 0.1804288
000280 5e e1 fc 3d a9 8a 02 bd a0 aa c2 3e 54 a6 a0 bd
       0.12347673 -0.031870518 0.38020802 -0.078442246
000290 11 c3 74 be ad 49 41 bf 62 e4 3d bf f2 c9 12 bf
       -0.23902537 -0.75503045 -0.7417661 -0.57339394
0002a0 42 db 98 3c c4 86 85 3c cf 47 5e be a0 49 8c be
       0.018659238 0.016299613 -0.2170708 -0.2739992
0002b0 83 f0 58 3d 70 94 98 be 95 e2 50 bd 07 aa 89 3d
       0.052963745 -0.2980075 -0.050997335 0.06721883
0002c0 01 9f e0 bd 3a a4 0f bf 43 99 6e be 1f 95 04 be
       -0.109678276 -0.56109965 -0.23300652 -0.1294751
0002d0 a8 2a 0f bd ba 8c 9e 3e e5 dc 20 3e a4 66 98 bc
       -0.03495279 0.3096674 0.15709265 -0.01860363
0002e0 a1 89 3b be aa 85 c0 3c 18 ab 73 3e 65 6a a2 3d
       -0.1831422 0.023501236 0.23795736 0.079304494
0002f0 a0 b4 43 be fc ff 9e 3c a5 b1 25 3f 08 dd 06 3e
       -0.19111872 0.019409172 0.6472419 0.13170254
000300 7c 2d d1 be 90 f2 c1 bf 9d 29 68 bf 96 3c 9d be
       -0.40855014 -1.5152149 -0.90688497 -0.30710286
000310 48 9d b6 bc 61 8b 8a 3a 32 65 92 be dd 38 41 3c
       -0.022291794 0.0010570103 -0.2859283 0.011793342
000320 aa d0 1d bf 1c b8 c7 be 43 6d 8a 3e ae 89 87 3e
       -0.6164652 -0.39007652 0.27036485 0.2647223
000330 c1 5f 9b be 5e da 8f bd 1b ef 39 3e ab bd 5a 3d
       -0.30346492 -0.07024072 0.18157618 0.053403538
000340 ed 5b 80 be 02 9c 23 be 1d 48 b5 be 33 39 25 be
       -0.25070134 -0.15977481 -0.3540658 -0.16135101
000350 95 2f e3 bd 2d 3b 95 3e e8 e5 fb 3e d7 71 0c 3f
       -0.1109306 0.2914671 0.49198842 0.54861206
000360 67 12 11 be 20 37 39 be 3a 97 cf bd 7e 74 4e 3d
       -0.14167176 -0.18087435 -0.10136266 0.050404064
000370 10 11 ad bd f6 a3 64 bf f3 ca a2 bf ce fc d1 3e
       -0.0845052 -0.89312685 -1.2718185 0.41013187
000380 50 42 4d bb 2b c6 62 bd 7c 8d eb 3e 78 b3 ba 3e
       -0.0031320043 -0.05536477 0.46006382 0.3646505
000390 e6 93 2d bf fd 1b f6 be 04 16 a2 3e c3 4d 07 3e
       -0.678038 -0.48068228 0.31657422 0.13213257
0003a0 f2 08 cc bd c3 a9 1e be 45 ca 6d bd cf e3 e6 be
       -0.09962644 -0.15494446 -0.058054227 -0.4509568
0003b0 b8 5f 63 3c 17 04 46 bd a6 b9 eb 3e 4c b0 d4 3e
       0.013877802 -0.048343744 0.46040076 0.41540754
0003c0 9e fa b3 3e 97 3f b9 3d e3 f8 a8 3e de 73 81 3e
       0.35152143 0.09045332 0.33002385 0.25283712
0003d0 f6 dc b5 3d b1 72 f4 bc ba 03 01 3e a6 3b 7d 3e
       0.088800356 -0.029839845 0.12599078 0.24729785
0003e0 be 9f 8e bd 5e 52 34 bf 6b 22 78 bf 62 05 2a bd
       -0.06964062 -0.7043818 -0.9692752 -0.04150904
0003f0 9a 66 a4 3c 7b fb 2e 3b db 77 2d 3f b0 22 6a be
       0.020068455 0.0026700187 0.6776101 -0.22864795

hidden1.0.bias f4 [100]
000000 78 4a 24 bf b9 8b 5d bf d6 83 ca bd 51 77 9d be
       -0.6417613 -0.86541325 -0.09888427 -0.30755094
000010 6f d8 33 bb 6b 29 36 3d 95 68 3e bf 04 43 00 bf
       -0.0027442237 0.044473093 -0.7437833 -0.5010226
000020 c7 69 f3 be 2a 0e 7c 3f c8 6a 19 bc d7 e0 3f bd
       -0.4754164 0.9845911 -0.009363838 -0.046845283
000030 24 03 32 3f dc 03 9a 3e 1d c8 27 3e 1e b0 7d 3f
       0.6953604 0.3008107 0.16384931 0.9909686
000040 08 d5 e3 be 6f 19 02 bd 44 80 27 bf 4a 90 c8 3b
       -0.44498467 -0.031762537 -0.6543009 0.006120716
000050 ff 2c 2e bd a5 32 10 bd b0 94 03 be 7d 0e 3a be
       -0.04252338 -0.03520455 -0.12849689 -0.1816959
000060 d0 4e d5 be 7b 23 0a 3f 93 2b d7 bc 1c e9 fb bc
       -0.41661692 0.5396039 -0.026265895 -0.030750804
000070 7f 49 7a be 52 1b 4e bf 37 60 08 3e 4e 38 f3 be
       -0.24442099 -0.8051044 0.13317953 -0.47503895
000080 84 b8 61 be 1a f4 81 3e c2 db 31 bf 56 bd 6f bd
       -0.22043043 0.25381547 -0.6947595 -0.058530174
000090 59 c5 91 bd 2f 35 15 bf 68 27 65 bc 40 c3 00 be
       -0.07117719 -0.58284277 -0.013986446 -0.12574482
0000a0 63 b9 53 be 60 e1 f9 bd 6b 0f e0 be 17 42 00 3f
       -0.20676188 -0.1220119 -0.43761763 0.50100845
0000b0 0b 62 0c be 83 4e 91 bc 87 4a 88 bf 89 4b 54 be
       -0.13709275 -0.017737633 -1.0647744 -0.2073194
0000c0 10 99 7a bf 14 df 8e 3e 61 4e 86 bf 40 4a 22 be
       -0.97889805 0.2790457 -1.0492669 -0.15848637
0000d0 83 39 02 bf 03 7b 56 bf 6c 48 ad bf fc f3 06 bc
       -0.50869006 -0.8378145 -1.3537726 -0.008236881
0000e0 e5 f9 58 3f 98 d0 ca be f7 7f a5 3e 4a 79 b3 3e
       0.8475631 -0.3961227 0.32324192 0.35053474
0000f0 01 28 66 bf 81 82 73 bd a2 0e 80 3e 6a 35 91 3e
       -0.8990479 -0.05945063 0.25011164 0.28361064
000100 6b 75 8f bf 6f 69 d0 be 21 be af 3e 17 94 76 be
       -1.1207708 -0.4070544 0.34324744 -0.2407993
000110 58 ee 36 3e a9 24 da 3e e2 8a cb bd 21 24 92 bf
       0.17864358 0.42606094 -0.09938599 -1.1417276
000120 ee a4 e0 bc 54 53 c6 3e 57 8e 82 3e 8e 20 bc 3b
       -0.027422395 0.3873545 0.25499222 0.0057411855
000130 39 ab d4 be b7 30 97 bd 71 5e 4f bf 8e 98 2e bf
       -0.41536883 -0.073823385 -0.8100348 -0.6820153
000140 25 9c c9 bd 5b 60 51 be eb 4b 89 3b 65 7b da be
       -0.09844235 -0.20446913 0.0041899583 -0.42672268
000150 82 76 98 bf 86 cb 00 3f 33 84 0b bd 6b ca e1 3e
       -1.1911166 0.5031055 -0.034061622 0.44099745
000160 c7 78 5d be c0 00 a6 bf 55 1b 73 bf d0 b6 13 3f
       -0.21628104 -1.2968979 -0.9496358 0.57700825
000170 15 b6 0e bd 05 ed ca be bc 2f 4d bc e7 ee 68 3e
       -0.034841616 -0.39633957 -0.012523588 0.22747384
000180 14 9a 47 bf c6 5d 4c bf 6d f2 2f bf 0e da 93 3e
       -0.7796948 -0.79830587 -0.6872929 0.288773

hidden2.0.weight f4 [100, 100]
000000 19 5e ab be 98 ae a6 bf fd 86 2d 3d cb 43 02 bf
       -0.33470228 -1.3022032 0.042365063 -0.50884694
000010 fe e1 7d 3d ac c5 54 3e 59 2b 8f 3c cf d4 93 be
       0.0619831 0.20778531 0.017476724 -0.28873298
000020 d1 8e 24 bf 76 d7 ea be 65 7a 10 3e 46 32 82 bd
       -0.6428042 -0.4586751 0.1410919 -0.06357245
000030 bc bf 30 bf 2e 0e 68 be e0 9b 50 bf a2 78 ec be
       -0.69042563 -0.22661659 -0.81487846 -0.46185786
000040 5f 5b 82 3e 81 28 b3 bd b7 85 e1 be f1 c5 98 bd
       0.25460336 -0.0874796 -0.4404733 -0.07459629
000050 50 df c3 3d 50 11 95 3c 76 59 30 bf 5c 23 fb 3d
       0.09564078 0.018196732 -0.68886507 0.12262604
000060 79 c0 72 be 53 76 91 3d c6 a5 6a bc e1 c9 49 3d
       -0.23706235 0.07102647 -0.01432175 0.049264792
000070 72 67 56 bd da 63 54 be d2 d0 35 3e c8 be a5 be
       -0.052344747 -0.20741215 0.1775544 -0.32372117
000080 d4 62 78 3e f3 f3 44 be 3e af 53 be dc 4d 26 bd
       0.2425645 -0.19233684 -0.20672318 -0.040601596
000090 5b 84 ee bc 90 6e 81 bd 0d 9f c7 be 3e 17 3e 3e
       -0.029115846 -0.06319916 -0.38988534 0.18563554
0000a0 8d 5b 51 3d 9d c9 9a 3e c1 2c d4 be 31 f8 fa 3d
       0.0511127 0.30231944 -0.41440395 0.1225437
0000b0 5c 69 16 bf c8 8f 04 3c 28 5a 6a bf a1 f7 04 bf
       -0.58754516 0.008090921 -0.9154382 -0.5194035
0000c0 02 e3 2b be 04 08 6f bf ad a9 5e bd 20 7b 23 3e
       -0.16785815 -0.93371606 -0.054361034 0.15964937
0000d0 81 bd 06 bf 8d ea 62 be d0 31 1c bf 58 0e 5c 3d
       -0.5263291 -0.22159787 -0.6101351 0.053724617
0000e0 27 fa 3b bf aa 40 15 bf ed 88 10 bf e6 64 b6 3e
       -0.7342858 -0.58301795 -0.5645893 0.35623854
0000f0 62 4c 68 be bc 84 99 3d dc 83 24 3e 4b 4c 3c bf
       -0.22685388 0.0749602 0.16065925 -0.73553914
000100 f2 29 aa be 43 6c 37 be fd 0d 41 bf 67 b7 10 3d
       -0.33235127 -0.17912392 -0.7541197 0.035331156
000110 f6 5b 14 bf 52 96 0d bf 51 89 5a bf da d5 72 3d
       -0.5795282 -0.55307496 -0.8536578 0.059285976
000120 5b 0e b7 bc 2e 15 ec 3d f9 82 68 bb e4 7b 43 3d
       -0.022345712 0.11527477 -0.0035478456 0.047725573
000130 e0 57 f5 3c 0b 19 f6 3d 96 0a e7 be 29 3d a2 be
       0.029949129 0.12016495 -0.45125264 -0.31687286
000140 d6 44 24 bf 2c ac ab 3d 2b 64 8b 3e c6 24 b1 be
       -0.64167535 0.083824486 0.2722486 -0.34598368
000150 5e f7 03 be 2c 94 56 3e a0 ce d9 3b dd f1 ae bf
       -0.12887332 0.2095496 0.006646946 -1.3667561
000160 fe 9b b9 3e 3f 99 c3 be 73 96 2d bf c5 c2 9b bf
       0.36251825 -0.38202855 -0.6780769 -1.2168814
000170 3c 65 17 bf bd 2f 8d be 10 2f c3 bc 98 74 f6 bd
       -0.59138846 -0.27575484 -0.023826152 -0.12033957
000180 98 cd 26 3e f0 63 36 bd ee bc cd be 79 db 92 3e
       0.16289365 -0.0445289 -0.40183204 0.2868307
000190 cf f1 a3 3e 43 a4 46 3d d4 f5 69 3c 43 ab 5c be
       0.32020423 0.048496496 0.014279801 -0.21549706
0001a0 c7 55 d5 3c de 7f 80 be 1c 01 08 bf 73 ad fc 3a
       0.026041878 -0.25097555 -0.5312669 0.0019277766
0001b0 4c f6 d7 3c 7e c9 11 bf 62 f2 ce be 7d 83 29 bc
       0.02636256 -0.5694808 -0.40419298 -0.010346291
0001c0 58 9c 35 bf ab 4f 7c 3e 29 ef d3 be 5f a9 34 be
       -0.70941687 0.24639766 -0.41393402 -0.17642735
0001d0 c7 78 c0 be 51 da b5 bc 2f a8 c4 3c af a0 d4 3c
       -0.37592146 -0.022198828 0.024005977 0.025955526
0001e0 6b 02 94 bd 2b 31 d1 3c 2c 8f 7a 3e 35 5d 01 be
       -0.07227024 0.02553614 0.24468678 -0.12633212
0001f0 75 04 9f be b2 3e c0 3d 62 89 09 3d e0 74 89 bd
       -0.31058088 0.09386958 0.033578284 -0.06711745
000200 54 e9 5d 3e 03 71 02 be 28 ce af bd 61 c9 2d be
       0.21671039 -0.12738423 -0.08584243 -0.16971351
000210 4e 9c cd be ce 59 f3 bc 18 5e ab 3d c2 72 ac 3d
       -0.40158314 -0.029705908 0.08367556 0.08420326
000220 75 08 99 3c 5c 62 07 be 12 ca f5 be 42 f0 08 3c
       0.01868079 -0.13221115 -0.4800573 0.008358063
000230 ff 6d 1f 3e be b7 c1 be 58 0a ca be a3 20 4a bf
       0.15569304 -0.37835497 -0.39461017 -0.7895605
000240 b2 d6 05 bf 1d 56 0f 3e 9b 45 3a bc ee 77 a4 bd
       -0.52280724 0.13997693 -0.011369134 -0.08030687
000250 47 37 0f be 12 1b ea be 26 2a a4 3d 92 69 37 be
       -0.1398593 -0.45723778 0.08015852 -0.17911366
000260 4d d5 b6 be f3 32 ef be eb d0 b9 3d 9f 2a be bd
       -0.3570961 -0.4671856 0.09073051 -0.09285473
000270 95 26 db 3d 84 ba 2a 3e 37 38 87 3e 70 85 6b be
       0.10700718 0.16672713 0.26410076 -0.23000121
000280 98 4d 4e 3e 34 6a 6e bd 4b 12 76 3d 76 11 80 3e
       0.20146787 -0.058206752 0.06007604 0.25013322
000290 eb 9c 3c 3e 06 20 99 3d 17 bc f7 be c0 4c 01 3d
       0.18419234 0.07476811 -0.4838569 0.031567335
0002a0 b8 49 d8 3e ca 35 6d bc ce 2a 40 3e ea 9d 7e 3d
       0.42243743 -0.014478156 0.18766329 0.062162317
0002b0 9c cb c7 3d 94 8c 2f 3d 9b 58 91 be 18 8c 27 bc
       0.09755632 0.042858675 -0.28387913 -0.010226272
0002c0 96 bd 58 3c 23 08 63 be 32 18 77 bc 87 d3 3a 3e
       0.013228795 -0.22171073 -0.015081452 0.18244754
0002d0 4d 17 12 bf 4a b5 7b 3d 1c a0 73 be f9 43 a2 be
       -0.57066804 0.061452188 -0.23791546 -0.31692484
0002e0 ec 33 ca 3d 0f b7 a2 ba 5e 46 bf bd 03 c5 8c bf
       0.098731846 -0.0012414175 -0.09339593 -1.0997623
0002f0 83 d9 37 be 7e 07 22 be ae 82 4b 3d e3 03 1e bf
       -0.17954068 -0.1582317 0.049685173 -0.6172468
000300 2b cf 5e 3d 43 27 f4 3d a0 2a b8 3d 00 c2 37 3e
       0.05439679 0.11921551 0.08992505 0.17945099
000310 fe b0 b3 be b5 59 29 be 76 74 3f 3d b8 76 84 bd
       -0.35095972 -0.16538127 0.046741925 -0.06467956
000320 40 d2 a5 be a0 12 fc 3d 27 a8 1a bd 6f 42 f6 3d
       -0.3238697 0.1230824 -0.03775802 0.1202439
000330 2d f4 09 3d 08 a0 25 bf e3 51 52 bd 82 45 f5 be
       0.03368013 -0.64697313 -0.051347625 -0.47904593
000340 07 2b 52 3e f0 00 e0 be fc 65 f0 bd 64 f8 82 bd
       0.20524226 -0.43750715 -0.11738202 -0.06395033
000350 21 f3 9b be 8e ba 24 bf a9 13 35 bf 77 10 b9 be
       -0.3045893 -0.6434716 -0.70733124 -0.36145374
000360 d5 8f 20 be ba bd bc bd b2 8a d3 3d 02 26 a6 bd
       -0.15679868 -0.09215875 0.103291884 -0.08112718
000370 ae 42 28 3d ed 83 97 bd 3e 28 9b bf a1 e1 36 bf
       0.041079216 -0.0739821 -1.2121656 -0.7143803
000380 f2 3e 52 3e 57 59 52 bf b8 f2 a6 bd 8a 86 36 3d
       0.20531824 -0.8216757 -0.08151764 0.0445619
000390 8b 0e 59 bf 35 46 67 3d 1a a0 e4 be 66 13 aa 3e
       -0.84787816 0.05646344 -0.44653398 0.33217925
0003a0 ef 2c 86 be 05 df d1 be 33 d9 3d 3d 25 f7 3e bd
       -0.26206157 -0.40990463 0.046349715 -0.046622414
0003b0 6b da 75 3c ba 37 e0 3d 52 14 ed be fa 67 67 bf
       0.015005688 0.10948129 -0.46304566 -0.9039303
0003c0 a8 82 7e be 61 8c b5 3c 3e ed 98 3d 9a 00 e3 be
       -0.24854529 0.022161664 0.07467125 -0.44336396
0003d0 f2 e4 d0 3c 8e 4b 9f 3c 65 46 25 bd cd bc 71 3d
       0.025499795 0.019445207 -0.040350337 0.059017945
0003e0 fb 89 09 bf a8 d9 53 be 09 d0 dd be 78 46 85 be
       -0.53726166 -0.20688498 -0.4332278 -0.26030326
0003f0 bc d6 c5 3d 22 30 57 bf de ef 69 3e 3a 10 17 3d
       0.09660098 -0.8405782 0.22845408 0.03688071

hidden2.0.bias f4 [100]
000000 1d 05 ff bd 44 4b 28 bf c9 c3 86 bb ea 85 b7 bc
       -0.12452147 -0.65739846 -0.004112695 -0.022402722
000010 3c 84 6d bf 24 72 aa be 3c 38 df bc 6d 81 a1 be
       -0.927799 -0.33290207 -0.027248494 -0.31544057
000020 6e 93 24 bf 5f 22 ce be 04 ae 93 bc 8f b6 4c bf
       -0.6428746 -0.40260598 -0.018027313 -0.7996606
000030 0e 6e 80 bc 46 68 92 bc a2 14 50 be da 2c b9 bc
       -0.015677478 -0.017871987 -0.20320371 -0.022604395
000040 e4 29 47 be bc a5 8c 3b 65 ee a3 be 71 28 9c be
       -0.19449574 0.004292218 -0.32017818 -0.30499604
000050 ee 83 36 bf b9 18 60 bd 85 ea 53 bc 48 d5 51 bf
       -0.7129506 -0.054711077 -0.012934332 -0.81966066
000060 f6 31 7d be e1 16 1b be 42 36 87 be 37 ef ca be
       -0.2472609 -0.15145446 -0.26408583 -0.3963563
000070 71 07 61 bf 00 25 ca be 1f 5f 49 bf 52 23 1b bc
       -0.8790198 -0.39481354 -0.7866077 -0.00946887
000080 ee 33 90 be 52 92 f9 be 33 b2 50 bd 6e ab 0a bf
       -0.2816462 -0.48744446 -0.050951194 -0.5416783
000090 ef 39 29 be 53 bf 1d be 43 d2 a7 be a1 53 0c bf
       -0.16526006 -0.15405016 -0.32777604 -0.5481511
0000a0 70 d3 03 be 2e 6a 94 be 78 84 06 bf 07 e0 b5 bd
       -0.12873626 -0.2898726 -0.5254588 -0.088806204
0000b0 f5 2a 88 bc a8 ea 0d bf 03 f4 2a bf 06 ac dc bc
       -0.016622046 -0.5543618 -0.6677858 -0.026937496
0000c0 e0 7f 3b bf 8a 21 35 3d 34 41 d7 3b 0c 2c b7 be
       -0.73241997 0.04422144 0.006569052 -0.35775793
0000d0 d1 72 de bc e1 68 d4 be c9 87 fa bc 10 9d d0 be
       -0.027154358 -0.41486266 -0.030582326 -0.4074483
0000e0 14 97 d6 be 83 ee a4 be 0a 20 4b bf ac c1 1e bc
       -0.41912138 -0.3221322 -0.7934576 -0.00968973
0000f0 15 d1 1d bf ad 31 b7 be 17 94 a2 be 70 5b 5d bf
       -0.6164716 -0.35780087 -0.3175361 -0.8646765
000100 ff 44 6c bc b9 ad 69 bf 14 49 35 bf 4a 79 cd be
       -0.014420747 -0.91280705 -0.70814633 -0.401316
000110 e4 cb fa bd 65 f4 70 bb 01 67 2e be 49 f8 21 bf
       -0.1224592 -0.0036766764 -0.1703148 -0.6326948
000120 94 36 35 be f3 c2 b2 be 3a e5 04 3d 2d 62 fb be
       -0.17696601 -0.3491436 0.03244517 -0.4909834
000130 bc f9 89 bd 8a 85 9c be ba bc 02 bc 58 d4 36 bf
       -0.06737086 -0.30570632 -0.007979566 -0.7141776
000140 f9 27 db be 18 82 08 bf 2a d5 a9 be 1b 50 20 bd
       -0.42803934 -0.5332351 -0.33170444 -0.039138895
000150 87 84 d4 bc 5e f6 03 bf dd 77 55 bf b7 e3 d7 3b
       -0.0259421 -0.515478 -0.8338602 0.006588425
000160 bb 38 de be 66 12 1b bf 35 93 a3 be 05 70 8f 3a
       -0.43402657 -0.6057495 -0.31948248 0.0010943419
000170 29 12 ba be 03 df 2c bf 7d 6f d0 be 94 30 57 bb
       -0.3634198 -0.6752779 -0.4071006 -0.0032835351
000180 ef fd 3f bf 8c 96 70 be 82 11 c9 b9 46 08 55 bf
       -0.74996847 -0.23494929 -0.00038350752 -0.8321575

hidden3.0.weight f4 [100, 100]
000000 48 57 1e be 62 83 a1 3c 23 af 03 bf 48 2c 01 bc
       -0.15462983 0.019715969 -0.5143911 -0.007884093
000010 aa 42 79 3e ad 07 cd 3c 5b 3b 03 bf a9 6a cb bd
       0.24341837 0.025028074 -0.51262444 -0.09932453
000020 ca 53 22 be e8 eb 71 3e 0d eb 09 bd 9b dd 4c be
       -0.15852275 0.23625147 -0.033671428 -0.20006411
000030 51 6f cf bd b7 4a 05 bf d9 28 fa be 3c 33 3c 3c
       -0.10128654 -0.5206713 -0.4885929 0.011486825
000040 57 94 20 bf 5d e2 ce be 3a 49 ce be 43 53 ee bd
       -0.6272635 -0.40407076 -0.40290242 -0.11636975
000050 03 0a 16 be c5 56 47 3c 6e 57 d8 bd 18 36 71 bd
       -0.14652257 0.012166684 -0.10563551 -0.05888948
000060 ba a4 33 be cf dc 24 3d d8 89 86 be 54 fc e4 be
       -0.17543307 0.040249642 -0.2627704 -0.4472376
000070 6d dd 6c be 02 e3 dd bd b7 77 f5 bd 21 2c ea bd
       -0.23131342 -0.10834314 -0.119857244 -0.11434198
000080 2e 34 af 3d ee 67 3c 3c 3c 7b 43 be 75 d5 c7 bd
       0.08554874 0.011499388 -0.19089979 -0.097575106
000090 a3 d6 98 3e 49 3d c7 3c fc 19 a5 be 19 93 8e be
       0.29851255 0.024321215 -0.32246387 -0.27846602
0000a0 38 9f b1 bd bd 72 51 3c a6 a3 ba be f0 b5 b3 bd
       -0.08672947 0.012783703 -0.3645298 -0.08774936
0000b0 c1 a3 0b 3e 15 9d a7 be d9 dc c0 3c f8 83 a8 be
       0.13636686 -0.32737032 0.023542808 -0.32913184
0000c0 6a 35 fa be 15 a9 86 bd bd 6c 1d 3e 85 7f 8b bd
       -0.48868877 -0.065752186 0.15373512 -0.06811432
0000d0 64 08 08 bf ab f7 33 3e 53 18 13 bf 5a 82 26 3e
       -0.53137803 0.17574947 -0.5745899 0.16260663
0000e0 f8 31 40 3d 7b 5d d1 3d 27 64 fa bb 24 3c 0b bf
       0.046922654 0.10222908 -0.0076413336 -0.5438864
0000f0 67 ac 7a bd 3e a2 6b 3d 94 08 40 3d b9 43 ff 3c
       -0.061199572 0.057527773 0.04688318 0.031160222
000100 46 5e 5d bd ef 22 90 3e 5d b0 df bd cd bb 6e be
       -0.054044984 0.28151652 -0.109223105 -0.23313828
000110 e3 7f 37 be 20 cb 13 bd d4 22 14 bd 7b d7 9b 3d
       -0.17919879 -0.036082387 -0.036166027 0.07609459
000120 c8 68 e8 be 5c d4 9e bd 15 0a c1 3d 7b fc 02 bf
       -0.45392442 -0.07755348 0.09425751 -0.51166505
000130 cd 24 5d be 0a 74 a1 be c0 73 1a be c9 22 86 3d
       -0.2159607 -0.31533843 -0.15083218 0.065496035
000140 4b 69 de bd e8 05 5b bd 70 ea f8 bc e9 a3 b0 3c
       -0.10859927 -0.05347243 -0.030385226 0.021562533
000150 92 69 27 bf e7 13 07 bf 74 c6 07 bf 8b f0 42 3d
       -0.6539546 -0.52764744 -0.5303719 0.04759268
000160 fc a8 b9 3e fb 1f 46 3e 03 36 22 3e fc cf 25 3e
       0.36261737 0.19348137 0.15840916 0.16192621
000170 1c f5 db bd d4 79 39 be 60 73 d1 3c cc f6 b1 be
       -0.1074011 -0.1811288 0.02556771 -0.34758604
000180 0a ac 8c be 3e 6f a8 3e 70 21 82 3e 43 be 65 3e
       -0.27475005 0.3289737 0.25416136 0.2243586
000190 11 31 d1 3e e6 f9 b1 be dd 56 95 bd 6d 97 6d be
       0.40857747 -0.3476097 -0.072919585 -0.23202296
0001a0 f5 30 77 bd 2c db b6 be 28 d9 8d bd 58 20 65 bd
       -0.060349423 -0.3571409 -0.06926185 -0.05593905
0001b0 61 ba 5a be 05 35 13 be c0 3c 1d be 28 40 9b 3d
       -0.2136016 -0.14375694 -0.15355206 0.07580596
0001c0 68 c1 5e bf e3 aa e0 be 66 ba b0 3c 5a 02 01 bf
       -0.87013865 -0.43880376 0.021573257 -0.50394213
0001d0 be 8d 60 be 64 f6 1a 3d 8a 38 87 3d 1e 2c 5d bd
       -0.2192907 0.037832633 0.06602581 -0.05399715
0001e0 0b 7f b5 be 3e 00 b2 3e c7 cc d5 be 5a 0a b2 be
       -0.3544849 0.3476581 -0.41757795 -0.34773523
0001f0 e2 52 09 b9 83 96 25 3e ad 85 9e be 43 14 59 be
       -0.00013096214 0.16170697 -0.30961362 -0.21199135
000200 b2 7d 3a be e7 89 e3 be dc 24 90 be 84 4e be bd
       -0.18212011 -0.4444115 -0.2815312 -0.092923194
000210 19 59 ee be 1e f1 2f be 7c ff 2d bf 74 d9 5b 3d
       -0.4655235 -0.17181823 -0.67967963 0.053674176
000220 01 e1 fc 3c a8 67 60 bc a4 70 91 bc 42 3a fb bc
       0.030869009 -0.013696589 -0.017753907 -0.030667428
000230 f1 17 26 3e 11 84 10 bf 4c 69 33 3d fb 9b ae 3d
       0.1622007 -0.5645152 0.04380159 0.08525845
000240 f2 a3 c2 3e ee 5d 84 be 02 92 1c bd 47 fe 48 3e
       0.38015705 -0.25852913 -0.03822518 0.19628249
000250 e5 aa 6a bc cd b8 34 bc 0f c8 b1 3d 80 98 0e 3e
       -0.014322971 -0.011030388 0.08680736 0.13925362
000260 ec a2 6b bd 4a 96 9a bc c8 79 08 3e a5 4c 49 be
       -0.05752842 -0.018870492 0.13327706 -0.19658144
000270 96 6e 13 be 53 8e ea 3b 70 eb 89 3d 20 8c 4c bf
       -0.14397654 0.0071580797 0.06734359 -0.79901314
000280 40 4e f3 3d a0 e4 f5 3d 46 7c 27 3b 1f f9 82 be
       0.118801594 0.120064974 0.002555625 -0.2558069
000290 17 47 f7 3d 84 88 1a be b6 a7 d7 3d 06 2f fb 3c
       0.12074106 -0.15091139 0.10530035 0.030662071
0002a0 c6 75 02 3e b5 cf fd be 64 3a 5e be 1c fb b6 be
       0.1274024 -0.4957253 -0.21701962 -0.35738456
0002b0 a0 8e c1 3c 95 54 d8 be 83 69 71 bd 41 da 00 3d
       0.02362758 -0.4225203 -0.058938514 0.031458143
0002c0 f5 58 3d be 99 be da 3d 8e 8f 4b bf e0 07 a2 bd
       -0.18490966 0.10680885 -0.7951592 -0.07911658
0002d0 53 ce 04 bc c0 7c d9 be 6c ae d1 be 93 48 69 be
       -0.008105832 -0.4247799 -0.40953386 -0.22781591
0002e0 4e 40 6d be a1 15 28 bd 26 85 13 be e8 f9 7f bd
       -0.23169062 -0.041036252 -0.14406261 -0.06249419
0002f0 f0 1b 09 be 40 db 40 be 81 36 16 bf 94 1f 13 bd
       -0.13389564 -0.18833637 -0.58676916 -0.035918787
000300 6b 96 d9 bd b6 83 1f 3e 57 61 87 be f8 e4 09 bf
       -0.10624393 0.15577587 -0.26441452 -0.53865004
000310 7a d0 b0 bd 2c bd 30 3e 13 93 74 3d 8e 09 96 be
       -0.08633514 0.17259663 0.059710573 -0.29304165
000320 c1 b0 5e 3c b9 e1 d0 3d cb d6 41 bd e3 6b 1d bd
       0.013591946 0.10199303 -0.047323983 -0.038432967
000330 07 af ac bd 3e 39 32 bf 76 2a a4 bd a7 22 0d 3e
       -0.08431821 -0.69618595 -0.08015911 0.1378275
000340 3c f2 87 be fe 37 8a bd f0 bf f9 bd 9a 01 b4 be
       -0.26551998 -0.06748961 -0.12194812 -0.35157472
000350 66 6e da bd ac 32 33 bc 96 18 dd bd b4 ba 8b bd
       -0.10665588 -0.010937374 -0.10795705 -0.0682272
000360 a8 e4 e8 3b 6d 8d 26 be 22 12 05 bf e9 72 a9 3b
       0.007107336 -0.16264887 -0.51980793 0.005171169
000370 07 e2 88 be c4 08 d7 bd 20 a3 7c bd 18 4d 31 bd
       -0.26734945 -0.10499719 -0.061679006 -0.043286413
000380 90 8e 82 bd ea 10 52 bc 86 ec 3e bd 73 92 78 bd
       -0.06374848 -0.012821415 -0.046612285 -0.06068654
000390 d9 14 a7 bd 0d 3e 44 be c3 af 82 bd ec 6d 65 bd
       -0.08158273 -0.19164295 -0.0638118 -0.056013033
0003a0 44 8c 53 be b1 56 4b 3c fe 1d a6 bd 55 85 2f 3e
       -0.20658976 0.012410806 -0.08111189 0.17140706
0003b0 7d 62 90 3d 41 a2 3f 3c ab 04 f4 be a0 cc 68 be
       0.07050035 0.011696399 -0.4765981 -0.22734308
0003c0 7c 0c 3e be 1e f7 9a bc 05 88 54 be 5e 30 7d 3c
       -0.1855945 -0.018916663 -0.20755012 0.015453426
0003d0 52 05 87 3d 34 1f 80 be 62 7c a3 bd 37 2a 31 bd
       0.06592812 -0.25023806 -0.079827085 -0.04325315
0003e0 27 6c df bd 82 75 0d be 9b a7 47 3d a0 4c d9 bc
       -0.109093 -0.13814357 0.048743825 -0.026525795
0003f0 ac c1 8d be 5f 9b 56 bd 79 c7 26 be cb 37 8a be
       -0.27686822 -0.052394267 -0.1628703 -0.26995692

hidden3.0.bias f4 [100]
000000 81 e5 0d 3e 22 b6 c3 3d 00 fb ba 3e 82 ca 0a 3e
       0.1385708 0.095562235 0.36519623 0.13553813
000010 30 f7 0b 3e 37 f9 8f 3c 34 fb 07 3e 2d 11 92 3d
       0.13668513 0.01757489 0.1327942 0.07132182
000020 a2 a3 46 bf 23 1d 13 3e 66 dc c7 3d 1f ba 02 3e
       -0.77593434 0.14366584 0.097588345 0.12766312
000030 95 db 41 3d 22 ef 2c 3e 65 15 e9 3d ab 53 76 3e
       0.04732855 0.16888097 0.11381034 0.24055354
000040 3b a7 c5 3d a6 d0 1c 3e d0 ff 6c 3d 26 ab ab be
       0.09651037 0.15313968 0.05786115 -0.33529013
000050 c0 81 fa 3d e8 97 87 bd 69 53 23 bf c1 49 25 3e
       0.12231779 -0.06620771 -0.6379915 0.16141416
000060 ab ce 76 3d d7 58 d0 3e 50 f9 af 3d 6a c3 83 3d
       0.060255688 0.4069278 0.085924745 0.06433757
000070 c6 18 66 3e 2f 48 bd 3d a0 d1 c2 3d 6b 8e d2 3d
       0.22470388 0.092422836 0.09512639 0.1028107
000080 8b 4f f7 3d 5e 99 77 be 33 cb 17 3e d4 8e 01 3e
       0.120757185 -0.24179599 0.14823608 0.12652141
000090 dd 7c a4 3d 69 5c 86 be fe 97 9b 3d e7 15 9f bd
       0.08031628 -0.26242378 0.075973496 -0.077678494
0000a0 26 7f ff be 3e 03 69 3d 9c 35 92 3e 0b 71 c3 3d
       -0.49901694 0.056887858 0.28556526 0.095430456
0000b0 c3 a7 16 3e 11 f0 44 3d fd 8d ea 3d d7 e2 7a 3e
       0.14712434 0.048080508 0.11452863 0.24500595
0000c0 72 a5 6d 3e d6 40 19 3e 9f c0 f0 3d d7 6b ec be
       0.23207644 0.14966139 0.117554896 -0.46176025
0000d0 72 1c 3a 3e b1 dc 4c 3e 73 d1 4d 3e bb f9 37 3d
       0.18174914 0.20006062 0.2009943 0.044915896
0000e0 d5 c2 5c 3d 94 1b c6 3d f1 8f 0f 3e 74 d8 fd 3d
       0.053896744 0.09673229 0.14019753 0.12394801
0000f0 67 46 ae bc 17 93 17 3e 5a cd 7b 3c 94 d4 f4 3c
       -0.021273805 0.14802204 0.015368784 0.029886521
000100 f2 2e 5a 3e 97 be 36 3e 72 01 b6 3d 5f cb ec 3c
       0.2130697 0.17846142 0.088869944 0.028905569
000110 5c 38 65 3d 2b c4 db 3d 2b c5 82 3d 73 fb fd 3d
       0.05596195 0.107307754 0.06385263 0.12401476
000120 da 27 87 be 86 4f eb 3d 17 ad df 3d 74 5c 8a 3e
       -0.26397592 0.11489777 0.10921686 0.2702366
000130 d4 25 fd 3d 2b 24 8a 3e 63 19 4c 3d ea c9 7c 3c
       0.12360731 0.2698072 0.0498289 0.015428999
000140 fd fd 12 3e db 59 ce 3d aa e2 76 3d 11 d8 2c 3e
       0.14354701 0.10075732 0.060274757 0.16879298
000150 8e 4a 4a 3d d6 60 90 3c 87 3c 6d 3d de b9 a7 be
       0.049387507 0.0176243 0.05791905 -0.32758993
000160 98 24 03 3d 9d 02 09 3e 78 ef fc 3d 26 2a 07 3e
       0.03201732 0.13379903 0.123503625 0.13199672
000170 2a 88 3b 3e a7 9c 7f bf ef 96 b9 3d 5e 23 8d 3d
       0.18313661 -0.9984841 0.090619914 0.068915114
000180 e1 b9 47 bf 06 b7 27 3e 3e 52 f2 3d 59 aa df 3d
       -0.78018004 0.16378412 0.11832093 0.10921163

output.0.weight f4 [10, 100]
000000 d2 d3 fe 3c f0 c5 c1 be 65 7c de 3c 38 d3 ea be
       0.031106863 -0.37846327 0.027158925 -0.45864272
000010 cd 79 ed be b1 71 01 bf 36 d1 69 3c 1b b0 ca 3c
       -0.4638199 -0.50564104 0.014271071 0.024742177
000020 78 06 1c 3d 40 d5 88 be 43 56 d3 3c b9 5d fd be
       0.038092107 -0.26725197 0.025797969 -0.49485567
000030 a6 9f de be da 7b c8 be 1a 95 66 be 41 d4 5f bf
       -0.43481177 -0.3915699 -0.22517815 -0.8743325
000040 6c e5 ba be 1d ee d8 3c c5 26 d5 bc f4 d7 20 3c
       -0.3650316 0.026480729 -0.026019463 0.009817112
000050 8f ee a6 bc ad 48 c5 be e9 50 a2 3c 1b ec 2e 3d
       -0.020377425 -0.3853201 0.019813972 0.042705636
000060 41 a4 7a bf 93 69 26 bd e7 08 47 bf c0 96 04 be
       -0.9790688 -0.040628027 -0.7774796 -0.12948132
000070 88 fb d4 be 04 01 60 bf 08 a2 f3 be a4 f2 da be
       -0.41598153 -0.8750155 -0.47584558 -0.42763245
000080 e8 37 10 bf 22 b2 93 be 93 b4 46 bc 21 76 ad bb
       -0.56335306 -0.28846842 -0.012128013 -0.005293623
000090 56 ab 54 be b6 e4 18 3d be 46 40 bf f5 f2 b4 be
       -0.20768484 0.03732749 -0.75107944 -0.35341612
0000a0 7f 24 d0 be 6a 5f 23 3c f8 cc 7f 3c fc 52 62 bf
       -0.40652844 0.009971479 0.015612833 -0.88407874
0000b0 2f 45 ec be d7 29 e2 3c 42 50 fb be 98 7a 8f be
       -0.46146533 0.027607841 -0.4908467 -0.2802322
0000c0 28 29 44 3a 7a 3c e5 bd 7f f6 a7 be 85 80 13 bf
       0.00074829394 -0.111931756 -0.3280525 -0.5761798
0000d0 69 26 7f be fc 18 92 be 38 e3 2e 3c 01 c7 2b 3d
       -0.24916996 -0.28534687 0.01067429 0.04193783
0000e0 f2 57 14 bf ec 53 2e 3d 40 35 64 be 81 fd b4 3c
       -0.57946694 0.042560503 -0.22285938 0.022093536
0000f0 fd bc 47 3c a8 f0 09 3d d5 3c 19 bf f9 ed 5a bf
       0.012191054 0.033676773 -0.5985845 -0.8551937
000100 7c 29 5f 3d fb 69 82 be 0a 16 d0 3b 24 67 0f bf
       0.054482922 -0.25471482 0.0063502835 -0.56016755
000110 3c 6b 00 bf d5 75 25 3c 24 42 98 3c eb a4 53 be
       -0.50163627 0.010098894 0.018586226 -0.2066838
000120 13 02 d3 3c a1 e1 18 bc b1 a9 6f be e2 73 c2 bd
       0.025757825 -0.009331138 -0.23404576 -0.09494759
000130 51 a3 8f 3d a2 b6 b9 3c ad d8 28 bf ac 9a c2 3b
       0.07013572 0.022670094 -0.6595562 0.0059388485
000140 62 8f 81 3d 92 7e 26 be dc da d4 be fc b2 9a be
       0.06326176 -0.1625922 -0.41573226 -0.3021468
000150 ba 8b 04 bf 07 d0 de 3c f0 98 70 be eb 9b bc 3c
       -0.51775706 0.027198805 -0.23495841 0.023023566
000160 9e 40 16 bf 9a d4 3f bf fa c9 23 3d 10 61 22 bf
       -0.5869235 -0.7493378 0.03998754 -0.63429356
000170 4d 17 40 bf 74 60 e2 be 9a 18 ea be 37 7b 03 bf
       -0.75035554 -0.44214213 -0.45721895 -0.51359886
000180 93 32 db 3c 6d ef a5 be 65 1f 95 3c 32 4a 1a bf
       0.026757514 -0.3240923 0.018203447 -0.60269463
000190 46 b4 29 bf 03 91 81 3d c2 40 d1 be 1e 46 0a bf
       -0.662907 0.06326487 -0.4086972 -0.5401324
0001a0 0b f1 24 bd 08 51 0c 3d 7c ba 13 bf 6f f5 10 bf
       -0.04026894 0.034256965 -0.5770643 -0.566245
0001b0 29 c7 aa 3d 4b df 2a 3d 38 f6 13 bf 84 3f 2c 3d
       0.08338768 0.041716855 -0.57797575 0.04205276
0001c0 84 68 8d 3b 3a c6 6a 3c 59 07 f2 be 02 43 39 bf
       0.0043154377 0.014329487 -0.4727123 -0.7236787
0001d0 03 f7 cb be 51 a9 71 3d 93 7d 6c be 44 86 50 bb
       -0.39836892 0.058999363 -0.23094778 -0.003181831
0001e0 74 44 c7 be e8 3e 3d be db 7e 50 bd 22 a9 1c bf
       -0.38919413 -0.18481028 -0.05090223 -0.61195576
0001f0 48 81 1e be 9b 65 2e 3d 5a 78 de be a6 85 41 bf
       -0.15479004 0.042577367 -0.43451196 -0.75594556
000200 34 0a 69 3d d2 70 05 bd 2e 4b f1 be 0d 7f ef be
       0.056894496 -0.032578297 -0.4712767 -0.4677662
000210 b9 af b6 3d da 39 16 3d 86 1c 40 3d cb 7c 38 bd
       0.08920235 0.036676265 0.046902202 -0.045040887
000220 82 9f c0 be 9b ed 0a bf 61 4a 7f 3c 46 a0 8d 3c
       -0.37621695 -0.5426881 0.015581698 0.017288338
000230 b8 1e 7a 3d ca 52 00 bf 53 ee d2 be a9 f4 93 be
       0.061064452 -0.50126326 -0.41197452 -0.28897598
000240 09 20 27 bf c0 c7 94 be 6f 68 f3 be bc 41 ae be
       -0.65283257 -0.29058647 -0.47540614 -0.34034526
000250 4c 20 a9 3d ec 48 1e bf 2d 50 a0 bb dc 6a f3 be
       0.08258113 -0.6183002 -0.00489237 -0.47542465
000260 5d 0f d6 be d5 59 0b bf 25 26 55 3b 4f 60 21 bf
       -0.41808596 -0.5443395 0.0032523957 -0.6303758
000270 1c de 13 b9 08 bd 85 be b0 a9 67 bf fb 53 70 bf
       -0.00014101755 -0.26120782 -0.904933 -0.93878144
000280 37 2f 2f bf d4 0a 79 3d 41 d1 be be 77 64 0b bf
       -0.6843142 0.060801342 -0.37269023 -0.5445017
000290 e6 e1 93 3d 02 98 5c 3d be c6 a1 be 83 a0 a5 be
       0.07220821 0.053855903 -0.3159694 -0.32349023
0002a0 ba 39 0f bf e2 9b 35 3d f3 d6 c1 be c9 22 c7 3d
       -0.5594746 0.044338115 -0.37859306 0.097234316
0002b0 ef ec de be 51 97 80 3d db 0a 4f bf a2 6a de be
       -0.4354014 0.06278861 -0.8087594 -0.4344073
0002c0 3f 87 40 bf 1f 50 40 3d 2b d5 2a bf 1d 8f 3d bf
       -0.7520637 0.04695141 -0.6673152 -0.740465
0002d0 56 53 70 3d c8 13 02 be 99 d9 38 be e4 30 a0 3d
       0.058673225 -0.12702858 -0.18051757 0.07821825
0002e0 0c a6 5c bb b3 fb 11 bf c5 76 bb be 55 9b 00 3d
       -0.0033668308 -0.5702469 -0.3661405 0.031398136
0002f0 60 75 be be 33 77 f0 be b8 09 94 be 6b 4e 00 bf
       -0.37198925 -0.46965942 -0.28913665 -0.50119656
000300 65 ed 11 be cc 06 c7 be a9 03 c5 be 2b 8c cd 3d
       -0.14250715 -0.38872373 -0.38479355 0.100365005
000310 87 d8 3c 3d 7c 61 5f 3d a4 7e 29 bf af 74 82 3d
       0.046104934 0.054536328 -0.66208863 0.06369912
000320 1f 0d d1 be d1 18 d1 bd 3e 86 08 3d 09 d3 29 bf
       -0.40830323 -0.102098115 0.03333115 -0.6633764
000330 f4 4e 50 3d 82 8c 6d 3d c5 e0 35 3d b0 06 5a be
       0.050856546 0.057995327 0.04440381 -0.21291614
000340 25 8f 87 be e1 ba 31 be d4 f4 2d 3c cb 95 2a be
       -0.26476398 -0.17356445 0.010617454 -0.16658704
000350 cc 02 04 3d fe 38 c4 be 7e 71 e7 3c 2b c7 e0 be
       0.03222923 -0.38324732 0.02825236 -0.43901953
000360 0e dd 29 bf a4 7d f8 be 1c 19 13 3c 59 39 70 bc
       -0.6635293 -0.48533356 0.0089781545 -0.01466211
000370 54 e7 44 be 45 e0 e4 be 48 76 96 bb 6e 49 38 be
       -0.1922887 -0.44702354 -0.004591737 -0.17996761
000380 3f 58 4e bf 09 d8 c9 be ce ab 07 bf bc f8 56 3d
       -0.806034 -0.39422634 -0.5299653 0.052483305
000390 e4 3b aa be 93 32 32 bd 06 e4 63 3d e5 d0 82 bf
       -0.33248818 -0.043505263 0.055637382 -1.022
0003a0 df b3 5f bf 57 4c f0 bd 8d e7 1f 3d 9c 8e e4 bd
       -0.87383837 -0.11733311 0.039039183 -0.11160013
0003b0 85 99 7a be 5e 58 dd be 0a 87 70 3c 0c 5b de 3c
       -0.24472626 -0.4323148 0.014680633 0.027143024
0003c0 23 13 df bd f7 92 cd 3c 17 b8 4d be 72 14 de be
       -0.10892322 0.025094492 -0.20089756 -0.43374974
0003d0 b6 55 db 3c 44 5a 57 be 68 b9 ea 3c e0 af 19 3d
       0.026774269 -0.21030527 0.028652862 0.037521243
0003e0 5c c7 b8 be 23 38 21 bb bf e8 10 bc 57 68 89 39
       -0.360896 -0.002460011 -0.0088445535 0.00026208416
0003f0 3d d2 74 be 54 1f 57 be d7 62 9d be bb 91 6e bb
       -0.23908325 -0.21008044 -0.3073947 -0.003640278

output.0.bias f4 [10]
000000 fd 67 86 3f 9b 3b 8a 3f 53 49 a8 3f 73 e5 81 3f
       1.0500485 1.079944 1.3147377 1.0148147
000010 d4 35 9f 3f b4 f0 9c 3f 96 58 a2 3f a1 96 a5 3f
       1.2438302 1.2260957 1.2683284 1.2936593
000020 ef 39 ba 3f e2 04 40 be
       1.454893 -0.18751863
